checkpoints/agent_4_best.pt (torch, 179545 bytes, 11 tensors)

encoder.0.weight f4 [16, 5, 3, 3]
00000000: d979 e3bd b992 513e f117 9b3d da2f 263e
00000010: a762 58be 6610 9cbc 769a 2fbe 54bc 303e
00000020: cfc3 de3c cecd 91bd 1d37 cf3d 5c9e 1b3e
00000030: a29f 053e b4c5 bc3d c25e afbc 31ac 33be
00000040: 3843 113d 8253 dbbd d55c 8ebe 56a7 1cbc
00000050: d46c 353d 142e ffbb 9ee6 a6be 027e c63d
00000060: 745a 9cbe 9c06 2abe 279c 9c3d de00 4bbe
00000070: c0a4 593d 482d 21bc 472a b03d 4e30 f83c
00000080: 8f90 863d 5072 39be 5a72 91bd cab5 8abd
00000090: f63a 1e3c 6bdc 4abd 80ab 61bd e1d7 6cbc
000000a0: 0826 4b3c 0ad6 783d 3526 6cbe 0364 af3d
000000b0: 4aa8 d6bd d3c3 823d c656 a8bd 6af4 b43d
000000c0: aaa6 e8bc cd61 edbd e45c ef3d 21ab 83bd
000000d0: 98e0 e53d 285c d73d 62f9 79bd 6faf ecbd
000000e0: 0782 a7bd 9a67 b7bd 63de 15be eb17 edbd
000000f0: c91e 86bd d7b8 9ebd 60df 913d 1f40 a7bd
00000100: 158d 643c 84b8 10bc 7a88 be3d dfb3 323e
00000110: af0e d4bc 0b6f 683e b976 f8bd 6055 1f3b
00000120: a06c 883c 1c13 8ebd f09b 4abe f4e5 983c
00000130: b82d 64bc 140a 4cbe 60e3 083e 9c30 473e
00000140: 9bee 0b3d 8924 4e3e 20d7 ecba fdc9 073e
00000150: f356 11bd 0898 353e 4f52 1ebe bc14 b2bd
00000160: 51f5 9fbd f925 d33d 702e 683d fb22 713d
00000170: 4609 7dbd 0a98 3abd eb4b 47be 8297 d4bd
00000180: ccb9 4cbe 7034 d73a 66be aebd 8e4a cd3c
00000190: c74c d4bc 1162 033d 60e7 2c3e 3f01 8f3d
000001a0: 5473 733c 5dc2 5d3e 4c68 863c f923 87bd
000001b0: c4cf 263e 26db 62bd 5402 dfbd b35e d8bd
000001c0: ce21 13bd 5409 0b3c 17d7 133e 1068 6c3c
000001d0: ce78 323e 190e 103d dd50 b93d daef 2e3d
000001e0: bca6 dabd 7880 633e 0025 433e 8282 02be
000001f0: d4f9 e6bd 2461 49be 5896 8abe 3e17 ac3d
00000200: 9f25 c5bd 581b bebd d4c5 e43c e605 d43c
00000210: 0aa8 943d 1530 9dbe bc94 80bc 24b3 2c3e
00000220: e513 60be 7c64 bebc b2ae cb3d 7d0f 673e
00000230: dc46 11be 75e2 b23c 9054 81be b232 12bd
00000240: bc8b 0a3e ffbc d4bc 3c03 73be 02e0 933d
00000250: bb0e 5f3c 92b3 133e aeac ea3d 12ca 23bd
00000260: eec0 09bd 043c cc3c 5007 75bc 88bd 09be
00000270: 360d 0ebe 2fd2 b43d f85e 343c d70c 0cbe
00000280: 7964 95bc 3256 0e3e 1e32 183e d690 373e
00000290: 47f3 c8bd e62b 2c3e 49c6 2a3d d6e5 62bd
000002a0: 10a3 51bb 8b30 65bd f1b7 22be 0e53 8bbd
000002b0: f2af 1cbd ece9 b8bd 2018 1e3d 9078 62bc
000002c0: 6235 d63d 8387 1cbd c65d 943d 2975 803e
000002d0: 18cd ac3d 549b d53d de0e 10bd 469f 0cbe
000002e0: a842 a63c 4eb1 cc3e ae18 25be 2c49 633d
000002f0: bdde 63bd 0d1a 45bc 6b04 a63d 481a a63c
00000300: c210 163d 264e 1ebd 3285 fbbd f106 00be
00000310: 8203 98bc 75ac 02be 87be b53d 3dd8 5c3d
00000320: df94 5fbd f6c0 07be cce8 05be a343 5abe
00000330: 7613 71bc ca6b 1fbd 9f2c 0f3d 228d d0bd
00000340: 3e82 a73d 6f91 24bd 3158 133d 5fe3 e5bd
00000350: 6e06 7c3c ed95 403d 1f27 77bd c070 63bb
00000360: 9699 a8bd f634 63bc 6564 173d 0ef2 883d
00000370: 0f45 c13d 3331 fd3d 5051 56bb 19e1 82be
00000380: 9438 6b3c 3900 1a3e b915 0b3d 1124 68bd
00000390: c49e a6bb 97b0 9a3d 9655 933d f490 113c
000003a0: ce72 aabd 04f5 febd cc2f a9bd 20e1 093b
000003b0: b216 613e 7e75 43bd 3dba 5cbe 70fd 453d
000003c0: 25e9 f63d 485f cfbd 887e 6ebd 4a6f bcbd
000003d0: e0fc 6bbb 5633 8c3d 30df 233c f10a ccbc
000003e0: 318b c13d d557 bfbc a830 ae3d 40e8 cdba
000003f0: 4446 cfbc b11a a6bd ea24 b6bd 1d5e a3bd
-0.11107225 0.20466127 0.07572926 0.16229191 -0.21131383 -0.019050788 -0.17148766 0.17259341
0.027192978 -0.07119332 0.10117934 0.15197128 0.13049176 0.092173964 -0.021407489 -0.17546155
0.035464495 -0.10709287 -0.278052 -0.00956138 0.04429324 -0.0077874754 -0.32597822 0.09692003
-0.3053776 -0.16604084 0.07646971 -0.1982455 0.053135633 -0.009837456 0.08601814 0.030296471
0.06570541 -0.18110013 -0.07101889 -0.06772955 0.009657612 -0.049526613 -0.055095196 -0.014455766
0.012399204 0.060751 -0.2306145 0.085639976 -0.10481317 0.06385007 -0.08219676 0.08835681
-0.028399784 -0.1159092 0.11687639 -0.064291246 0.112244785 0.10515624 -0.061028846 -0.11556899
-0.081790976 -0.08955307 -0.14635615 -0.115768276 -0.065488406 -0.07750099 0.071226835 -0.08166527
0.013949652 -0.008833054 0.093033746 0.17451428 -0.025885908 0.2269861 -0.121320195 0.0024312362
0.016653359 -0.069372386 -0.19786048 0.018664338 -0.013926916 -0.1992572 0.13367987 0.19452137
0.0341631 0.20131125 -0.0018069483 0.13260646 -0.03548331 0.17733777 -0.15461086 -0.08695361
-0.07810462 0.10309977 0.05668491 0.05887125 -0.061776422 -0.045555152 -0.19462554 -0.1038046
-0.19992751 0.0016418826 -0.08532409 0.025059965 -0.025915517 0.032075945 0.16885138 0.069826595
0.014859039 0.21656175 0.016407155 -0.06598658 0.16290194 -0.055384777 -0.10889116 -0.105649374
-0.03592091 0.008486111 0.14437519 0.014429107 0.17428896 0.035169695 0.090486266 0.04270921
-0.10676333 0.22216976 0.19057083 -0.12745097 -0.1127812 -0.19665962 -0.27067828 0.084028706
-0.09626316 -0.09282559 0.027926363 0.025881719 0.072586134 -0.30700746 -0.015695922 0.16865212
-0.21882589 -0.023241274 0.0994543 0.22564502 -0.14187187 0.021836499 -0.2525983 -0.035692878
0.13529867 -0.025969027 -0.23731703 0.072204605 0.013614352 0.1442397 0.11458717 -0.03998763
-0.033631258 0.024930961 -0.014955357 -0.13451207 -0.13872227 0.08829152 0.01100897 -0.13676773
-0.018236386 0.13900068 0.14862868 0.17926344 -0.098120265 0.16813621 0.041693006 -0.05539497
-0.0031988062 -0.055954497 -0.1589048 -0.06802951 -0.038253732 -0.09028992 0.038597226 -0.01382269
0.10459401 -0.03821517 0.07244448 0.25089386 0.08437556 0.10430017 -0.03517043 -0.13732633
0.020295456 0.39979023 -0.16122696 0.055489704 -0.05563234 -0.012030137 0.081063114 0.020276204
0.036637075 -0.038648747 -0.12281264 -0.12502648 -0.01855636 -0.127611 0.08874231 0.05391716
-0.054585334 -0.13257203 -0.13077086 -0.21314864 -0.0147141125 -0.038921155 0.034954663 -0.10183169
0.081791386 -0.04017776 0.035972778 -0.11225008 0.015382392 0.04701798 -0.060340043 -0.0034704655
-0.08232419 -0.013867607 0.036960978 0.06686793 0.09437 0.123629 -0.0032702275 -0.2556236
0.014356751 0.15039147 0.033956263 -0.05667502 -0.0050848443 0.07553213 0.071940586 0.008884657
-0.083226785 -0.12449077 -0.0826107 0.0021038726 0.21981314 -0.04771947 -0.2155542 0.0483374
0.120561875 -0.10125595 -0.05822614 -0.09200914 -0.003600888 0.06845729 0.0100019425 -0.024907561
0.09450377 -0.023357311 0.08505374 -0.0015709475 -0.02530206 -0.0811056 -0.088937595 -0.07976935

encoder.0.bias f4 [16]
00000000: a96a 1a3d e47a 143e fd30 9fbd d607 88bc
00000010: 22cc 0bbe 1d3e 063e f168 0c3e 3a88 973d
00000020: ef71 023d 7f23 f73c 0ffb d6bd c51b d93d
00000030: ce7e d53d 2b8b 17bd 2a9d e23d 4152 253d
0.037699375 0.14500004 -0.07773016 -0.016605299 -0.13652089 0.13109632 0.13711907 0.0739903
0.031846937 0.030168293 -0.104971044 0.10601 0.10424577 -0.036997955 0.11065133 0.040361647

encoder.3.weight f4 [64, 144]
00000000: 159c af3d 7e34 d9bc 9cdd 27be 2218 bb3d
00000010: 7e97 d13d fee8 c23d 8fb9 9e3c df2e babd
00000020: 1c8f 57b9 3a2b 8ebd 3ce0 a1bc 8e37 3c3c
00000030: ebdc 9dbd f404 c33c 481b 71bc 637a b93d
00000040: 8d0e c93d bab1 3bbc 8db5 36bd 4ea0 4ebd
00000050: 14d0 8a3d bcb7 9b3d b187 87bd b860 30be
00000060: 2777 993d f0da 3fbd f9ec 703d ae3a 2b3d
00000070: 9ecf 9ebd 53c4 873d 0b35 abbd b2c5 edbd
00000080: 6682 0e3d 90dc 10be 5b5f b53d d8ee 163d
00000090: 9d69 48be 0bac 6abd f225 03bd 230f 873d
000000a0: b1a6 00be 5afb 1ebc d4b7 b7bd 9ae2 b6bd
000000b0: 227c 38be dcbc af3d ffb5 1e3d 6e37 12bd
000000c0: 53e4 5c3d f2c2 373c 7a25 9e3d a83f 963c
000000d0: 10be 4a3c 1c92 91bd 6752 6dbd a2e1 51bd
000000e0: 3835 02bd 44ac 573d 0815 05be 1fee 35be
000000f0: f815 bdbd 9ae0 acbd ba5a 273e 434d a4bd
00000100: 4040 40bd fd12 a7bd 080d 8fbc 80d9 d339
00000110: 16f1 28bd 6555 053e b0c7 10be ca95 06be
00000120: e4c6 213d 739c b3bd 483a 1a3c 81ae 863d
00000130: 3ced c93d 20d6 31bd 579f a13d d82c 4bbe
00000140: ae4b 633e 9a37 abbd a510 31bd 9e47 babd
00000150: c4cf 86bd 6a56 cbbc b9b2 eb3c 4275 f8bd
00000160: b877 c4bd 78f0 55bd b3e9 9abd a670 20be
00000170: cf9e 7f3d aa5b 813d dcf3 2ebd c001 cebb
00000180: 8c13 ef3b 1afa 8dbd e201 943d f25e 0ebc
00000190: a5cc 133d 4045 babd 397c 073e 17f7 2d3d
000001a0: 293f b33d 1005 9f3c 1010 05bd ccba d9bc
000001b0: b858 e6bd 63b8 b83c 1b78 8b3c 4531 8cbe
000001c0: 221c 03be 52ba 87bd d364 28be 25c8 573d
000001d0: 770d 793d 728e bf3c 6762 dbbc 56da 593d
000001e0: aab1 3a3d fe4d b33c d66b 943d 4c82 1e3d
000001f0: 1ec9 60bc 6037 2d3d 090e 83bd 26fc 7abd
00000200: dcec 503d e4f6 613e d145 30be 2fb7 a33d
00000210: c094 f2bc 08bd da3c 8282 2cbe c876 cebd
00000220: 8444 52be 14ac 52bd 237b 1d3e 6526 943d
00000230: 0c7d 673c 7158 863d c084 eb3c e1e4 25bd
00000240: 8c23 c2bd 996b 91bd 4ade 23bd 4fb4 3e3d
00000250: 2a4f acbd 74ef 9d3d 701b 0b3e e83f acbd
00000260: dad8 42bd d03d 4c3e a21f 0b3e e86b f6bd
00000270: a256 bdbd e241 d23d 9f0b 2cbd 95e2 01be
00000280: 93c4 713d e712 9f3d 6859 4ebe 36dd 36bd
00000290: dc74 2e3c de49 ea3d 940b 2bbd 27a9 9d3d
000002a0: ecc7 a73c d805 d3bd de19 f6bd 66fe be3c
000002b0: f83b fa3c fa74 753e f34c 6b3d 9972 5c3d
000002c0: c617 0abe b43e 363d 4853 e53d 471b cdbd
000002d0: 857e 7d3d b5b2 79bd 00a3 963e 3cf9 9a3c
000002e0: 900f b9bb fe8f aabd 2d99 083d e6ce 8a3d
000002f0: 3885 c03d 6a49 903d 7ac0 d3bc 4c5f cd3c
00000300: ed2b b13d 50e2 b83c 5052 733c b853 4d3e
00000310: 7f5d ed3c 7497 f9bc 6f40 24be f1d8 50bd
00000320: 1d93 8a3d 3566 223e 0f44 35be a01c 033c
00000330: 0009 ad3c 7018 b3bb 3efe b73d 1606 38be
00000340: 18da 2f3e 02c8 0ebd 1a8c d4bc f851 c1bd
00000350: 56a1 be3d 8ada 1ebc f48f df3d 9403 713e
00000360: fa47 d6bd 65a3 c43c 5ce2 f6bc ca36 033d
00000370: 4f0e a1bd 7e56 6b3e 49c6 453d 89d7 5e3d
00000380: 823a acbd 929a a53d 930f a13d b218 0dbe
00000390: 0cc1 bd3b 445c 8abd 83f5 203d 98dd 13bd
000003a0: 4490 d53d ae8d 0e3e 50ac 25bd 5ef0 f7bb
000003b0: 0e16 f6bb c83c 07be 17f6 c73c 8275 adbc
000003c0: b09e 133e 8457 5d3d 26f4 40be 48cb 733c
000003d0: 4615 0bbc a3f7 aa3d 4acc 40bc a41c 943d
000003e0: 6fdf fdbc 2fff 9ebd f49a 923d 9018 ca3c
000003f0: 223b 8a3d 3ec1 5abe d40f 083d c095 99bd
0.08574692 -0.026514288 -0.16393131 0.09135462 0.10233973 0.09517096 0.01937559 -0.09090971
-0.0002055731 -0.069418386 -0.019760244 0.011487855 -0.077081524 0.023806073 -0.014715977 0.090565465
0.098172285 -0.0114559475 -0.044606734 -0.050445847 0.06777969 0.07603404 -0.06617678 -0.17224395
0.0749343 -0.046839654 0.058819745 0.04180401 -0.077544436 0.06629243 -0.083597265 -0.11609973
0.034792326 -0.14146638 0.08856078 0.036848873 -0.19571538 -0.05729298 -0.03201861 0.06594684
-0.12563588 -0.009703482 -0.08970609 -0.089299396 -0.18016103 0.08580944 0.038747784 -0.035697393
0.053928684 0.011215912 0.07721992 0.0183409 0.012374416 -0.07107946 -0.057939913 -0.05124057
-0.031789035 0.05265452 -0.12996304 -0.17766617 -0.09232706 -0.08441277 0.16343203 -0.08022549
-0.046936274 -0.081579186 -0.017462268 0.00040407106 -0.041245542 0.13020857 -0.14138675 -0.13143077
0.039496318 -0.08770075 0.009413309 0.06576253 0.09859702 -0.043417096 0.0789172 -0.19841325
0.22196838 -0.083602145 -0.043228764 -0.09095691 -0.06582597 -0.024821479 0.028771745 -0.1213174
-0.09593147 -0.052231282 -0.07564106 -0.15667972 0.06240731 0.06316312 -0.04271303 -0.0062868297
0.0072960313 -0.06932469 0.072269216 -0.008689629 0.036083836 -0.0909524 0.13230981 0.04247197
0.08752281 0.019411594 -0.03248602 -0.02657833 -0.112473905 0.02254886 0.017025044 -0.2738134
-0.128037 -0.06627335 -0.16444711 0.052681107 0.060803857 0.023383353 -0.02678032 0.053186737
0.04557959 0.021887776 0.072471306 0.03869848 -0.013719825 0.042289138 -0.06399161 -0.061275624
0.051007137 0.22066838 -0.17214133 0.07993924 -0.029611945 0.026701465 -0.1684666 -0.100812495
-0.20533949 -0.051433638 0.15379004 0.07233886 0.014128935 0.065598376 0.028749824 -0.04050148
-0.09479436 -0.07100601 -0.040006913 0.046558674 -0.08413537 0.07711688 0.13584685 -0.08410627
-0.047570087 0.19945455 0.13586286 -0.120323 -0.092450395 0.102664724 -0.04200327 -0.1268409
0.05902536 0.07767277 -0.20151293 -0.044644557 0.010647979 0.1143987 -0.04175909 0.07698279
0.020481072 -0.10303849 -0.120166525 0.023314666 0.030546173 0.23970404 0.05744643 0.053820226
-0.13485631 0.044493392 0.11197525 -0.10014968 0.061888237 -0.060961444 0.29421234 0.018917672
-0.005647607 -0.083282456 0.033349205 0.06777744 0.094004095 0.070452526 -0.025848616 0.025069855
0.08650956 0.022568852 0.014851168 0.20051467 0.028975246 -0.030467726 -0.16040204 -0.05098814
0.06766341 0.15859301 -0.17701744 0.00800243 0.021122456 -0.0054655597 0.0898404 -0.17971072
0.1717304 -0.03485871 -0.025945712 -0.094394624 0.09308116 -0.009695658 0.10916129 0.23536521
-0.10462947 0.024003694 -0.030137233 0.032034673 -0.07864057 0.22982213 0.048284803 0.05440477
-0.08409597 0.080861226 0.07864299 -0.13778952 0.0057908352 -0.067558795 0.03929664 -0.0361
0.10427907 0.13921234 -0.040447533 -0.007566496 -0.0075099533 -0.1320678 0.024409337 -0.021174196
0.14416003 0.05403854 -0.18843135 0.014880009 -0.008488959 0.08348014 -0.011767456 0.07232025
-0.03099033 -0.07763516 0.07158461 0.024669915 0.0674956 -0.21362779 0.03321822 -0.07499266

encoder.3.bias f4 [64]
00000000: 58de bb3c 9413 3f3d f2c8 b43b 64f4 3d39
00000010: f72c 91bd f0ac ee3c 5467 a33c 5e82 a63c
00000020: 8c01 6e3c b655 bdbc f3fb 38bd 4b25 243d
00000030: 095c 42bd 3a9b b6bc d880 273c b0e2 edbc
00000040: 1adf 9fbd 32b1 8c3c b880 7d3c c677 00bb
00000050: 7faf 35bd e351 8e3d 46a6 b7bd caf4 4abc
00000060: ad2f ad3c 2899 b9bc 00b5 c53b f061 35bd
00000070: 44a2 9ebd d45d db3c f668 25bb 19cf 33bc
00000080: 6613 28bd 18f1 85bc a491 ccbc dc68 513d
00000090: 3292 953d ebed 9f3d 8b0d aa3d 4c63 cd3a
000000a0: 6599 adbc 8b79 9abd c397 533d 5c30 853d
000000b0: 5553 bdbb 342e 00bd 1568 9fbd c611 d8bc
000000c0: 32d5 86bd 0c3e 3a3d 760f 6fbc cf1b 35bd
000000d0: a7dc 9a3d c738 043d fdb0 a33d 4249 623d
000000e0: 46b2 a93b 14f5 ed3c 4f20 3fbd 640b 913d
000000f0: dc92 4abd 85f8 bcbc d426 653c a27b 38bd
0.02293317 0.04664953 0.0055171186 0.00018115487 -0.070886545 0.029135197 0.019946732 0.020325836
0.014526736 -0.02311216 -0.045162152 0.040074628 -0.047451053 -0.022290815 0.01022359 -0.029038757
-0.07806225 0.017174337 0.0154725835 -0.001960264 -0.04435682 0.069492124 -0.08967261 -0.012387464
0.021140898 -0.022656038 0.00603354 -0.044282854 -0.077457935 0.02677814 -0.0025239564 -0.010974669
-0.041034125 -0.016350314 -0.02497179 0.051125392 0.07303275 0.07809051 0.08303364 0.0015669852
-0.021191308 -0.07542714 0.051658403 0.065033644 -0.005777756 -0.031294063 -0.07783524 -0.026375663
-0.065836325 0.04546933 -0.0145910885 -0.044215973 0.07561617 0.03228071 0.07992742 0.055245645
0.0051787226 0.029047526 -0.04666167 0.07082251 -0.049456462 -0.023067722 0.013986308 -0.04503978

lstm.weight_ih_l0 f4 [256, 64]
00000000: 643e bfbc 7490 30be 3e68 33be 59cb 1cbe
00000010: 76a4 0fbe ff48 b8bd 829b cdbc aca4 803d
00000020: b24b da3d 2d82 0b3e f415 c43d d1f7 b23d
00000030: eb66 173e dde6 53bc 55ea 493e 3c2c 9e3d
00000040: bcdf 9abd 46ee 5d3e baf1 5a3d c061 7b3d
00000050: a9c9 abbd cc3b 65bd eef3 a7bd 4288 043d
00000060: b8bf 803e fe69 56bc d8be c9bd ced8 50bd
00000070: 0e2c 93bd 4a72 583e 927a 86bd 48a8 e23a
00000080: 2805 073d d3cb 3e3d 667e 0ebe 2d54 47bd
00000090: 3265 333e 76ed ab3c 5758 98bc 9bce 3ebd
000000a0: 7465 4d3e a8e7 a5bd 858b dcbd 99b4 50be
000000b0: 1790 973d 619a e33d d854 26be 08f1 3cbe
000000c0: 1596 3d3e 7efe c9bd f389 65be 7b1a a73d
000000d0: 4ca4 133e 69b7 2cbe e0c4 283e 5fa2 0d3e
000000e0: f555 7a3c 9cc6 053e 8edf f0bc bbd6 1d3e
000000f0: 5206 58be 1055 47ba 6dda a03d 67b3 f0bd
00000100: e934 12be 9845 a53d 746e ab3d f62b 2abe
00000110: e2b5 dcbc 8ce6 40bd c02d 1e3c 3a5f 133e
00000120: 193f 2abe bcbb 4f3d faa9 153d 7b25 da3d
00000130: 805e 79b9 9de5 c23d e4f2 143e 1cda 0e3e
00000140: 449f 9b3c 9b42 6a3d 50bf 583c 9b9a c43d
00000150: 3e53 b7bd 9f45 8b3d 5c4a c7bd d817 0e3e
00000160: cee6 2abd 881d d03d 5020 c9bb 020b 8d3d
00000170: f8de 42bc a27a 0a3e 84fc 113e f0e6 803e
00000180: 239a b63c 0316 73bc 88c8 f43c 2984 b23c
00000190: b017 12be 58a8 debd b42c 383c 80eb 453b
000001a0: 9eac f93c fda3 41be 7e0b 243e 8944 1fbc
000001b0: 34cb 8f3c aec2 743d f6fe 79bd 175f d43d
000001c0: 8c98 74bc 25f0 97bd 6ea2 833d 5893 c6bd
000001d0: 66a4 603e 990b a8bc cacd 393d 259e cd3d
000001e0: 0d5f 06be 9393 5cbe 98e7 58bc a3b9 383d
000001f0: b85c 293e 21e7 4cbe 8da3 af3d 8223 30bd
00000200: 5ad6 b9bc 70e9 473e 8ea3 f23d dcd9 aa3c
00000210: 5180 39bd de9e ee3d 8730 463c 55ef 733d
00000220: 05e7 12be 3814 913d 86f9 92bd 30b2 56be
00000230: ac15 06be cc1f 2f3c 18d6 49bb 6fab 4cbe
00000240: b4df 51be 900f da3a 48cf 88bd 4603 353e
00000250: b091 9f3c fc0f fa3c 1f75 da3d af37 bbbd
00000260: dc43 05bd 003b 36b9 0013 8439 bef2 9dbc
00000270: 07aa 0f3d f015 c83d 2827 aa3d bbb9 3c3d
00000280: fccb 213e dc4b ec3d ec00 c9bc 3c56 0bbe
00000290: cc8e 533c 548a a4bd bc9e 123d 4c22 363e
000002a0: d387 dd3d aef3 803d 1eb9 babd a046 ebbd
000002b0: 8aa3 133e 9444 fbbc de83 21bc 6480 b2bd
000002c0: 963b 37be 1ced 8b3d 9d56 17be 61e3 ec3d
000002d0: 0842 c63d 3e2f 2a3d 204f 793d 50e6 f43b
000002e0: e5a1 33bd 1c21 b8bd 92f3 2f3e ea81 04bd
000002f0: e63e 0cbd 9659 483d 3bdd 45be 9826 adbd
00000300: 8af4 663e f8b5 a13b 49bc c63d 6aba db3d
00000310: 1ad2 0ebe a3e2 303e 1e04 073e fb2c fc3c
00000320: 7ff4 cebd 7675 883d a1cb 513e 153d 113e
00000330: 72ab dfbd 7e10 7e3c 8beb bebd 6fd2 49bd
00000340: 60d5 1d3e 2944 e0bd 38af 843d 1e30 0bbd
00000350: 8add 823d 3650 b9bc 8457 a1bd 31a2 4f3e
00000360: 9f73 1b3e 6e0c 333d ffc2 2e3d c4fc cabb
00000370: dd79 d6bd e687 433e 8438 26bc eab5 d6bd
00000380: fc5d 253c 6c13 073e 998b 9d3e 539a 093e
00000390: 238b 94bd 92dc 9a3d 23e3 47be 7ac4 a2bd
000003a0: d213 fa3c 20c3 083d 5460 94bc c299 673c
000003b0: 3b5d ec3d d2a6 b4bd 4e6a 1cbd edd9 443e
000003c0: f6e6 c5bb 5b0e c2bc a0b3 003c ded6 8bbd
000003d0: 7055 e8ba 2166 8a3d 037d 9a3b 12f1 a23d
000003e0: b863 c33a 783f 12be eb3c 19be 4c72 e43d
000003f0: fc1a e0bc ee9a 0ebd e87f e9bd 7dec d1bd
-0.02334518 -0.17242604 -0.17520234 -0.15311946 -0.1402758 -0.08998298 -0.025098566 0.06281409
0.10658969 0.13623877 0.095745 0.087386735 0.14785354 -0.01293346 0.19718297 0.07723281
-0.07562205 0.21672925 0.053453185 0.06137252 -0.08388073 -0.05596523 -0.08200823 0.032356508
0.2514627 -0.013086794 -0.09850854 -0.05098801 -0.07186137 0.21137348 -0.06566347 0.0017292583
0.0329639 0.0465811 -0.13915405 -0.04866426 0.17519072 0.020987254 -0.018596811 -0.046583753
0.20058233 -0.081008255 -0.10768799 -0.20381393 0.0740053 0.1111343 -0.16243303 -0.18451321
0.18514283 -0.09862994 -0.22415905 0.081593476 0.14418143 -0.1686684 0.16481352 0.13831471
0.015279283 0.13064045 -0.029403474 0.15413944 -0.21096161 -0.0007603923 0.078541614 -0.11752968
-0.14277996 0.080699146 0.08370677 -0.16618332 -0.026942197 -0.047094867 0.009654462 0.14391795
-0.16625632 0.050716147 0.036539055 0.1065168 -0.00023781694 0.095164515 0.1454578 0.1395039
0.018996842 0.057192426 0.013229206 0.09599801 -0.08951424 0.068003885 -0.0973098 0.13876283
-0.04172402 0.10161883 -0.006137885 0.06886865 -0.01189398 0.13523343 0.14256483 0.2517619
0.022290295 -0.014836791 0.029880777 0.021791534 -0.14266849 -0.10871953 0.011241127 0.0030200183
0.030477818 -0.18910213 0.16020009 -0.00972093 0.01755295 0.059755974 -0.061034165 0.103696994
-0.014928948 -0.07418851 0.064274654 -0.09696072 0.21937713 -0.020513343 0.04536227 0.10039929
-0.13122196 -0.2154067 -0.01323881 0.045098912 0.16539276 -0.20010044 0.08576117 -0.043002613
-0.022685219 0.19522643 0.11847602 0.020855837 -0.045288388 0.11651395 0.012096531 0.059554417
-0.1434594 0.070839345 -0.07176499 -0.2096641 -0.13094205 0.010688733 -0.0030797776 -0.19987272
-0.20495492 0.0016636718 -0.06680161 0.1767703 0.019478649 0.0305252 0.1066687 -0.0914148
-0.03253542 -0.00017378852 0.00025191158 -0.019280788 0.03507426 0.09769809 0.0830825 0.046075564
0.1580047 0.115379065 -0.024536572 -0.13607115 0.012912463 -0.080341965 0.035795912 0.1778652
0.10816922 0.06296478 -0.091173396 -0.1148808 0.14417854 -0.030672349 -0.0098581 -0.08715895
-0.17893824 0.068323344 -0.14779134 0.115668066 0.09680563 0.04154896 0.060866475 0.0074737445
-0.043855567 -0.0899069 0.17182758 -0.03235046 -0.034239672 0.04891356 -0.19322674 -0.08454627
0.22554222 0.0049350224 0.09703881 0.10728915 -0.13947335 0.17273955 0.13185164 0.030783167
-0.10105228 0.06663029 0.20487835 0.14183457 -0.109213725 0.015506862 -0.0932227 -0.04927295
0.15413427 -0.109505005 0.06478733 -0.033981435 0.063899115 -0.022621255 -0.078780204 0.20276715
0.15180825 0.043713026 0.04266643 -0.006194683 -0.10472462 0.1909481 -0.01014531 -0.10483916
0.010093208 0.13191003 0.30770567 0.13437776 -0.07253101 0.07561602 -0.1952024 -0.07947631
0.03052703 0.03338921 -0.01811234 0.01413578 0.1154122 -0.08820881 -0.038187318 0.19223757
-0.0060394956 -0.023688486 0.007855326 -0.06828092 -0.0017725658 0.06757761 0.0047146096 0.07956137
0.0014907038 -0.14282024 -0.14964645 0.11154613 -0.027356617 -0.03481572 -0.11401349 -0.10250185

lstm.weight_hh_l0 f4 [256, 64]
00000000: ec87 a33b 88dd 3d3d d6e7 c7bd f298 d5bb
00000010: b2ff 96bc 5422 543e 414d 2cbe 42ec dd3d
00000020: c23d de3d da62 273e c29d 073d 8ba9 c2bd
00000030: 8f59 f9bd d3ad 2e3e 8eff 9abd 98fc cdb9
00000040: 9194 f93d 9dc6 9e3c eca0 433b a21e bf3d
00000050: 9fed 31be 8cef 5bbe 3364 56bd 7a4f 833d
00000060: d447 1e3e e4c7 12bd 06c7 363e 3809 353d
00000070: f86c 4bbd d5e5 f0bd d453 8b3c c01a d1bb
00000080: 2fee 19be 4324 f53c f61f 02be 3329 e7bd
00000090: 2275 393d 58ec 313b 60ac 90bc d48f 933e
000000a0: 0ff1 44bc 29a5 d63d 83e4 c9bd 4194 2c3e
000000b0: dcd5 1dbe 8e38 1cbe 3841 973d ade5 05be
000000c0: bee3 84bd ec7c 903d e957 aebc e974 4cbd
000000d0: 2e9e e0bd 9ee9 b6bc 9d27 97be c077 803e
000000e0: f272 da3d b2b7 78be b650 cc3d f816 07be
000000f0: 41a7 223d 81df 093e c0c1 893a d8a1 bb3d
00000100: 18ff 463c 87da 2d3e 9059 b53d 9a92 02be
00000110: f06c afbc 8e7a 0d3e 7c8b 013e 990f 52bd
00000120: 268a 61be 1aba 593c a3f9 25bd 2219 d13d
00000130: d4c7 d13d 223b 143e bd8b c9bc f90a f0bd
00000140: a423 95bc 3ae9 133e 4623 98be 2e9b 9e3d
00000150: d0db 9e39 a5aa e5bc 16ad 80bc 04b4 4d3e
00000160: 928c 4abd 26d8 bbbd 780f 28be 59cd 673e
00000170: da8c 7dbd b787 783d a7ac b7bd 6cde 3b3d
00000180: 6fb4 303e 3bb9 35be 7c64 91be 4801 42bc
00000190: c3bc 73bc 4694 d03d 6e4a 93bd 028a 32bd
000001a0: 7890 833d 16bc 34be aa8c 48be 251c 823e
000001b0: 040f c03b e60b 003e 35fa 8abd 9522 e3bd
000001c0: 2857 2bbe de12 72bd 810c 11bd b430 4c3d
000001d0: 1458 8b3d 47b8 53be f39f 1cbe 077a 843e
000001e0: 1046 fb3d b2f8 f93d 3c34 09be eee1 0d3c
000001f0: e3b7 41bd bdff 073e 7bfe 93bd 10fe 98bc
00000200: 30d6 953d a69e a8bd c27a 883e 0f0b 473d
00000210: 12a9 b63d eac0 6cbe 6020 3c3e 4010 923b
00000220: f6dc 243e 4f8b e93d 069a 1b3e 98f3 a73e
00000230: f4ce 49bb 5f51 d3bd 1267 273e d353 e0bd
00000240: 17ca f73c c390 4a3d b4c7 303e 59ee 31be
00000250: 1cbd 213e c28a d2bd ad17 2fbd 31f4 d5bd
00000260: 745c 233e caa1 06be b159 be3d 65da a4bd
00000270: 9274 623e dce4 f73c 10c0 cdbc b6ae 90bb
00000280: 8536 083e 1f4a b3bd de25 613d be49 1fbe
00000290: 1c01 ddbd c8fa 62bd 350d d63d eb52 e6bc
000002a0: 6351 c53d 0775 99bd 0feb 1b3d d4e3 f73d
000002b0: 1cfa 743d 2b67 41be 5457 a9bc 344c cfbd
000002c0: 44c9 bf3d 33c8 fabc e313 c13d 0104 ae3d
000002d0: 2244 2e3c 5a75 1b3d ab6e 083e 08c7 6dbe
000002e0: 435a 00be 0962 22be 9ee2 b2bd 9481 30be
000002f0: 62fc 29be ac18 d7bd 9688 833e 51f1 8a3c
00000300: c8a6 be3b ab67 28be 557c 29bd 15e4 373d
00000310: 52b4 1b3e 49d4 2ebe 18c8 2d3c d9fd 2e3e
00000320: 3c5e 57bd 945c cdbd 7c80 62bd 2c3a 89bc
00000330: 0cad 1abe 5a21 d7bc 2fef 083d 64d7 c6bc
00000340: 876a 32bd 5544 42be c1d1 c9bd c959 1fbe
00000350: 5166 193e 287a 32be 0a29 d43d 3bc3 76bd
00000360: 4b98 263d 407f 283c 12c1 81bd c8ed e6bd
00000370: 3487 c03c d019 213d f055 13bd e983 14bd
00000380: 0525 8ebc 302a f7bd 7267 343c af83 f9bd
00000390: 863b 9f3c d41f 06be 130f 58bd f4cc 32bd
000003a0: 46da 13be 722b ca3d e47a ccbc 4c39 d9bc
000003b0: 5e18 f33b 7636 0a3e daaf 29be 4b36 5e3e
000003c0: 6a89 03be a2dc bd3d f051 933d 50cf aebd
000003d0: 21bb 18be 716c 3bbd b80b 31bb 14c5 ecbc
000003e0: a5fe 3dbd 60bf 25bb d8d7 70be 489a adbd
000003f0: dde2 003e b714 4cbd 3da0 2c3e eb85 073e
0.0049905684 0.046353847 -0.09761016 -0.0065184766 -0.018432472 0.2071622 -0.16826345 0.10836078
0.10851623 0.16346303 0.033109434 -0.09504994 -0.12175285 0.17058496 -0.075682744 -0.00039288844
0.1218654 0.019381816 0.0029850556 0.093320146 -0.17375802 -0.21478099 -0.05234165 0.06411643
0.15457088 -0.03583516 0.17849359 0.044198245 -0.049664468 -0.11762587 0.017007746 -0.0063813627
-0.15032266 0.029924517 -0.12707505 -0.11287155 0.045277722 0.0027148928 -0.01766032 0.2882067
-0.0120203635 0.104807205 -0.09858038 0.1685343 -0.15413612 -0.15255949 0.07385486 -0.13075896
-0.06488751 0.07055077 -0.021282153 -0.04991618 -0.109676704 -0.022328194 -0.2952241 0.25091362
0.10666455 -0.24288824 0.09976332 -0.13192356 0.039710287 0.13464166 0.0010510013 0.091617286
0.01214578 0.16977893 0.08854973 -0.12751237 -0.02141425 0.13816282 0.12650865 -0.051284406
-0.22025356 0.013288999 -0.040521275 0.10209872 0.10243192 0.14475682 -0.024602765 -0.11720843
-0.018205471 0.14444438 -0.29714411 0.07744442 0.00030299881 -0.028035471 -0.015707534 0.20088202
-0.049450465 -0.091720864 -0.16412151 0.22636928 -0.061901905 0.060676303 -0.08968478 0.045866415
0.1725633 -0.17746441 -0.28396976 -0.011841126 -0.014876547 0.10184531 -0.07191931 -0.043588646
0.064240396 -0.17649874 -0.19584909 0.25412098 0.005861165 0.12504539 -0.067860045 -0.110905804
-0.16732466 -0.059100024 -0.035412315 0.049851134 0.06803909 -0.20675765 -0.15295391 0.2587435
0.12269223 0.12205638 -0.13398832 0.008659823 -0.04729451 0.1328115 -0.07226273 -0.018675834
0.07316244 -0.08233385 0.26656157 0.04859453 0.08918966 -0.23120466 0.18371725 0.0044575036
0.16099915 0.11403524 0.15195474 0.32803035 -0.003079352 -0.10318255 0.16347912 -0.10953488
0.030247731 0.04945446 0.1726368 -0.17376079 0.15794796 -0.10280372 -0.04274719 -0.104469664
0.15953237 -0.13147655 0.09294451 -0.08049468 0.2211478 0.030260496 -0.025115997 -0.0044153584
0.13302048 -0.08754372 0.054967754 -0.15555474 -0.10791227 -0.055414945 0.10451738 -0.02811571
0.09634664 -0.07493024 0.038065966 0.12104002 0.059808835 -0.18887012 -0.020671524 -0.101219565
0.0936456 -0.03061304 0.09427621 0.084968574 0.010636361 0.037953712 0.13323466 -0.23220456
-0.12534432 -0.1585771 -0.0873463 -0.1723693 -0.16600183 -0.10502753 0.25690144 0.016960772
0.0058182217 -0.16445796 -0.041378338 0.04489525 0.15205505 -0.17073168 0.010606788 0.17089023
-0.052580103 -0.100274235 -0.055298313 -0.016751371 -0.15105075 -0.02626102 0.03343123 -0.024272628
-0.043558624 -0.18971379 -0.098544605 -0.15561594 0.14980437 -0.17429411 0.1035939 -0.06024478
0.04067258 0.010284245 -0.06335653 -0.11275822 0.02350197 0.039331257 -0.03597063 -0.03625861
-0.017351637 -0.120685935 0.011010991 -0.1218332 0.019437563 -0.13098079 -0.05274875 -0.04365249
-0.14438733 0.09871568 -0.024960943 -0.02651658 0.0074186763 0.13497338 -0.16570988 0.21700399
-0.12845388 0.09270598 0.07193363 -0.085356355 -0.14915134 -0.045757715 -0.0027015042 -0.028902568
-0.046385426 -0.002529107 -0.23519838 -0.084766924 0.12586541 -0.049824443 0.16858001 0.1323468

lstm.bias_ih_l0 f4 [256]
00000000: 34c6 9a3b beb8 33bd f585 c73d 9d17 663d
00000010: 40f0 903d 7445 1a3d 41c7 78bd caf8 a73d
00000020: 60c8 43bd d288 99bb 34f7 0e3e 57b7 82bd
00000030: 28d2 a33c 8ab5 8cbc e068 de3d 0527 ba3d
00000040: 4908 273d bca0 c23d 9402 b1bd 7b8c fe3d
00000050: 87b9 51bd ecbe b13d ca04 31bc 2ec0 333d
00000060: 18ca a03d 453e eabc a2f5 6f3c 8c11 833d
00000070: 39ea 003c b5b2 0dbd d7aa d5bc 8576 8d3d
00000080: 0f99 873b 71d8 0dbd 1944 dc3d 08f3 243c
00000090: 8039 fa3d 3418 f5bd 206e 443d 17ca 82bc
000000a0: 7c31 8a3c 936e 00bc e4f9 a8bd a44f 94ba
000000b0: 4881 e4bd 4dee 543d d96f e3bd 121b 71bd
000000c0: 593d 82bc ecd9 ccbd 46d7 82bd e8dd e03b
000000d0: fd24 d0bd 6716 a1bb bf23 f03d b280 e3b8
000000e0: 48d5 ac3d 9518 b3bd 8e6e cc3c 1a9f 99bd
000000f0: a823 15bd e18c d7bd ea25 8cbd c750 c6bb
00000100: 5cc6 0dbe ba93 d0bd 0982 9cbd 06c1 7bbd
00000110: a156 293d bbf3 3e3a 4a93 f13d dc7a 6c3d
00000120: 250a 093d 055b 1c3c d2b2 ca3d d626 c03c
00000130: d8f9 933d 174f 14bd da6a 33bd 3563 a13d
00000140: 16e2 01be 0fad a7bd ca54 86bc ca7e ee3d
00000150: 174c 4f3d 14bf d33d f070 b6bd c969 823d
00000160: da6d f1bd 8af7 183d a4db d1bd ee6a be3d
00000170: 836c fd3d 28df 1d3d 0a7e ca3b 8176 173d
00000180: a79d 853d 8ee5 4a3d 918a 8f3c 919c ecbc
00000190: 443b b0bd 981a fc3d eba3 243d 2d1d bebd
000001a0: 3c00 fc3d fdf5 073e 1212 093c 760a 703d
000001b0: 7e51 c9bd 4e8e 9c3c 147d 98bd 2d93 fbbd
000001c0: 7de4 c0bd ad13 303c 5f96 00be 7014 9f3d
000001d0: 74e5 c13c 09d8 6abc c67f 30bd b59f e23c
000001e0: 5bc2 a33d 1c06 74b9 ea96 8fbc 8b82 f7bd
000001f0: 5bd8 a7bd 1d48 583d 6380 933d 12c1 99bd
00000200: 4c95 b2bd 068d c53d ab48 843c 582f e5bd
00000210: c81d 613d 0ebf cdbc 9c94 813d 61f5 453d
00000220: 115e 3dbd 89ee c23d 69d7 ff3d e691 733d
00000230: e20c 673c 9476 fb3d eb43 df3a 34cd 413d
00000240: 6835 e73d ea96 f53d 4ef4 ab3c 0ce3 023d
00000250: 7b9b ddbd 993d c73b b618 663d fcaa c5bd
00000260: d3c4 793c 58d5 563d 6d52 83bd b255 65bd
00000270: 6849 bdbc 2891 053c 8783 febd 2f74 d8bd
00000280: 2890 3dbd e57c dc3d 095f aabd 2c9a 14bd
00000290: 036d 983d dd60 cc3d 43df b23d f5db a2bd
000002a0: d4b0 2bbc 9ef6 efbd 6e39 c0bd 8031 6f3c
000002b0: a3db 1fbb 4c29 9dbc 1df8 c33b 3148 fa3c
000002c0: e8ff b4bd 3857 953d b3ab eabc 7c5a 4cbd
000002d0: 7598 c0bd 0cfe b0bd 13f2 6d3d 2ca6 84bd
000002e0: eb07 4dbd 2384 d23d b2e9 9fbc dd15 bbbd
000002f0: 4964 8f3d 843c b33d 3e81 7ebd 12c8 c43d
00000300: 1593 08bd f86c 563d 353c 93bd 5f16 d13d
00000310: 024b 9cbd a288 053e e0cf 85bd 4e00 11bd
00000320: ae5d 4dbd 56ba dbbb 4e60 553d 16d0 eabc
00000330: 3f75 803d 75ac 783d 5ab4 f9bc 1625 703d
00000340: 3eee e8bd c6de afbc cf04 48bd af52 a9bc
00000350: 71f3 f1bd 1084 97bd 3bf6 913c 0048 cd3d
00000360: dfb8 a9bd cb9e b4bd 6e4e efbd 524f 60bd
00000370: 88e5 e73c f5a0 c6bc 1550 c3bd 4a73 7fbd
00000380: 8ceb 10bd 7d55 7c3d b00e 96bd f52e f9bd
00000390: df06 bdbd c10f 43bc 5059 de3d 88bf afbd
000003a0: 30b1 6cbd 08b9 673d fe94 e4bc d67c b1bc
000003b0: e64f 0abd ec08 a3bd fadc 41bd 8066 8dbd
000003c0: 29e9 2bbd ae7f 11bd 9f8c a7bd 6233 c83d
000003d0: 25e5 a7bd f9b3 91bc e7b8 283d a554 0fbd
000003e0: e758 a3bd 0eae 7e3d 8531 8c3d eb05 bfbd
000003f0: 67ab be3c 23d2 86bc 9406 c8bb ff49 6bbd
0.0047233347 -0.043877356 0.09742347 0.056174863 0.07077074 0.037663892 -0.0607369 0.082017496
-0.047798514 -0.0046854997 0.13961488 -0.063826256 0.019997671 -0.017176408 0.10859847 0.09089474
0.040779386 0.09503314 -0.0864307 0.12429138 -0.051202323 0.086789936 -0.010804364 0.04388445
0.07851046 -0.028594146 0.014645966 0.06399831 0.007868343 -0.034594256 -0.02608244 0.069073714
0.004138119 -0.034630243 0.10755176 0.010067709 0.122179985 -0.11967507 0.047956586 -0.015965505
0.0168693 -0.007838863 -0.08250788 -0.0011315239 -0.11157471 0.051985074 -0.111053176 -0.058863707
-0.015898393 -0.10002503 -0.063887164 0.006862391 -0.10163305 -0.0049160006 0.11725568 -0.00010848175
0.08439118 -0.08744923 0.02495506 -0.07501049 -0.036410958 -0.105249174 -0.06843169 -0.00605211
-0.138452 -0.101844266 -0.0764199 -0.06146338 0.04134238 0.00072842435 0.11795671 0.057734355
0.03345694 0.009543185 0.098973885 0.023456018 0.07225388 -0.03620824 -0.043803073 0.0788025
-0.12683901 -0.08187305 -0.016397852 0.11645277 0.050609674 0.1033918 -0.0890826 0.06367833
-0.11788531 0.037345447 -0.10246971 0.09297739 0.123742126 0.038542897 0.006179576 0.03697825
0.065242104 0.049535327 0.017522128 -0.02888325 -0.08605054 0.1230976 0.040195387 -0.092829086
0.12304732 0.13277431 0.008366125 0.058603726 -0.098299965 0.019110825 -0.07445732 -0.12283931
-0.09418581 0.010746879 -0.12557362 0.0776757 0.023668982 -0.014333733 -0.043090604 0.027664045
0.07996055 -0.00023271929 -0.017528016 -0.12085446 -0.081955634 0.052803148 0.07202222 -0.07507528
-0.08719882 0.09646039 0.016147932 -0.11190671 0.054960042 -0.025115516 0.06327173 0.048329715
-0.046232287 0.09518153 0.12492258 0.05946531 0.014102193 0.12278476 0.0017033791 0.047314838
0.11289483 0.11991675 0.020990517 0.03195481 -0.10820671 0.006080341 0.05617591 -0.09651753
0.01524468 0.052449554 -0.06412206 -0.05598993 -0.023106292 0.008152284 -0.124274306 -0.10569035
-0.046280056 0.10766009 -0.08318908 -0.036279842 0.07442667 0.09979413 0.0873399 -0.0795211
-0.010479171 -0.1171696 -0.09385954 0.014599204 -0.0024392388 -0.019184731 0.005980505 0.030552002
-0.08837873 0.07292026 -0.028646326 -0.04989098 -0.09404079 -0.086422056 0.058092188 -0.06477007
-0.05005638 0.10279109 -0.019520614 -0.091350295 0.0700155 0.08751777 -0.062134974 0.09608473
-0.033343393 0.052350014 -0.07189218 0.10209345 -0.07631494 0.13040403 -0.0653379 -0.03540068
-0.050138168 -0.0067055626 0.052093796 -0.028663676 0.06272363 0.060711343 -0.030481506 0.058629118
-0.11373566 -0.021468531 -0.04883271 -0.02066931 -0.11814011 -0.07398236 0.017817607 0.100234985
-0.082872145 -0.0881935 -0.11684881 -0.054763146 0.028307691 -0.024246672 -0.09536759 -0.062365808
-0.035380885 0.061604965 -0.0732702 -0.121671595 -0.09229826 -0.0119056115 0.10856879 -0.085814536
-0.057786167 0.056572944 -0.027903076 -0.021665972 -0.033767603 -0.07960686 -0.04732988 -0.06904316
-0.041970406 -0.035522155 -0.08181118 0.097754255 -0.08198003 -0.017786013 0.04119196 -0.034992833
-0.07975941 0.06217771 0.068453826 -0.09327301 0.02327509 -0.016457623 -0.0061043 -0.057443615

lstm.bias_hh_l0 f4 [256]
00000000: 6ea1 11bd a2fe 4ebd a395 dc3d da09 ccbd
00000010: 75f3 f73d f40e c2bd 043c e9bd 720f 02be
00000020: c23c 863b c03a 42bd 3676 71ba 244a 22bc
00000030: 728c 86bd 5e4c dbbd 2fb9 51bd cbce d13d
00000040: fabb be3c 9437 9c3d 59ab 47bd 5a1a 9c39
00000050: 4cb3 df3c 8cb1 e43d feb9 83bc a68b ef3d
00000060: b830 dd3d 73f0 22bd 0838 1c3b 74ce ccbd
00000070: 1ae4 aabc ffc4 01be 1e86 31bd de6d dabd
00000080: 1a0a 00be f95b 22bb 1557 9cbc 1a2f c53c
00000090: 3408 cebd 212d bdb9 c007 94bd 3f74 8b3d
000000a0: 6656 033d 66c9 ccbb e68f 23bd e4a6 8d3d
000000b0: 8a46 b53d 9418 a83c d76a ab3d 0dbf bb3d
000000c0: 6ac3 60bd ee29 053d c5dc 343d e1e3 013d
000000d0: 2539 efbd 8637 e03d 5769 b8bd 2d15 413c
000000e0: 8c6c ce3d 668b cd3c 2e1e 933c f3f6 01bc
000000f0: 4249 03bc 103b 083e 65f5 ffbd 8d37 d5bd
00000100: 4cb4 4d3c 59c6 6fbc 11a2 7a3d 6d2f 85bd
00000110: 8d73 b43d 99ab 093e 22c1 45bd 86b1 dfbd
00000120: 70d5 913d 6c0c 0b3e 9c88 363d 1791 1ebc
00000130: c003 aa3d 874e febc cfd9 f739 21d8 f13d
00000140: 92de d03d 0b4f dd3d a6ee d4bd 548b 38bd
00000150: a365 19bb 1c2a 8abd fb3b 8cbc 87a2 e7bd
00000160: 2787 be3c ea03 d23c 5ce7 f33d 20e0 00be
00000170: 9d11 a93d ad45 ddbd d3f3 843c dd0e 8ebc
00000180: a94c f3bd 4602 25bd 0ebd e6bd 6796 bbbd
00000190: 13b8 033d 7be3 a83b e968 3dbd d9ff 823c
000001a0: 8e60 f33d fdc9 ca3c 7f11 0e3e ce94 20bd
000001b0: b465 09be d50d ac3d 8ece 55bb 6f5b ea3d
000001c0: b31b d83d 1620 e53c 883e 093c 6a40 f93c
000001d0: 8dd4 49bd 1b80 9cbd be7b 02bd 64fd 163d
000001e0: 8de7 15bd 4480 cd3c aad1 04bd 9c75 a53d
000001f0: 413f ba3d cd4d 78bd acfc 273b c600 fabd
00000200: da5f 483d cf4f 8cbd 5053 c83d 62ac 43bc
00000210: 234f 9b3d fe45 d53c 18d7 e4bd 6ba2 d2bd
00000220: 1b18 d93d d289 383c fd55 da3d 339b afbd
00000230: faf6 95bd 3087 3abd 5d3a a23b a593 acbd
00000240: 024a e5bd 300b 9cbd 584a ddbd 0e45 c83d
00000250: 1cc3 7b3d 2d1f 553d 4fa0 423d 086b 58bd
00000260: fc77 7eba a19a c2bd a109 943d 2639 2cbc
00000270: d36e cf3d 8541 ee3c affd 8c3d 0f4c d03d
00000280: 0e45 643d 9367 85bd d701 13bb 980c 7639
00000290: 5c11 82bb 29fb bdbd b3c2 dabd 77c9 d83d
000002a0: 70ca 9fbd 97ba 863c 53f0 fbbb eee3 263d
000002b0: ac8e 69bc f080 aebd 2c27 193d 1302 04bd
000002c0: 89b8 043e e1a5 673c b10e a7ba d9a6 c3bd
000002d0: 8ba4 47bc 625b 01bc fede a8bb 5c2d 9a3b
000002e0: 9b0a 06bd 0184 c6bd 3b67 03bd 662a a5bc
000002f0: 8a2e 04be 031d 073e b19c d3bd b8f3 463c
00000300: 84d4 d9bd ef1b 0c3d 15d1 b53d 79d8 4abd
00000310: 4529 1e3d 682e 95bd 1260 88bd ff5a 813d
00000320: 0e1a 2ebd 75ab ec3d 4bc0 bf3c d090 8f3d
00000330: bb12 f83c 3652 b73c a99f 70bd c605 e53c
00000340: 0284 4f3d 9a65 b83c 39ad e4bc c74d e33d
00000350: d178 d3bd 32a6 a13d 1982 e2bd 1f75 323c
00000360: 2b11 773d 1d49 ae3d 02d0 d4bd a2ff 543d
00000370: 62b0 783d bea2 1cbd 7e40 ce3c a823 a7bc
00000380: 21e5 c9bd 52f8 c6bd f4ad 4dbc f594 d23d
00000390: 7b8e 9f3c af9e 79bd e496 df3d 52fc 113c
000003a0: e191 fc3b 3073 ae3a b0f7 00bd 81ae 893d
000003b0: 8855 6dbd 8c18 dbbd ca5e 533d 6077 ca3d
000003c0: 570b 293d 22f2 d13d fb0d 3b3d 2653 033e
000003d0: 052f 8fbd 6e1d a0bd 4dc2 a1bd 9731 94bd
000003e0: 28d2 67bd 72a9 7e3d d61a b53b a2a2 80ba
000003f0: e248 853d 0571 ef3c dc96 ce3c 3371 8abc
-0.035554342 -0.050535806 0.107707284 -0.099628165 0.121069826 -0.09475508 -0.113884 -0.12701204
0.0040965984 -0.04741931 -0.0009211035 -0.009905372 -0.065697566 -0.10707925 -0.051201995 0.10244521
0.023282994 0.07627788 -0.048747394 0.00029774272 0.027307175 0.11166677 -0.016079899 0.11696558
0.10800308 -0.03978009 0.0023837108 -0.10000315 -0.02086072 -0.12672804 -0.043340795 -0.10665487
-0.12503853 -0.0024774058 -0.019084493 0.024070311 -0.10060158 -0.00036082513 -0.07228041 0.068092816
0.032064818 -0.0062495945 -0.039932154 0.069165975 0.08851345 0.020519532 0.083699875 0.091672994
-0.05487386 0.03251069 0.044155855 0.031711463 -0.11680821 0.1094809 -0.09004467 0.011784834
0.100792974 0.025090884 0.017958727 -0.007932412 -0.0080130715 0.1330378 -0.12497977 -0.10410986
0.012555193 -0.014634692 0.061189715 -0.065031864 0.08811102 0.13444366 -0.04827989 -0.10922532
0.07120788 0.13578957 0.044563875 -0.009678147 0.083014965 -0.031043304 0.0004727379 0.118088014
0.10198702 0.10806092 -0.10397081 -0.04505475 -0.0023406527 -0.06746313 -0.017118445 -0.113102965
0.023257805 0.025636632 0.11909363 -0.12585497 0.082553126 -0.10804305 0.016229546 -0.017341072
-0.11879856 -0.04028537 -0.11266528 -0.09159546 0.03215797 0.005154071 -0.04624263 0.015991138
0.11883651 0.024754519 0.13873862 -0.03920441 -0.13417703 0.08401076 -0.0032624337 0.11443221
0.10552158 0.027969401 0.008376725 0.030426223 -0.04927497 -0.07641622 -0.03185629 0.036862746
-0.036597777 0.025085576 -0.032426514 0.08079073 0.09094096 -0.06062107 0.0025632782 -0.12207179
0.048919536 -0.0685116 0.097815156 -0.011942955 0.075834535 0.026034351 -0.111738384 -0.10284885
0.10600301 0.011263328 0.10660932 -0.08574524 -0.07322498 -0.04553908 0.004950805 -0.084265985
-0.111957565 -0.07619321 -0.108051956 0.09778796 0.061465368 0.052031685 0.047516163 -0.052836448
-0.000970721 -0.095021494 0.07228399 -0.010511672 0.1012856 0.029083977 0.06884324 0.10170757
0.05572992 -0.06513896 -0.0022431517 0.0002346508 -0.0039693546 -0.092764206 -0.10681667 0.10585301
-0.07802284 0.016446395 -0.007688561 0.040744714 -0.014255207 -0.085206866 0.037390873 -0.03222854
0.1296102 0.01413867 -0.0012745467 -0.09553308 -0.012185226 -0.0078953225 -0.005153536 0.0047051143
-0.032724958 -0.096931465 -0.03208087 -0.020161819 -0.12908378 0.13194661 -0.10332621 0.012143068
-0.10636237 0.034206327 0.0887777 -0.04952285 0.038613576 -0.07284242 -0.06658949 0.06316184
-0.042505316 0.1155614 0.023407122 0.07010043 0.030282369 0.022378068 -0.058746014 0.027956855
0.050663 0.022509385 -0.02791463 0.11098819 -0.10325778 0.07893027 -0.110599704 0.010892182
0.060319107 0.08510039 -0.10391237 0.052001603 0.060715087 -0.03824114 0.025177237 -0.020402744
-0.09858156 -0.09715332 -0.012553681 0.102823175 0.01947712 -0.060942348 0.10917452 0.0089102555
0.00770782 0.0013309475 -0.031486213 0.06722737 -0.057942897 -0.10698041 0.05160407 0.0988605
0.04127058 0.10251261 0.04566763 0.12824687 -0.0699139 -0.07818113 -0.07898388 -0.07236021
-0.056596905 0.062173314 0.0055268807 -0.0009814093 0.06508042 0.029228697 0.02521842 -0.01689968

actor.weight f4 [5, 64]
00000000: ece4 09be f844 2abd 4667 a33d beee c33d
00000010: c77a 13be ecba cfbb fc62 b1bd 973f b6be
00000020: 919d 5abd 5012 c5bd 9fde 263d 067d 443e
00000030: e032 413e 59cd 763d dc4c 21be 6827 edbc
00000040: 328c 203e 57df 7d3d 4049 b83d 5fde 3d3e
00000050: 95d5 83be fcb3 16be 0237 bb3b 6017 6c3e
00000060: 80e4 833c 41d3 863e 515c 11be 4f24 2cbd
00000070: c864 e83c 8f0a 4b3d 46de 2b3e 7435 0a3e
00000080: a792 873d 8d80 813d e399 5cbe bfb0 a3bd
00000090: 018c c83c 80cf d63b d4cc 0abd 5c87 d03b
000000a0: acba b93d c5cb bbbd fa88 84bd c61e 02be
000000b0: 1c4a c63d 3e25 81be c45c 1fbe d8c4 0ebe
000000c0: bd98 603d 3d27 84bd 295e 0a3e 6e12 c7bd
000000d0: 5ad1 8cbd 2c9f 04be c1e3 333e a09c bdbb
000000e0: 0449 56bd ceee bf3d da30 103e e1fe 65bd
000000f0: b0d0 10bc f274 8dbc 4b11 93be b8fd debd
00000100: 40fd 86bc 80e8 fb3a c0e8 a83d 383e e0bc
00000110: 557d d73d 55b1 1a3e cf75 733d a44f 59bc
00000120: 75aa 8c3d dd02 193d 74d8 303e 6e80 53bd
00000130: 288f 03bd 6566 043e ff2a 943e a4a1 99bd
00000140: 5574 a03d 268b e2bc 9068 bc3d 30ba 463e
00000150: 3476 09be 066a 66bc 78ec c9bd ff0f 813d
00000160: 4ebf 9abd bf3d 93bd 4872 2cbe e084 193b
00000170: f1f6 ac3d 8c67 b73b d795 093e 8cd1 a7bd
00000180: 919c a23b 66ae 063d a074 843b 1269 f9bd
00000190: e81c 9c3b 88ef 58bd 9a76 ac3d d7c1 923c
000001a0: 8543 eb3b de54 1fbb 2eaf 853d c6d3 543e
000001b0: 4a0f 27bd 6406 b23d 7d90 edbd 388d bbbd
000001c0: 0df0 e3bd a810 e2bb 05e3 913c ce11 5a3e
000001d0: 0bc0 3b3e c07f 4cbe 0b10 2f3e f3b4 adbd
000001e0: 1c85 fbbc c8f6 45bd de56 fdbd b69d 2a3d
000001f0: eb02 90bd c121 053e ee95 83bc f12c 3c3e
00000200: 3d9f 3d3d 7c45 a73d c6e1 283e 2791 fa3d
00000210: 4c83 8c3d a7d3 753d b70b b93d 38ff f03b
00000220: 1770 0abe 886d b9bd 6ca9 173e 4045 70ba
00000230: c022 3b3c c78d 953c 15c5 adb9 701e b73d
00000240: 319f abbd bb89 393e 3627 9bbd 80a2 33bd
00000250: 40aa 813c 1e62 803d 3a42 6ebd 7435 03be
00000260: bedd 623e a093 c23d adfa 1e3e 9258 df3d
00000270: c410 9e3d 52a8 873d 05f3 f83b cf50 3bbd
00000280: 542e 943d 41f5 b93d f23a 2c3e 201f 333c
00000290: ecaf 533d 47d1 84be 1293 a5bd a2e5 cf3d
000002a0: 6b00 193e d66f 933d 50b0 69bd 3273 243e
000002b0: 7e32 923d 8017 e3bd 88be 4abc fcd8 4e3d
000002c0: 8fa1 1a3e 0397 943d 8051 e73b 2857 f0bd
000002d0: 38f4 3d3d 43c4 f03c fb35 d1bd 7624 ce3d
000002e0: 19f8 99bc a8af 71bd 6af4 0abc eba7 c23d
000002f0: 36fb 233e 1f8f b63d 5ce2 7c3d ec00 b5bd
00000300: e7bc 40be 3757 843d b72e 073e 17fa b73c
00000310: 0893 133e c8b7 f6bd 83f2 e7bc 9010 b83d
00000320: 4a6d 923d f063 7f3c 49a5 763c bf4f c63c
00000330: 2168 19bd 90a1 dcbc 69c9 4b3e a292 b83c
00000340: 648f 973c 45f2 3d3d fd63 643d 3c9e 083e
00000350: f82b f3bd fb8f ec3d afd8 353d 5314 e73d
00000360: bdf4 adbd 0cb0 41be 78df 9c3d 94dd dd3c
00000370: 4969 69bb 8676 27be 70ea b4bd 3262 98bd
00000380: 72d0 1abe e870 8bbd 09e4 013e 593f 49be
00000390: fe64 193b 5b05 71bd 3a2f c43d 1387 153e
000003a0: 5a92 c7bd b003 f03d 9daa 52bd 7dc0 94bd
000003b0: bc8f 4cbc 9514 d0bd 4e24 753e e4bb f2bd
000003c0: 4218 a43d c43f ecbd 015a 593d b691 5e3d
000003d0: 25be 14bd 0579 ea3d a5e6 d23d c02c ed3b
000003e0: f402 253d 6f95 de3d d71c dcbd 1ead 3fbe
000003f0: d60d 9d3d 106d a33d bd5d 19be ce81 0cbe
-0.13466233 -0.04156968 0.07978682 0.09567021 -0.14402305 -0.0063394215 -0.08661458 -0.3559539
-0.053372923 -0.096226335 0.04073965 0.19188318 0.18867064 0.06025443 -0.15751976 -0.028949454
0.1567848 0.06198057 0.08998346 0.18541859 -0.25748888 -0.14717096 0.0057133446 0.23055792
0.016100168 0.2633305 -0.14195372 -0.042026814 0.028368369 0.049570616 0.1678401 0.13496953
0.066197686 0.06323347 -0.21543078 -0.07992696 0.024480822 0.0065554976 -0.033886746 0.0063637923
0.09068808 -0.09169725 -0.06471439 -0.12707052 0.09682104 -0.25223726 -0.15562731 -0.13942277
0.054833163 -0.064527966 0.13512482 -0.09720312 -0.06875868 -0.12951344 0.1756735 -0.0057864934
-0.052315727 0.0937172 0.14081135 -0.056151275 -0.0088388175 -0.017267678 -0.2872413 -0.10888237
-0.01647818 0.0019219071 0.082475185 -0.027373418 0.10521952 0.1510671 0.059438523 -0.013263617
0.068684496 0.037356246 0.1727007 -0.051636152 -0.032118946 0.12929685 0.28939053 -0.07501534
0.078346886 -0.027654242 0.09199631 0.19406962 -0.13423997 -0.014063364 -0.09859556 0.06301879
-0.0755602 -0.071895115 -0.1684047 0.0023425147 0.08445538 0.0055970605 0.13436066 -0.08194265
0.004962512 0.032881163 0.004042223 -0.12178244 0.004764188 -0.05296281 0.08421059 0.017914696
0.00717968 -0.002431206 0.065275535 0.2078391 -0.040786065 0.08692625 -0.115998246 -0.09157795
-0.111297704 -0.0068989582 0.017808447 0.21295854 0.18334977 -0.19970608 0.17095964 -0.08481779
-0.03070312 -0.048331052 -0.12370084 0.04165431 -0.070318066 0.13001157 -0.016062703 0.18376519
0.04629444 0.0816755 0.16492376 0.12234717 0.068609804 0.0600163 0.090354376 0.007354643
-0.13519321 -0.090540946 0.14810723 -0.00091655925 0.011421859 0.018256081 -0.0003314397 0.08941352
-0.08379973 0.18118946 -0.07575838 -0.043856144 0.015828252 0.06268714 -0.058168627 -0.1281336
0.221549 0.095008135 0.15525313 0.10905565 0.077180415 0.066239014 0.0075973296 -0.045731362
0.07235399 0.090799816 0.16819361 0.010932714 0.051681444 -0.25940916 -0.08084692 0.10151221
0.14941566 0.071990654 -0.05705291 0.16059569 0.07138537 -0.11088467 -0.012374528 0.0504999
0.15100692 0.07255366 0.007059276 -0.11735374 0.046375483 0.02939046 -0.10215374 0.10065548
-0.01879506 -0.05900541 -0.008481124 0.09504684 0.16013798 0.08914017 0.06173931 -0.088380665
-0.1882206 0.064619474 0.13201414 0.02245812 0.14411557 -0.12046772 -0.02831388 0.08987534
0.071497515 0.015587792 0.0150540555 0.024207948 -0.03745282 -0.026932508 0.1990105 0.022530857
0.018500991 0.046373624 0.05575942 0.13341612 -0.11873621 0.115508996 0.0443961 0.112831734
-0.08493946 -0.18914813 0.07659811 0.027083196 -0.0035615733 -0.16353807 -0.08833778 -0.07440604
-0.15118578 -0.068086445 0.12684645 -0.19653071 0.0023406143 -0.058842998 0.0957932 0.14602308
-0.09744711 0.11719453 -0.05143224 -0.07263277 -0.012485441 -0.10160176 0.2393963 -0.118522435
0.08012439 -0.115356 0.05306435 0.05433818 -0.03631415 0.11448864 0.10297898 0.0072380006
0.04028602 0.10868346 -0.10747688 -0.18718383 0.076686546 0.079797864 -0.14977165 -0.13721392

actor.bias f4 [5]
00000000: 2ab8 35bc 23bc 343d cff9 413d 4aec 64bc
00000010: b01e 8c3d
-0.011091271 0.044124734 0.047357377 -0.013972351 0.06841791

critic.weight f4 [1, 64]
00000000: c308 a73e de91 aebd a53b 0e3e b16e 67be
00000010: fedb 5e3e eda5 d3bd 1e7c 49bc 618c fabb
00000020: aec3 403e 763f 153d f2a6 0f3e cbe2 8bbc
00000030: 0cc4 33bc 4cb0 df3d e0f7 44bb 58f0 153e
00000040: c636 b13d 590d 7b3d c37a 5b3e 10bb 683c
00000050: 8ad1 bd3c 0469 d73d 10ba d8bd 56b2 d6bd
00000060: 5c3d 8a3d 3827 06be 58b6 37bc 2373 f93d
00000070: 4948 133d 16aa 993d 6c4f f2bd 2838 c0bd
00000080: 82cb 1abd 7a91 cabc 4ad3 c03d 1883 393c
00000090: 39ff 1c3e 095c 253d a4b8 3b3d 8626 1ebe
000000a0: b597 20be 764a 45bd a518 07be 5f90 853d
000000b0: a0af cabc 7e2c 473d c2ad 94bd 3553 9cbd
000000c0: 05dd 743c 2fb1 ebbd 1d22 c03d 64fa 4bbc
000000d0: f0f9 93ba 946a 3fbe 66f2 1dbe 19f7 4b3d
000000e0: 1699 d13c c6d2 4fbe 398e bfbd ae03 2abd
000000f0: 6a24 61be cfe6 9b3d 2965 9a3e f2d4 d9bd
0.32623872 -0.08523916 0.1388994 -0.22600819 0.21763608 -0.10334382 -0.012297658 -0.007646129
0.18824646 0.036437474 0.14028528 -0.017075917 -0.010972034 0.10922298 -0.0030054972 0.14642465
0.08653025 0.061292026 0.21433549 0.014204755 0.023171205 0.10518077 -0.105823636 -0.10483234
0.067499846 -0.13100898 -0.011212908 0.12180164 0.03595761 0.075031444 -0.11831555 -0.09385711
-0.037791736 -0.024727572 0.094153 0.011322759 0.15331735 0.040370975 0.045830384 -0.15444383
-0.15682872 -0.048166715 -0.13192995 0.06521677 -0.024741948 0.048626415 -0.07259704 -0.07633058
0.014945273 -0.115084045 0.093815066 -0.0124498345 -0.0011289697 -0.18693 -0.15424499 0.049796198
0.025585692 -0.20295247 -0.09353299 -0.041507415 -0.21986547 0.076123826 0.30155304 -0.10636319
