checkpoints/agent_1_best.pt (torch, 179545 bytes, 11 tensors)

encoder.0.weight f4 [16, 5, 3, 3]
0	0x3d2572db	0.040392738
1	0x3d824ba1	0.06362081
2	0xbe167685	-0.14693649
3	0x3da0a64c	0.078442186
4	0xbdaf6ee5	-0.08566073
5	0x3e8f3696	0.27971333
6	0x3c13e4ec	0.009026747
7	0x3e5a6c8c	0.2133047
8	0x3b36c440	0.002788797
9	0xbd507338	-0.05089113
10	0x3bbc14f0	0.0057398006
11	0x3da041c0	0.07825041
12	0x3b9c9190	0.0047780946
13	0x3c186bd0	0.009303048
14	0x3e0e7004	0.13909918
15	0xbd6f549e	-0.058430307
16	0x3e192c8a	0.14958397
17	0xbdbf9545	-0.09354643
18	0x3d5ad2b4	0.0534236
19	0x3dd1600d	0.10223398
20	0xbe165c53	-0.14683656
21	0x3de2bd35	0.110712446
22	0x3dce9fb0	0.10089052
23	0xbc2a6b07	-0.010401494
24	0x3d4b6274	0.04965444
25	0x3e1e7aea	0.15476575
26	0xbda53853	-0.080673836
27	0xbd8b9c00	-0.06816864
28	0xbda2832b	-0.079351746
29	0x3e03b2bb	0.12861149
30	0xbdb1ffb8	-0.086913526
31	0xbe0345ab	-0.12819545
32	0xbd86e114	-0.06585899
33	0x3e708484	0.2348805
34	0xbe2d7f03	-0.16942982
35	0x3e099510	0.13435769
36	0xbc7e3216	-0.015514871
37	0xbdf30fdc	-0.11868259
38	0xbda3c27a	-0.07996078
39	0x3c4afcb0	0.012389347
40	0xbe753315	-0.23945267
41	0x3e183152	0.14862564
42	0xbe50e400	-0.20399475
43	0xbcdf6656	-0.027270477
44	0xbd8f4d45	-0.0699716
45	0x3e2cfd6f	0.16893552
46	0x3ddfa83a	0.109207585
47	0xbe7aacc1	-0.24479963
48	0x3b11ed80	0.0022266805
49	0xbdaff5cc	-0.08591804
50	0x3c8dc3c4	0.017305262
51	0xbe679d36	-0.22618565
52	0x3c10083b	0.008791025
53	0xbe22167a	-0.15828887
54	0x3daf6b58	0.08565396
55	0x3d43d1a0	0.047807336
56	0xbe02c1e9	-0.12769283
57	0xbc81392c	-0.015774332
58	0x3d72d045	0.059280653
59	0x3ce959d4	0.028485216
60	0x3ddfd54f	0.10929357
61	0x3cd7ae30	0.026328176
62	0x3ca44b5d	0.020055467
63	0x3d9db72f	0.07700955
64	0xbd90299b	-0.070391856
65	0x3d5afab9	0.053461764
66	0xbd0f372c	-0.034964725
67	0x3da80e7a	0.08205886
68	0xbdb5bd35	-0.08873979
69	0xbda8d12f	-0.082430236
70	0x3e36fd5b	0.17870085
71	0xbb198170	-0.0023423098
72	0xbdbd3d9a	-0.09240265
73	0x3d46a470	0.048496664
74	0xbdb5776d	-0.08860669
75	0x3e2c260a	0.16811386
76	0x3c795614	0.0152182765
77	0x3e164441	0.14674474
78	0xbe19d67a	-0.15023223
79	0xbe85bdec	-0.2612146
80	0xbdb74496	-0.089486286
81	0x3da0e50a	0.07856186
82	0x3c9672ec	0.018365346
83	0x3e38bb4f	0.18040203
84	0x3e8af706	0.2714159
85	0x3c967224	0.018364973
86	0x3e72c1b4	0.23706704
87	0xbbe8ca30	-0.0071041808
88	0xbdceb2a4	-0.10092667
89	0xbdf59cac	-0.119927734
90	0x3c5caf32	0.013469504
91	0x3d961e3a	0.07329984
92	0x3e25ac2f	0.16178964
93	0xbd7d2283	-0.06180049
94	0x3def22d0	0.11676562
95	0x3d7e03b4	0.06201525
96	0x3d8155a0	0.0631516
97	0xbdf1604d	-0.11785946
98	0xbc8c3cf5	-0.01711891
99	0x3e6dbc62	0.23216394
100	0x3dce2a9e	0.10066722
101	0xbddae2dc	-0.10687801
102	0xbd5bc44d	-0.053654004
103	0xbda0eea7	-0.07858019
104	0xbdc3257f	-0.09528636
105	0x3e37d7d4	0.17953426
106	0x3d59c216	0.05316361
107	0xbd9ee40a	-0.07758339
108	0x3e73d5f0	0.2381208
109	0x3e684a04	0.22684485
110	0x3c8658be	0.016399737
111	0xbe6053de	-0.21906993
112	0xbcb76ea4	-0.022391625
113	0x3e07ba40	0.13254642
114	0x3d4d2cb7	0.05009147
115	0x3dd7a80e	0.10530101
116	0xbd01028e	-0.031496577
117	0x3e234738	0.15945137
118	0x3cdb4624	0.026766844
119	0x3d66ab8f	0.056315955
120	0xbd735e06	-0.05941584
121	0x3e8e4ea0	0.2779436
122	0x3e0c0586	0.13673982
123	0x3dce8fdc	0.10086033
124	0xbd31fab1	-0.04345197
125	0x3dc679f8	0.096912324
126	0x3db12b13	0.08650794
127	0x3c7ab0e4	0.015300963
128	0x3d44cb48	0.048045427
129	0x3d75103d	0.05982994
130	0x3d4e615d	0.05038582
131	0xbd1d7283	-0.038439285
132	0xbe0c3bbe	-0.13694665
133	0xbc1e8da9	-0.009677329
134	0xbdca8188	-0.098879874
135	0xbe1b2b2c	-0.15153188
136	0xbdc8f695	-0.09812657
137	0xbd98116c	-0.07425198
138	0xbca0a0dc	-0.019607954
139	0xbe0a274f	-0.13491558
140	0xbc3d1506	-0.011540657
141	0xbd75f168	-0.060044676
142	0x3d6668b6	0.056252204
143	0x3db39dc2	0.08770324
144	0xbe58838d	-0.21143933
145	0xbe26de1a	-0.16295663
146	0x3bef102c	0.007295629
147	0x3d1e8f15	0.038710672
148	0xbe1a6c35	-0.1508034
149	0xbc115988	-0.008871444
150	0x3e18b422	0.14912465
151	0xbce42dec	-0.027853929
152	0x3dcd8fc6	0.10037188
153	0xbcc524a4	-0.024065323
154	0x3df1fcf4	0.11815825
155	0xbd5bd359	-0.053668354
156	0xbb1d4f30	-0.0024003498
157	0xbb953cb6	-0.0045543564
158	0x3e31406e	0.17309734
159	0xbc01e894	-0.007928986
160	0xbe643ffe	-0.22290036
161	0xbe69f39e	-0.22846839
162	0xbdb1c537	-0.08680194
163	0x3e1539fe	0.14572904
164	0x3e4967bb	0.19668476
165	0xbde62f14	-0.11239448
166	0x3d6a4c20	0.057201505
167	0xbd5e386a	-0.05425302
168	0x3e22a9ee	0.15885136
169	0x3d840940	0.06447077
170	0xbd7e142b	-0.062030952
171	0x3e98a78a	0.29815322
172	0xbe42bd42	-0.19017509
173	0xbd945032	-0.072418585
174	0xbc48cbd4	-0.012255628
175	0x3d51db8b	0.051234763
176	0x3da6c981	0.081439026
177	0xbcdbb41a	-0.026819278
178	0x3ddd20c2	0.10797264
179	0xbda63f92	-0.08117594
180	0xbdf20018	-0.11816424
181	0x3de35de6	0.11101894
182	0x3d4db736	0.05022355
183	0x3e30e1b5	0.172736
184	0x3da9027c	0.08252427
185	0x3df5ed60	0.12008166
186	0xbe100ab3	-0.14066581
187	0x3d18ffaf	0.037353214
188	0xbca5c022	-0.020233218
189	0x3c1985de	0.009370295
190	0xbcdea732	-0.027179334
191	0xbe0fac22	-0.14030507
192	0x3caa6330	0.02079925
193	0x3d1d3db0	0.038388908
194	0xbe589cef	-0.21153615
195	0xbcb5cab8	-0.02219139
196	0xbe693bbb	-0.22776692
197	0xbc9d1dee	-0.01917931
198	0x3b856726	0.004071134
199	0xbd88fe96	-0.066891834
200	0xbdc39c5b	-0.09551307
201	0xbdb41746	-0.087935016
202	0xbd1fd135	-0.039017875
203	0x3dad0aaa	0.084493
204	0xbd9fc13a	-0.07800527
205	0xbcceee73	-0.025260186
206	0x3c98e781	0.018665077
207	0x3a83f670	0.0010067951
208	0x3e19b1c3	0.15009217
209	0xbd8ea229	-0.06964523
210	0x3e384729	0.17995895
211	0xbce5a2ca	-0.028031725
212	0xbe110443	-0.14161782
213	0xbe1e2ae1	-0.15446045
214	0xbe16b236	-0.1471642
215	0x3e1e0e58	0.15435159
216	0x3d4ff259	0.05076823
217	0x3c986bd6	0.018606108
218	0xbdb95e1e	-0.090511546
219	0x3d467605	0.048452396
220	0xbc36db46	-0.011160677
221	0xbe3691bc	-0.17829031
222	0xbdb6012f	-0.088869445
223	0xbd9ab8c8	-0.075547755
224	0xbe2bcb29	-0.16776718
225	0xbd2fdc9c	-0.042935
226	0x3dab4a4f	0.083637826
227	0x3cc70a50	0.02429691
228	0xbd32fe62	-0.04369963
229	0xbb6e1bf8	-0.0036332589
230	0xbc5166fb	-0.0127809
231	0xbdd6b825	-0.104843415
232	0x3ca7d0d8	0.020485327
233	0xbd953619	-0.07285709
234	0x3c860fac	0.016364895
235	0xbdf4563c	-0.119305104
236	0x3d605b10	0.054774344
237	0xbdc3fce7	-0.09569722
238	0x3e875b38	0.26436782
239	0x3d8b0360	0.06787753
240	0x3e051ef7	0.13000093
241	0xbdc28d56	-0.09499614
242	0xbdd8c8e0	-0.10585189
243	0xbda2432c	-0.07922968
244	0x3d7b8610	0.06140715
245	0x3dd60586	0.10450272
246	0xbd83e1e4	-0.064395696
247	0x3ddc0765	0.10743598
248	0xbe743cd8	-0.23851335
249	0xbd7f61e4	-0.062349215
250	0x3df757c3	0.12077286
251	0x3dc11459	0.09427709
252	0xbda0a2d3	-0.07843556
253	0x3d073c65	0.03301658
254	0x3e7abc14	0.24485809
255	0xbe6485bb	-0.22316639

encoder.0.bias f4 [16]
0	0x3da0248c	0.07819471
1	0xbd7579d7	-0.05993065
2	0xbe0afb60	-0.13572454
3	0x3e0391bd	0.12848563
4	0x3dfdeb8a	0.12398441
5	0x3cc65924	0.024212427
6	0xbddb574b	-0.10710009
7	0xbe0b6632	-0.13613203
8	0xbb8a94de	-0.004229172
9	0x3d81d719	0.06339855
10	0xbd7a944d	-0.061176587
11	0x3d0251d7	0.03181633
12	0xbb958556	-0.004563014
13	0x3d1bdf6d	0.038054872
14	0x3d3fbad5	0.046809036
15	0xbd56ce9d	-0.052443136

encoder.3.weight f4 [64, 144]
0	0x3db4006e	0.087891445
1	0xbc641584	-0.013921145
2	0x3e2cedae	0.16887543
3	0x3e21cafc	0.15800089
4	0xbcc2f5c9	-0.02379884
5	0xbd09f48f	-0.033680495
6	0xbbab7630	-0.005232595
7	0xbd58e8d0	-0.052956402
8	0x3d386725	0.04502024
9	0xbd1a75d7	-0.037710037
10	0x3ce0a016	0.027420085
11	0x3dba08b6	0.09083693
12	0xbb7e802c	-0.003883372
13	0x3e0b8d91	0.13628222
14	0x3df086fc	0.11744496
15	0x3db0e29e	0.08636974
16	0x3d3c745f	0.046009418
17	0x3d69df66	0.057097815
18	0x3dcac14c	0.0990015
19	0x3ddd9f96	0.10821454
20	0x3dd3e9cd	0.10347328
21	0xbd723a23	-0.059137475
22	0x3dae0a6d	0.08498082
23	0x3d9de787	0.07710176
24	0x3db3d925	0.087816514
25	0x3db90339	0.09033818
26	0xbe1887a2	-0.1489549
27	0x3dcbe392	0.09955515
28	0xbd032840	-0.032020807
29	0x3de15dbc	0.110042065
30	0x3c823dbe	0.015898582
31	0xbdccf565	-0.10007743
32	0x3c91bebe	0.017791148
33	0xbde6a7e4	-0.11262491
34	0xbcf8acf7	-0.030355914
35	0xbd3aa4b1	-0.04556722
36	0x3c055e0c	0.008140098
37	0x3d24d4a4	0.040241852
38	0x3c4a2768	0.012338497
39	0x3e0f45e6	0.13991508
40	0xbd70959b	-0.058736425
41	0xbbf15138	-0.0073644184
42	0x3db898f0	0.090135455
43	0x3d060b4c	0.032725617
44	0x3e52296c	0.20523614
45	0x3c122534	0.008920003
46	0x3db976d6	0.09055869
47	0xbd20381f	-0.03911602
48	0x3d5b7c02	0.05358506
49	0xbca77d74	-0.020445563
50	0x3cefe970	0.029286116
51	0xbcdc1a58	-0.02686803
52	0x3c1879ea	0.00930641
53	0x3c3279b8	0.010893278
54	0xbcc1d3c3	-0.023660546
55	0xbddcc188	-0.10779101
56	0x3caa04da	0.020754267
57	0xbd2b9fc2	-0.041900404
58	0x3d9fab74	0.07796374
59	0x3c1fc196	0.009750744
60	0xbd8b15ae	-0.067912444
61	0x3da384dc	0.07984325
62	0x3df3ac64	0.11898115
63	0xbcb79420	-0.022409499
64	0x3d0bb817	0.03411111
65	0x3d650d3d	0.055920828
66	0x3c77dfe9	0.015129068
67	0xbd207181	-0.039170746
68	0xbe24d3ca	-0.16096416
69	0x3e650c42	0.22367957
70	0x3d386826	0.0450212
71	0xbdcdbd12	-0.10045828
72	0x3e1bf101	0.15228654
73	0x3c0dd494	0.00865664
74	0x3c3784bc	0.01120108
75	0xbd259a26	-0.04043021
76	0xbdc019a3	-0.0937989
77	0x3d8207c3	0.06349137
78	0x3d68d8bc	0.05684732
79	0xbdc21893	-0.094773434
80	0xbd60d324	-0.05488886
81	0x3e2d88a1	0.16946651
82	0xbc69b55e	-0.014264433
83	0x3d03fbac	0.032222435
84	0xbcb87077	-0.022514565
85	0x3e13e5c8	0.14443123
86	0x3de0fc67	0.10985642
87	0x3e15ddb1	0.1463535
88	0x3db5eebe	0.08883427
89	0xbd883b30	-0.06651914
90	0xbbb20ba8	-0.0054335184
91	0xbb8956d8	-0.004191261
92	0x3e3505b4	0.17677957
93	0xbd5210ac	-0.05128543
94	0xbca66480	-0.020311594
95	0x3e2e0bc5	0.16996677
96	0xbd61d8f9	-0.055138562
97	0xbd6098e1	-0.054833297
98	0x3d9302e1	0.071782835
99	0x3cfe8235	0.031067947
100	0x3e90ca20	0.2827921
101	0xbd5b57ae	-0.053550415
102	0xbddbdbf7	-0.10735314
103	0xbd44d510	-0.048054755
104	0xbc280be0	-0.0102567375
105	0xbbc67570	-0.00605648
106	0x3e2ee87a	0.1708087
107	0xbd837e1c	-0.06420538
108	0xbd9066e4	-0.07050875
109	0x3c7bd831	0.015371368
110	0x3d82451b	0.06360837
111	0xbc0f6ab8	-0.008753471
112	0x3cc644e2	0.024202768
113	0xbc98e2f4	-0.018662907
114	0x3b8353a4	0.0040077735
115	0x3c693e96	0.014236113
116	0x3dc04a38	0.09389156
117	0xbe3e1897	-0.18564068
118	0x3d21cd31	0.039502326
119	0xbde19f97	-0.110167675
120	0x3d5f6db4	0.05454798
121	0x3e1da2da	0.15394154
122	0x3ab7dac6	0.0014026992
123	0xbd5f96f2	-0.054587312
124	0xbddbd5a2	-0.107341066
125	0xbdc3ed93	-0.09566798
126	0xbe11c5aa	-0.14235559
127	0xbd97fbee	-0.07421099
128	0x3e11f966	0.14255294
129	0x3e122b45	0.14274319
130	0x3bda25d8	0.0066573434
131	0x3cd1872d	0.025577152
132	0x3d048262	0.032350905
133	0x3d682428	0.056675106
134	0x3d9b6ddf	0.075893156
135	0x3d654d83	0.055982124
136	0x3d13e1ae	0.036103897
137	0x3e07dcac	0.13267773
138	0x3d504f95	0.050857145
139	0xbdad8fba	-0.08474679
140	0xbdbb15c0	-0.09135008
141	0xbd7a5fef	-0.061126646
142	0xbdb043f7	-0.08606713
143	0x3dc967b9	0.09834237
144	0xbc35760d	-0.011075509
145	0xbd33319f	-0.043748494
146	0xbdf528eb	-0.11970695
147	0x3de82076	0.113343164
148	0x3df0b29f	0.11752819
149	0x3ce7b060	0.028282344
150	0xbd2c4efd	-0.042067517
151	0xbda2c56d	-0.07947812
152	0xbd41e750	-0.047339737
153	0xbd036d07	-0.0320864
154	0x3daa7946	0.08323912
155	0x3da573a4	0.08078697
156	0xbd0bcc07	-0.034130123
157	0xbd335392	-0.04378087
158	0x3e2778d5	0.16354688
159	0x3bb5d890	0.005549498
160	0x3dbb9dc4	0.09160951
161	0xbda7df58	-0.08196896
162	0x3ca78341	0.020448329
163	0x3be826c6	0.0070847003
164	0x3d473d36	0.04864236
165	0x3c0ec5ec	0.00871418
166	0x3d4e80d2	0.05041582
167	0x3e1eab08	0.1549493
168	0x3c992109	0.01869251
169	0x3db9d181	0.09073163
170	0x3e0bb60e	0.13643667
171	0x3e05e494	0.13075477
172	0xbd04f5f2	-0.032461114
173	0xbc8f9d30	-0.017531008
174	0xbd8af9a2	-0.06785895
175	0xbd2c98a4	-0.042137757
176	0x3db11a1f	0.0864756
177	0x3c0412a2	0.008061083
178	0xbe1b3f55	-0.15160878
179	0xbc36689a	-0.011133337
180	0xbd4ceaf6	-0.050028764
181	0x3d420f3d	0.047377814
182	0x3dab5f4d	0.083677866
183	0xbe1a35dc	-0.15059608
184	0xba414820	-0.0007373113
185	0x3e06d0ca	0.13165584
186	0xbdc536cc	-0.09629592
187	0x3d9db919	0.0770132
188	0x3dd75b3f	0.10515451
189	0x3aa058e0	0.0012233518
190	0x3e10ca80	0.14139748
191	0x3de8a5da	0.11359759
192	0x3d7c27b2	0.061561294
193	0x3deb1e8a	0.11480434
194	0xbd59e60f	-0.053197917
195	0xbcdfa0c6	-0.027298342
196	0x3d8d9c03	0.069145225
197	0xbe06d68c	-0.1316778
198	0x3c7f9021	0.015598328
199	0x3dcac354	0.09900537
200	0xbdeb4786	-0.114882514
201	0x3d2f1ba4	0.04275097
202	0x3df3f232	0.119114295
203	0xbe5d6c12	-0.21623257
204	0x3d89a4dd	0.06720898
205	0xbd081ea8	-0.03323236
206	0x3cd09dd5	0.025465885
207	0x3c0ae004	0.008476261
208	0xbd1e8b11	-0.038706843
209	0xbc59169b	-0.0132500185
210	0xbe18c187	-0.14917575
211	0x3b0ee1c0	0.0021802038
212	0x3c0e3c7a	0.008681411
213	0x3df5ac74	0.119957834
214	0xbce6d28a	-0.028176565
215	0xbcffd538	-0.0312296
216	0xbda0b150	-0.0784632
217	0xbda7adf2	-0.08187474
218	0x3c269d0a	0.010169277
219	0x3ce8ccdf	0.028418003
220	0x3dcfca2a	0.101459816
221	0xbba73550	-0.005102791
222	0xbe21660e	-0.15761587
223	0x3c148cbe	0.009066759
224	0xbc95fc02	-0.018308643
225	0x3d98e1ec	0.07464966
226	0x3e000b33	0.12504272
227	0xbd856c75	-0.06514827
228	0x3ddd07ea	0.10792525
229	0x3e8753b5	0.2643105
230	0xbdc55c8f	-0.09636795
231	0xbb81ccc4	-0.0039611775
232	0xbd980aff	-0.07423972
233	0x3da0f849	0.07859857
234	0x3e092d38	0.13396156
235	0x3c8ed434	0.01743517
236	0xbd09d442	-0.03364969
237	0x3c8391d0	0.01606074
238	0x3d1f48da	0.038887836
239	0x3cc6b670	0.024256915
240	0xbdb4bc7d	-0.08825014
241	0x3dc51336	0.09622805
242	0x3e30932a	0.17243639
243	0x3b077ffc	0.002067565
244	0xbd3d1468	-0.04616204
245	0x3d68d991	0.056848112
246	0xbd625fb0	-0.055267036
247	0xbba897d0	-0.0051450506
248	0x3e1f43a0	0.1555314
249	0x3d95e592	0.07319178
250	0x3e1c16a2	0.15243009
251	0xbd9bec19	-0.076133914
252	0xbdf2657c	-0.11835763
253	0xbbdc66f0	-0.0067261383
254	0x3de8494d	0.11342106
255	0x3d079de8	0.033109576

encoder.3.bias f4 [64]
0	0xbd3ec52c	-0.046574757
1	0x3c86a574	0.016436316
2	0x3cc739bc	0.024319522
3	0xbd8b1f61	-0.067930944
4	0x3cbd4de1	0.023108425
5	0xbd2738a5	-0.040825505
6	0x3ce20027	0.027587963
7	0x3cf926c8	0.030414
8	0x3d8b20db	0.06793376
9	0x3d45a2a7	0.04825082
10	0xbca12b6f	-0.019674031
11	0x3d6ab3c5	0.057300348
12	0xbc4fe391	-0.012688533
13	0xbda85e8c	-0.082211584
14	0x3d325c8c	0.04354529
15	0x3ce1d138	0.027565584
16	0xbd1143e7	-0.035465147
17	0xbd12a07c	-0.03579758
18	0xbc8e99db	-0.017407348
19	0xbcf9f642	-0.030512933
20	0x3ca48dcd	0.020087147
21	0x3c596e6b	0.013270955
22	0xbd370355	-0.044680912
23	0xbd84509d	-0.06460688
24	0xbcfd810a	-0.03094532
25	0x3b27f8f1	0.0025630558
26	0xbd937bb6	-0.0720133
27	0x3be9db1b	0.007136715
28	0xbc202657	-0.009774766
29	0x3da114ef	0.07865321
30	0x3d687dc8	0.05676058
31	0x3db4e5c7	0.08832889
32	0xbb914405	-0.0044331574
33	0xbc268893	-0.010164398
34	0xbd31a0e5	-0.04336633
35	0xbcf0b1bb	-0.029381623
36	0xbd857811	-0.065170415
37	0x3d407604	0.04698755
38	0xbd1dac54	-0.038494423
39	0x3d161e8b	0.03665022
40	0x3d328eba	0.043593146
41	0x3d5a0d02	0.05323506
42	0xbd515f7a	-0.051116444
43	0xbd9fdc3d	-0.07805679
44	0x3da68980	0.08131695
45	0xbd979a08	-0.07402426
46	0x3c170ef5	0.009219875
47	0x3da5651d	0.080759265
48	0x3d1e5ea2	0.038664468
49	0xb9b61f3c	-0.00034737017
50	0x3d442127	0.04788318
51	0x3d651fa1	0.055938367
52	0x3d8ca7c0	0.06867933
53	0x3d70561b	0.058675867
54	0x3d2170b9	0.03941414
55	0xbd5f2b7b	-0.054484826
56	0xbc7e51c0	-0.01552242
57	0xbc07b7ed	-0.008283597
58	0x3d96694f	0.07344305
59	0xbd63f98d	-0.055657912
60	0xbd24656c	-0.040135786
61	0x3c6ccd0c	0.014453184
62	0xbb9b58a7	-0.004740793
63	0xbbf99337	-0.0076164263

lstm.weight_ih_l0 f4 [256, 64]
0	0x3df93bd0	0.121696115
1	0x3d3da5e0	0.04630077
2	0xbdde4fc4	-0.10855058
3	0x3e2282c2	0.15870193
4	0xbe01d025	-0.12677057
5	0x3dcfad58	0.101404846
6	0x3dce5ac9	0.1007591
7	0x3e3fe11e	0.18738219
8	0xbe04e9ba	-0.12979785
9	0xbda953f9	-0.0826797
10	0xbd0a1728	-0.03371349
11	0x3d85a280	0.06525135
12	0xbe02a2e8	-0.12757456
13	0x3b8d4f54	0.004312435
14	0xbe555e16	-0.20836672
15	0xbe35b071	-0.17743088
16	0x3c91b5fe	0.017786976
17	0xbd73e2fc	-0.05954264
18	0xbc23a1c4	-0.009987298
19	0xbd968027	-0.07348662
20	0x3e1fc468	0.15602267
21	0xbdbbf1d8	-0.091769874
22	0x3deba06e	0.11505209
23	0x3d2c90ca	0.04213027
24	0x3dded819	0.10881061
25	0xbd06765a	-0.032827713
26	0x3d8c6840	0.068558216
27	0xbddbfe09	-0.10741813
28	0x3c5eed34	0.013606358
29	0xbd828002	-0.06372072
30	0xbd93c0be	-0.07214497
31	0xbdeef5a7	-0.11667948
32	0x3ccd2f82	0.025047068
33	0x3da5ebe8	0.08101636
34	0xbe66e4ee	-0.22548267
35	0xbe1ca8b6	-0.15298733
36	0x3d86104c	0.06546077
37	0xbe28008d	-0.1640646
38	0xbd4cdf88	-0.050017864
39	0x3d0a2231	0.033724014
40	0xbd005f10	-0.03134066
41	0xbc5f747c	-0.013638612
42	0xbda6a6c2	-0.08137275
43	0xbdb18c4a	-0.08669336
44	0x3e079ede	0.13244197
45	0xbe4e18dd	-0.20126672
46	0xbceda19d	-0.029007727
47	0x3d40ac86	0.04703953
48	0x3dc2626a	0.09491427
49	0xbe122cb5	-0.14274867
50	0xbe050428	-0.12989867
51	0x3dd4265d	0.1035888
52	0x3cbd478a	0.023105402
53	0x3d862972	0.06550874
54	0xbd00d05a	-0.0314487
55	0x3e45db9d	0.19322057
56	0xbde5956f	-0.11210143
57	0xbdd4cffd	-0.10391233
58	0x3e0468c0	0.12930584
59	0xbe3db58d	-0.18526287
60	0x3e2a398c	0.16623515
61	0x3d911717	0.07084482
62	0x3d0ad352	0.033892937
63	0x3b2da010	0.002649311
64	0xbccf22e8	-0.0252852
65	0xbda75131	-0.08169783
66	0x3d339718	0.043845266
67	0x3d03cefc	0.032179818
68	0x3e111680	0.1416874
69	0x3df9b001	0.12191773
70	0xbd4b3c1a	-0.049617864
71	0xbdecf86f	-0.115708224
72	0xbdb34a90	-0.08754456
73	0xbd8519ca	-0.064990595
74	0x3d963f5e	0.07336305
75	0xbe02e09a	-0.12780991
76	0x3d0302ac	0.03198497
77	0xbc266af0	-0.010157332
78	0xbcbe394c	-0.02322068
79	0x3dba2133	0.090883635
80	0xbd225870	-0.03963512
81	0x3bd9cfdc	0.006647093
82	0xbcc98f3b	-0.02460443
83	0xbdc6b850	-0.097031236
84	0xbd76ef1c	-0.060286626
85	0x3d73ecb0	0.059551895
86	0xbe3f8c34	-0.18705827
87	0x3dc8ad9c	0.09798738
88	0x3da2ea65	0.079548635
89	0x3d9dbb16	0.077016994
90	0xbdaf319a	-0.085543826
91	0xbca3dc9a	-0.020002652
92	0xbb8c4508	-0.00428069
93	0x3db5248b	0.08844861
94	0xbca2d892	-0.01987866
95	0xbe27c43d	-0.16383453
96	0xbd7844cf	-0.060612496
97	0xbdc49d47	-0.09600311
98	0x3d3ccee9	0.046095762
99	0x3ba6dd5b	0.0050923056
100	0x3dbf5b0a	0.09343536
101	0x3def93d2	0.11698116
102	0x3d77321e	0.06035053
103	0xbe18dbcc	-0.14927596
104	0x3dceda7b	0.101002656
105	0xbac35bc0	-0.0014904663
106	0xbd9929cc	-0.07478675
107	0x3cdf6a9e	0.027272519
108	0xbe5cc9be	-0.21561334
109	0xbb0b11bc	-0.0021220287
110	0x3e69c894	0.2283042
111	0xbe3105c1	-0.17287351
112	0xbe30bb25	-0.1725889
113	0xbd1e3f12	-0.038634367
114	0x3d7bf59c	0.06151353
115	0xbdbbbe12	-0.091671124
116	0xbcce04bc	-0.025148742
117	0xbdfc0335	-0.12305299
118	0x3de8b276	0.11362164
119	0xbd2b244d	-0.041782666
120	0xbe04c692	-0.12966374
121	0x3e68a071	0.22717454
122	0xbe46d7fa	-0.19418326
123	0x3d9ac6cb	0.07557448
124	0x3e0b1fcb	0.13586347
125	0xbd4c18c4	-0.049828306
126	0x3d8b878d	0.06812964
127	0xbe00838e	-0.12550184
128	0x3cefac6a	0.029257018
129	0x3d499aa8	0.049219757
130	0x3cace63a	0.021105874
131	0x3cbd4a62	0.023106758
132	0xbddfaa42	-0.10921146
133	0xbcebe97c	-0.028797857
134	0xbd37d76c	-0.044883177
135	0x3c34d5fc	0.011037346
136	0x3d35cfb5	0.044387538
137	0x3dad403c	0.08459517
138	0xbd9653ca	-0.073402
139	0xbbca1706	-0.0061672954
140	0x3de061f3	0.10956182
141	0x3e531ccd	0.20616455
142	0xbd6a18d9	-0.057152603
143	0x3e59e9a9	0.2128054
144	0x3e175b30	0.14780879
145	0x3e430939	0.19046487
146	0xbcf53812	-0.029933963
147	0xbd03dffc	-0.03219603
148	0x3e9280ff	0.2861404
149	0x3cced559	0.025248216
150	0xbd36992a	-0.044579662
151	0xbdce1af4	-0.10063735
152	0xbd70a480	-0.05875063
153	0xbc75bf06	-0.014999157
154	0xbd9ab8d2	-0.07554783
155	0x3c4b44c3	0.012406531
156	0x3d2d1b24	0.04226221
157	0x3e660fba	0.22466937
158	0x3d7bb710	0.06145388
159	0xba84eff4	-0.0010142312
160	0xbe159e57	-0.14611183
161	0x3e01fa5b	0.1269316
162	0x3d6ed99f	0.05831301
163	0x3c5d5ff8	0.01351165
164	0x3da76074	0.08172694
165	0xbdd9f966	-0.10643272
166	0x3d3344fe	0.043766968
167	0x3dc957c6	0.098311946
168	0x3e2b6e18	0.16741216
169	0x3d66cd58	0.056348175
170	0xbe202dd9	-0.1564249
171	0x3e18f926	0.14938793
172	0x3d4ede93	0.050505232
173	0x3dfc7870	0.12327659
174	0xbd3c976d	-0.04604285
175	0xbb4d85a8	-0.0031360183
176	0x3da2025a	0.07910605
177	0xbdc2501f	-0.09487938
178	0x3da833c8	0.082130015
179	0x3d5d4ae1	0.05402649
180	0xbb69f0c0	-0.0035696477
181	0xbe1a1d81	-0.15050317
182	0xbd3b74d3	-0.04576571
183	0xbd7b1d7a	-0.061307408
184	0xbe62055a	-0.22072354
185	0x3d98ba63	0.074574254
186	0xbe3ecf88	-0.18633854
187	0x3e656b78	0.22404277
188	0x3df615d6	0.120158836
189	0x3d62e04a	0.05538968
190	0x3dd12cd8	0.102136314
191	0x3e144b27	0.14481793
192	0xbbc4e580	-0.006008804
193	0xbd1a2dec	-0.03764145
194	0xbbb5aeb6	-0.005544509
195	0x3cb7e569	0.022448258
196	0x3df6cbfc	0.12050626
197	0xbe0f9aec	-0.14023942
198	0xbdadd153	-0.08487191
199	0x3debe71b	0.11518689
200	0xbc01fa64	-0.007933233
201	0xbc87c2b4	-0.016572334
202	0xbb264998	-0.0025373455
203	0x3d9e870e	0.077406034
204	0x3c9cc4af	0.019136755
205	0xbdfa70fc	-0.12228581
206	0xbced2c53	-0.0289518
207	0x3d0ffee0	0.035155177
208	0xbda9b0fe	-0.08285712
209	0xbe40a6e0	-0.18813658
210	0x3ca0a706	0.019610893
211	0xbdf880d0	-0.12133944
212	0xbdcbc5a6	-0.09949808
213	0x3d2f9d03	0.042874347
214	0xbe0338ff	-0.12814711
215	0xbe2cfc2d	-0.16893072
216	0xbce19a94	-0.027539529
217	0x3e0bf751	0.13668562
218	0x3e3ef82e	0.1864936
219	0x3e2299f4	0.15879041
220	0xbe16be84	-0.14721113
221	0x3d63c72a	0.05560986
222	0x3d1be7d2	0.038062878
223	0xbe1e13ed	-0.15437289
224	0x3e1552ef	0.14582418
225	0xbbb366f0	-0.0054749176
226	0x3d2fa6aa	0.042883553
227	0x3c675ba4	0.01412097
228	0xbd52ea21	-0.051492814
229	0x3e3cc9d0	0.1843636
230	0x3d7bc138	0.061463565
231	0x3b15f460	0.0022881255
232	0xbdefb65e	-0.11704706
233	0x3de96ece	0.113980874
234	0x3dd6e508	0.10492903
235	0x3c261bea	0.010138491
236	0x3b95be32	0.004569792
237	0xbd603ba8	-0.054744393
238	0x3e5af0a5	0.21380861
239	0x3e2130ea	0.15741315
240	0xbd0f8cc2	-0.035046346
241	0x3dc51c2e	0.096245155
242	0xbd83ace3	-0.0642946
243	0xbc9f36e0	-0.019435346
244	0xbd8e915b	-0.06961318
245	0xbd94ae8c	-0.07259855
246	0xbe0f9afa	-0.14023963
247	0xbe07b517	-0.13252674
248	0x3d405fe9	0.046966467
249	0x3db3849a	0.08765526
250	0xbcee85ae	-0.029116478
251	0x3e304b3e	0.17216203
252	0xbd9203af	-0.07129609
253	0xbd81f504	-0.06345561
254	0xbdb1d5b4	-0.08683339
255	0x3e0a2928	0.13492262

lstm.weight_hh_l0 f4 [256, 64]
0	0x3cfe4b02	0.031041626
1	0x3d0de9b5	0.03464671
2	0xbde2c71c	-0.11073133
3	0xbe4d49a7	-0.20047627
4	0x3d351bd4	0.044215992
5	0xbcc102ba	-0.02356087
6	0x3e1c3378	0.15254009
7	0x3dd5f83d	0.10447738
8	0x3d478349	0.048709188
9	0xbe0538ac	-0.130099
10	0xbc8bb9dc	-0.017056398
11	0xbd5999bf	-0.05312514
12	0xbc815b8e	-0.015790727
13	0x3d9dfd10	0.077142835
14	0x3e26382f	0.1623237
15	0xbd08ab1e	-0.033366315
16	0xbdf3f212	-0.119114056
17	0x3d62ac58	0.05534014
18	0x3dafa1d8	0.08575791
19	0x3e1d9bcf	0.15391468
20	0xbdf9cc84	-0.121972114
21	0xbcddd66a	-0.02707978
22	0xbdb5c30a	-0.088750914
23	0xbcb8e882	-0.022571806
24	0x3e1c85e8	0.15285456
25	0x3e1fec90	0.15617585
26	0x3d3f6216	0.0467244
27	0xbd3f8cac	-0.046765015
28	0x3e066d7c	0.13127702
29	0xbdc991f0	-0.098422885
30	0x3d609d9e	0.054837815
31	0x3d0c040c	0.034183547
32	0xbdd8c74a	-0.10584886
33	0x3c3ba583	0.011453035
34	0x3d9a1fed	0.075256206
35	0x3d6589f0	0.05603975
36	0xbe4587d2	-0.19290093
37	0x3d352488	0.044224292
38	0x3ddc4398	0.1075508
39	0x3e361d30	0.17784572
40	0xbd19f5b7	-0.037587848
41	0xbd4aaba4	-0.049480096
42	0xbdc2b81e	-0.09507774
43	0xbe121ec0	-0.14269543
44	0xbc581e9c	-0.013190892
45	0x3dc3fae0	0.09569335
46	0x3dd279f1	0.10277165
47	0x3ca08d41	0.019598605
48	0xbd35f996	-0.044427477
49	0xbdfcf7e1	-0.12351967
50	0xbe0ba4c9	-0.1363708
51	0xbdc6e690	-0.09711945
52	0x3df7eb3e	0.12105416
53	0xbd88c62d	-0.06678424
54	0xbd6f4dbd	-0.058423746
55	0xbd29b92e	-0.041436367
56	0x3e525be2	0.20542863
57	0x3e057359	0.13032283
58	0x3d35d970	0.044396818
59	0xbd4e7a96	-0.050409876
60	0x3db7b0a8	0.089692414
61	0x3c66eeb6	0.014094999
62	0x3c857de8	0.016295388
63	0xbe19845b	-0.14991896
64	0xbce759b4	-0.028241016
65	0x3d594f33	0.053054046
66	0x3d0604e6	0.032719515
67	0x3d02533c	0.03181766
68	0x3d82df89	0.06390292
69	0xbda5dd9c	-0.08098909
70	0x3c2624e8	0.010140635
71	0x3c1adc12	0.009451883
72	0xbd54e294	-0.051973894
73	0xbc879d74	-0.016554572
74	0xbd44c1a1	-0.04803622
75	0xbd13e445	-0.036106367
76	0xbb0e17cc	-0.0021681665
77	0xbd3e3984	-0.04644157
78	0x3d9266e7	0.07148533
79	0x3d989d5f	0.07451891
80	0x3e3428ac	0.1759364
81	0xbe3946cc	-0.18093413
82	0x3cf08a0a	0.029362697
83	0x3e1d1cf3	0.15343075
84	0xbd88f68e	-0.066876516
85	0x3c2541d3	0.0100864945
86	0x3d3cdd90	0.046109736
87	0x3e844d44	0.258402
88	0x3e48cf8f	0.19610427
89	0x3d9ca1bc	0.07648036
90	0x3dad8a60	0.084736586
91	0x3da849d1	0.08217204
92	0xbcbd6e56	-0.023123901
93	0xbc2a735c	-0.01040348
94	0x3df2311a	0.11825772
95	0x3d1f75ba	0.038930632
96	0x3d3108fe	0.043221466
97	0x3df67540	0.120340824
98	0x3d730598	0.059331506
99	0x3b6e2e10	0.0036343373
100	0x3d96cc5e	0.07363199
101	0x3d4fa344	0.05069281
102	0x3d80b238	0.062839925
103	0xbd5c208a	-0.05374197
104	0x3d16c758	0.036811203
105	0xbc6be826	-0.01439861
106	0xbe1c5dd9	-0.15270175
107	0x3d08e1f1	0.0334186
108	0x3c6e3d12	0.0145409275
109	0xbe0e85af	-0.13918184
110	0x3b0eb01c	0.002177245
111	0xbdffcf0a	-0.124906614
112	0xbd5469e7	-0.05185881
113	0x3d11b20c	0.03557019
114	0xbb01bb80	-0.0019795597
115	0x3ce9b017	0.028526349
116	0xbe0aa435	-0.13539203
117	0xbda74a91	-0.08168519
118	0xbdf5d232	-0.12002982
119	0x3d47890a	0.048714675
120	0xbce5012c	-0.02795466
121	0x3d481ebc	0.048857436
122	0x3b8add23	0.0042377873
123	0xbd73e496	-0.05954417
124	0x3e068e36	0.13140187
125	0xbdf8c7bc	-0.12147471
126	0xbe5cadae	-0.21550629
127	0xbccf2c76	-0.025289755
128	0xbd8d1772	-0.068892375
129	0xbe2063b4	-0.15663034
130	0xbe4fbf25	-0.2028776
131	0x3cf56ce8	0.029959157
132	0xbd958b92	-0.073020115
133	0x3d9ecc98	0.07753867
134	0x3dde6f20	0.10861039
135	0xbe167867	-0.14694367
136	0xbe03579c	-0.12826389
137	0xbddb435a	-0.10706206
138	0xbe64e9bb	-0.22354786
139	0x3e07dc58	0.13267648
140	0xbe2a41c0	-0.16626644
141	0xbd980aec	-0.07423958
142	0x3d9f4436	0.07776682
143	0x3e0f94c4	0.14021593
144	0xba9f7680	-0.0012166053
145	0xbe0fc0af	-0.14038347
146	0x3cd3cebe	0.025855418
147	0xbdcd01ac	-0.100100845
148	0xbe79d1c5	-0.24396427
149	0xbc2fd51a	-0.01073196
150	0x3e2e324e	0.17011377
151	0x3cc5bdd0	0.024138361
152	0xbc4604d2	-0.01208611
153	0x3dd10ea4	0.102078706
154	0xbab17f80	-0.0013542026
155	0xbd2ea8a4	-0.042641297
156	0xbe1ab926	-0.15109691
157	0xbdc028ce	-0.09382783
158	0xbd655ba5	-0.055995602
159	0xbe210b04	-0.15726858
160	0x3e0ed85e	0.13949725
161	0x3e1d22df	0.15345334
162	0xbe4e10a4	-0.20123535
163	0xbd9349c3	-0.07191803
164	0x3d0edd19	0.034878824
165	0x3d4e2b97	0.05033454
166	0x3cd6ebfa	0.02623557
167	0xbe1e92e7	-0.15485726
168	0xbdf46144	-0.119326144
169	0x3da65c42	0.081230655
170	0xbddf6b0b	-0.10909089
171	0x3dd8ce74	0.10586253
172	0x3de12f9c	0.10995409
173	0xbd481285	-0.048845787
174	0x3cf2e219	0.029648827
175	0x3e4242c8	0.18970788
176	0x3d840a1c	0.06447241
177	0xbd951ef5	-0.07281295
178	0xbd61535d	-0.055011142
179	0x3e09c1ae	0.13452789
180	0xbe000bca	-0.12504497
181	0x3d692c28	0.056926876
182	0xba7faba0	-0.0009753052
183	0xbd1f5dbf	-0.038907763
184	0xbe16b257	-0.14716469
185	0xbe113e5b	-0.14183943
186	0xbddde19c	-0.10834047
187	0x3e084909	0.1330911
188	0xbdc4080f	-0.095718496
189	0x3def4ea1	0.11684919
190	0xbddbeeff	-0.10738944
191	0xbe5bd9df	-0.2146983
192	0x3d202255	0.03909524
193	0x3d6877bd	0.056754816
194	0x3d85412e	0.06506573
195	0xbdee4e25	-0.11635999
196	0xbddd1ca4	-0.107964784
197	0x3e501284	0.20319563
198	0xbd0a0f5e	-0.03370606
199	0x3d286d1c	0.04111968
200	0x3c00395c	0.007826176
201	0xbdae685f	-0.08516001
202	0x3e1d9c83	0.15391736
203	0x3d3dd3f9	0.04634473
204	0x3d487e4c	0.04894857
205	0x3e37383e	0.17892548
206	0xbd904331	-0.07044066
207	0x3d8e0f64	0.06936529
208	0xbd4598c6	-0.0482414
209	0x3cdff941	0.027340533
210	0x3e4d528c	0.2005102
211	0xbe10ad98	-0.14128721
212	0x3d8112a4	0.063023835
213	0x3be033bc	0.0068421047
214	0x3d3d7534	0.04625435
215	0xbeaf1b74	-0.34200633
216	0x3dee7c86	0.11644845
217	0xbd43f114	-0.047837332
218	0x3cfb02c4	0.030640967
219	0x3c6d9cc6	0.01450271
220	0x3e1338b4	0.143771
221	0xbd238ddb	-0.039930206
222	0xbdb025c6	-0.08600955
223	0xbd975042	-0.07388355
224	0xbd7c3b60	-0.061580062
225	0xbb4f57d8	-0.0031638052
226	0xbdc205ce	-0.094737634
227	0xbd26406b	-0.040588778
228	0x3ce383f4	0.027772881
229	0x3db5c10f	0.08874714
230	0x3e0923d8	0.1339258
231	0xbae4b040	-0.0017447546
232	0x3d00e3a1	0.031467084
233	0x3dda4342	0.1065736
234	0x3de2424a	0.110478
235	0xbb7732c0	-0.0037719458
236	0x380fbc00	3.4268945e-05
237	0xbd95ade6	-0.07308559
238	0x3d45eec4	0.048323408
239	0xbd8fd7c7	-0.07023578
240	0x3dbd2666	0.092358395
241	0xbc76c0b2	-0.015060591
242	0x3debb322	0.11508776
243	0xbc362788	-0.011117823
244	0xbd69cf06	-0.0570822
245	0x3d820e45	0.06350378
246	0xbdb3f457	-0.087868385
247	0xbd56f2c8	-0.052477628
248	0x3e0bb51a	0.13643304
249	0x3d061566	0.03273525
250	0x3d96cb8b	0.073630415
251	0x3e0924b6	0.1339291
252	0x3cb1be00	0.021697044
253	0x3b3ccd00	0.0028808713
254	0xbd896f97	-0.06710737
255	0x3db87c51	0.090080865

lstm.bias_ih_l0 f4 [256]
0	0x3de4347e	0.111428246
1	0x3c811099	0.015754985
2	0xbd54a593	-0.051915716
3	0xbde25180	-0.11050701
4	0xbd64a698	-0.05582294
5	0x3c626a25	0.013819252
6	0x3dc790b0	0.09744394
7	0x3d3a50a1	0.04548705
8	0x3cf13f40	0.029449105
9	0xbb00bfa4	-0.0019645477
10	0x3dffc33e	0.12488411
11	0xbdd19ecd	-0.10235367
12	0xbd1488b4	-0.036263183
13	0x3d949864	0.07255629
14	0xbc9fd085	-0.01950861
15	0x3d65c9fa	0.056100823
16	0x3d9bae8f	0.07601654
17	0xbda2abec	-0.07942948
18	0x3da6cc24	0.081444055
19	0xbd493ba1	-0.049129132
20	0x3de1c8a8	0.110246
21	0x3d055be7	0.032558348
22	0xbd6c1d6c	-0.057645246
23	0xbd8b4021	-0.06799341
24	0xbc0c0b7f	-0.008547663
25	0xbd87287a	-0.06599517
26	0x3d8d6cce	0.069055185
27	0xbb979f23	-0.004627125
28	0xbcdb3030	-0.026756376
29	0x3daf91e5	0.08572749
30	0x3d836625	0.06415967
31	0x3d4324cf	0.047642525
32	0x3dbea16d	0.09308133
33	0x3ca69e5d	0.020339185
34	0x3e062b2b	0.13102405
35	0xbbf9eb75	-0.0076269456
36	0xbce7ff3a	-0.028319944
37	0xbde24c4c	-0.11049709
38	0x3d8e169c	0.06937906
39	0x3d8769d0	0.06611979
40	0x3da0c302	0.07849695
41	0x3d8193aa	0.06326993
42	0xbd033b68	-0.032039076
43	0x3de12efe	0.10995291
44	0x3de5fad4	0.11229482
45	0xbbc71fdf	-0.0060767974
46	0xbd9eda8c	-0.07756528
47	0xbddf6f79	-0.109099336
48	0xbd453e7c	-0.048155293
49	0xbdf4f10d	-0.11960039
50	0x3db40b60	0.08791232
51	0x3d9250d1	0.07144321
52	0x3b2217d3	0.0024733439
53	0x3dc5313b	0.096285306
54	0x3db1b9fe	0.08678053
55	0xbd6568b7	-0.056008067
56	0x3da583ef	0.08081805
57	0x3d19e446	0.037571214
58	0x3d5610d3	0.05226214
59	0xbd245208	-0.040117294
60	0x3dff0ded	0.12453828
61	0xbc0e2404	-0.008675579
62	0x3cfa07f9	0.03052138
63	0x3d25ce8f	0.040480193
64	0x3c012593	0.007882494
65	0x3d07f228	0.033189923
66	0x3d2ee324	0.042697087
67	0x3d84b879	0.06480498
68	0x3d95fae5	0.07323245
69	0xbdbb1e26	-0.0913661
70	0x3dcad84a	0.09904535
71	0xbccd04d6	-0.02502672
72	0xbd84eae7	-0.064901166
73	0x3c33b390	0.010968104
74	0xbaf1939f	-0.0018430835
75	0xb99a1004	-0.00029385102
76	0x3d427fb4	0.04748507
77	0x3dc5894c	0.09645328
78	0x3bab5d7c	0.00522965
79	0xbb2c0066	-0.0026245355
80	0x3c01de1c	0.00792649
81	0x3cc1427d	0.023591274
82	0xbd90164a	-0.07035501
83	0x3c9e82fa	0.019349564
84	0x3b2abd27	0.0026052685
85	0x3d6e7cd4	0.058224514
86	0x3d1f2a9c	0.038858995
87	0xbd91aaf2	-0.07112683
88	0xbc305235	-0.010761787
89	0x3c8c176d	0.017101014
90	0x3dc23acf	0.09483873
91	0xbde03445	-0.109474696
92	0x3dcbd3a9	0.0995248
93	0xbd8d05a6	-0.06885843
94	0xbd019e42	-0.031645067
95	0xbc76b8df	-0.015058725
96	0x3d3a7ac0	0.04552722
97	0xbd884ae5	-0.0665491
98	0xbbfa84f2	-0.007645243
99	0x3db41b11	0.08794225
100	0xbd974fbd	-0.07388256
101	0xbcfeb8fe	-0.03109407
102	0xbda6910e	-0.08133136
103	0xbd44c3ae	-0.048038177
104	0xbdb28592	-0.08716883
105	0xbd37cdd7	-0.04487404
106	0x3d71da48	0.05904606
107	0xbdf96e98	-0.12179297
108	0x3cb32d4b	0.021872183
109	0x3dd20a46	0.10255866
110	0x3cb2ace2	0.021810953
111	0xbd2d130f	-0.042254504
112	0x3b044fe8	0.002018923
113	0xbcf4bfe6	-0.02987666
114	0xbdc1c6cf	-0.09461748
115	0xbce6c903	-0.028172022
116	0xbdc0ab29	-0.09407646
117	0x3de43fe0	0.11144996
118	0x3d7ef686	0.06224682
119	0x3cc01d63	0.023451513
120	0xbdaa117e	-0.083041176
121	0xbda140f6	-0.078737184
122	0xbc4c45b7	-0.012467793
123	0xbdc5a355	-0.09650294
124	0xbd851a84	-0.06499198
125	0xbd61d433	-0.05513401
126	0x3c030163	0.007995936
127	0xbdd0dc8f	-0.10198318
128	0xbb507917	-0.0031810456
129	0x3d113b6f	0.03545707
130	0xbbf4ec9f	-0.0074744965
131	0x3d9f2fad	0.07772765
132	0x3d671983	0.056420814
133	0x3dc24e41	0.09487582
134	0x3d22c1ea	0.039735712
135	0x3dd8beb3	0.10583248
136	0xbd76f94f	-0.060296353
137	0x3d243643	0.04009081
138	0xbdc284c6	-0.09497981
139	0x3d8a161d	0.06742499
140	0x3c9a527c	0.01883816
141	0x3da5089b	0.08058282
142	0x3de9289b	0.11384698
143	0xbd818e86	-0.06326012
144	0x3d4b5b13	0.049647402
145	0x3a18fe3e	0.0005836225
146	0x3dc18d34	0.094507605
147	0x3ca06dc3	0.019583588
148	0xbdde4e78	-0.108548105
149	0xbdd978d9	-0.10618753
150	0x3dd64299	0.10461921
151	0xbbe32275	-0.006931598
152	0xbd40d3e3	-0.04707707
153	0xbcb6010d	-0.022217298
154	0xbde1a07a	-0.110169366
155	0x3df25f43	0.11834576
156	0xbc9bd84a	-0.019024033
157	0xbd44bfcb	-0.04803447
158	0xbdda7acb	-0.10667952
159	0x3c823760	0.015895545
160	0x3c7acfd2	0.015308337
161	0xbd88d835	-0.06681863
162	0x3dd8b1d7	0.10580795
163	0xbdaaa8d3	-0.08332982
164	0x3c4a406a	0.012344459
165	0xbae053db	-0.0017114835
166	0xbd945655	-0.07243029
167	0x3da21e94	0.079159886
168	0x3cfb42fd	0.030671591
169	0x3ddc3bc6	0.107535884
170	0x3de61998	0.1123535
171	0x3c78b764	0.0151804425
172	0x3cb2a045	0.021804938
173	0xbc337e71	-0.010955439
174	0x3ba8048d	0.0051274956
175	0xbd2809fa	-0.04102514
176	0xbd8d84d0	-0.069100976
177	0x3dac2bbe	0.08406781
178	0x3dd63044	0.10458425
179	0x3db85bec	0.09001908
180	0xbcec8aa6	-0.028874706
181	0xbd067710	-0.03282839
182	0x3d1f0c5f	0.038830157
183	0x3c10d149	0.00883896
184	0xbbb36a55	-0.0054753223
185	0x3dd70255	0.10498492
186	0x3d384349	0.044986043
187	0xbd913acb	-0.07091292
188	0xbdd786f6	-0.10523789
189	0xbcc7aca5	-0.024374316
190	0x3c81a3a6	0.015825104
191	0x3d4a0a40	0.04932618
192	0x3d5b9dbd	0.053617228
193	0x3dcc9240	0.099888325
194	0xbd83fcf9	-0.06444735
195	0xbdbf3de8	-0.093379796
196	0xbdcc9e1d	-0.09991095
197	0xbcbf3aef	-0.023343531
198	0x3dcb3661	0.09922481
199	0xbdd2856a	-0.10279353
200	0x3ddd406a	0.10803302
201	0xbdd63606	-0.10459523
202	0xbda6e964	-0.081499845
203	0x3c519178	0.01279103
204	0xbd914ad0	-0.070943475
205	0xbcc4c6a8	-0.024020508
206	0xbcd86169	-0.026413636
207	0x3e0387d5	0.12844785
208	0x3d8727aa	0.06599362
209	0xbdd4e3fb	-0.10395046
210	0xbdb6545f	-0.08902811
211	0x3d9f4823	0.07777431
212	0x3d8cf989	0.068835326
213	0x3d90b5ab	0.070659004
214	0xbc4dbb47	-0.012556857
215	0x3dcbaaa9	0.0994466
216	0xbd559836	-0.052147113
217	0x3d08c40f	0.0333901
218	0xbd2c45f6	-0.042058907
219	0x3db71645	0.089397945
220	0xbce3304a	-0.027732987
221	0x3d501488	0.05080083
222	0x3d3e0be2	0.04639805
223	0x3d9b5e86	0.07586388
224	0xbde129ef	-0.10994326
225	0x3dbee8b6	0.0932173
226	0x3c7a13d5	0.015263517
227	0xbd9d650a	-0.07685287
228	0xbd2c2bf5	-0.04203411
229	0xbd89d5cf	-0.06730234
230	0xbd74a6c4	-0.059729353
231	0xbdf54b0a	-0.11977203
232	0xbd6ade56	-0.057340942
233	0x3ddd8617	0.10816591
234	0x3c5219a6	0.012823498
235	0xbd8c42c0	-0.06848669
236	0x3bc3af8d	0.005971855
237	0x3d2b31e1	0.041795615
238	0xbded8adb	-0.1159875
239	0x3c7db815	0.015485783
240	0xbe06911c	-0.13141292
241	0x3dd384ad	0.1032804
242	0x3dfad324	0.12247303
243	0xbbc7a865	-0.0060930722
244	0x3d0d8b43	0.03455664
245	0xbcdc1dba	-0.026869643
246	0xbdf51edd	-0.11968777
247	0x3d524ec0	0.051344633
248	0x3db5089b	0.08839532
249	0xbdb8413a	-0.08996816
250	0xbdc46dca	-0.09591253
251	0xbc945b57	-0.01810996
252	0x3d9bc9cc	0.07606849
253	0xbce6d8dd	-0.02817958
254	0x3da99fd9	0.08282442
255	0x3bc43d41	0.0059887473

lstm.bias_hh_l0 f4 [256]
0	0x3c96e820	0.018421233
1	0x3c69f58c	0.014279734
2	0xbcf52961	-0.029926958
3	0x3ce6f6d2	0.028193865
4	0x3dcf7e9f	0.10131573
5	0x3d98a552	0.07453407
6	0xbcfbf9db	-0.030758789
7	0xbda78b73	-0.08180895
8	0xbd9a8269	-0.07544405
9	0xbdee4218	-0.116337
10	0x3d5b1da4	0.053495064
11	0x3ca9a0a1	0.020706477
12	0x3dd9788d	0.10618696
13	0x3c6eea50	0.014582232
14	0x3cc5d34b	0.024148604
15	0xbc548260	-0.012970537
16	0xbdc42bd1	-0.0957867
17	0x3ddb40ea	0.10705741
18	0x3d551aa9	0.05202738
19	0xbc94ab03	-0.018147951
20	0xbd0dbdd8	-0.034604877
21	0x3dca7515	0.09885613
22	0xbd89728b	-0.067113005
23	0x3de4175f	0.1113727
24	0x3cd95578	0.026530012
25	0x3dbaafa8	0.09115535
26	0xbe07a923	-0.13248114
27	0x3cd10878	0.025516734
28	0x3b8751ba	0.0041296156
29	0xbd9b6c5d	-0.07589028
30	0x3d852a6f	0.06502234
31	0x3c0d8638	0.008637957
32	0xbd945343	-0.072424434
33	0x3e04e505	0.12977989
34	0xbd195af0	-0.03744024
35	0x3df69f55	0.12042109
36	0x3dbd8c64	0.09255293
37	0xbdeeefda	-0.11666842
38	0x3a5f311e	0.0008514094
39	0x3da42842	0.08015491
40	0x3d67eadb	0.05662046
41	0x3d7d7c33	0.061886024
42	0x3dbbaea3	0.09164169
43	0x3dcbb5c0	0.099467754
44	0x3dc717be	0.09721325
45	0x3dd6e632	0.10493125
46	0x3d97e4be	0.07416676
47	0xbdf4c597	-0.1195175
48	0x3bd7c5f7	0.0065848785
49	0xbd2753e0	-0.040851474
50	0xbda98816	-0.082779095
51	0xbd702249	-0.058626447
52	0xbde94c6e	-0.11391531
53	0x3d08695b	0.0333036
54	0x3d016181	0.031587128
55	0x3df5f739	0.120100446
56	0xbd9959bd	-0.07487819
57	0x3ca3e9f1	0.020009013
58	0x3dd04bdd	0.1017072
59	0xbdcd3f63	-0.10021856
60	0xbc696aca	-0.014246652
61	0xbda9ec98	-0.0829708
62	0x3d4c24b7	0.0498397
63	0xbc1399dc	-0.009008851
64	0x3df6a63f	0.12043428
65	0xbd899a7f	-0.06718921
66	0x3d9bb7bd	0.07603405
67	0xbc9168d4	-0.017750181
68	0xbd8e9c0b	-0.069633566
69	0xbc9bf391	-0.01903704
70	0x3dfb973c	0.12284705
71	0x3c94751a	0.018122245
72	0x3dbb6017	0.09149187
73	0xbdef94a8	-0.11698276
74	0x3dde2c4f	0.10848295
75	0x3cbf5548	0.023356095
76	0x3d5208a4	0.05127777
77	0x3cd1e4a6	0.025621723
78	0xbdabb504	-0.08384135
79	0x3c651b67	0.013983584
80	0xbda941df	-0.08264517
81	0xbd7859e7	-0.060632613
82	0x3dc3e756	0.09565608
83	0xbe0635a9	-0.13106407
84	0x3d3145ba	0.043279387
85	0xbca7729c	-0.020440392
86	0x3de3dcf8	0.11126131
87	0xbda5836a	-0.08081706
88	0x3da151ce	0.07876931
89	0x3c8fd8d4	0.017559446
90	0xbdbaf50d	-0.09128771
91	0xbc758c42	-0.014987053
92	0x3ca72576	0.020403605
93	0xbda12590	-0.078684926
94	0x3c90b434	0.017664053
95	0xbcadd6da	-0.021220613
96	0xbd9ac74a	-0.075575426
97	0x3d2b63a1	0.04184306
98	0xbd5b3dc8	-0.053525716
99	0xbd447c01	-0.04796982
100	0x3c9d18ba	0.01917683
101	0xbbde323f	-0.006780892
102	0xbc7e7513	-0.015530842
103	0x3df91f7e	0.1216421
104	0xbc98b2b5	-0.018639902
105	0xbd4eab9b	-0.050456624
106	0xbde3195c	-0.11088821
107	0x3dea7602	0.114482895
108	0x3d7a18a5	0.06105866
109	0x3dba5164	0.09097555
110	0xbd72cf48	-0.05927971
111	0xbd760ec7	-0.060072687
112	0x3d8e9032	0.06961097
113	0xbda072e9	-0.078344174
114	0x3d784c67	0.060619738
115	0x3d0cff5f	0.03442323
116	0x3d5416f0	0.051779687
117	0x3cfc7431	0.030817123
118	0xbde3d2ae	-0.11124168
119	0xbdb3e69d	-0.0878422
120	0x3db8f0c8	0.090303004
121	0xbc75eb07	-0.015009648
122	0x3ddbdf9f	0.10736012
123	0xba1ab7b6	-0.0005902009
124	0xbdb755b0	-0.089518905
125	0x3da53569	0.08066828
126	0x3c4d2812	0.012521761
127	0x3c06310c	0.008190405
128	0xbd8ba025	-0.068176545
129	0x3d8f21bc	0.06988856
130	0xbdd3ae77	-0.10336011
131	0x3d4136bd	0.047171343
132	0x3d09bb53	0.033625912
133	0xbd9a016d	-0.07519803
134	0xbdd348b4	-0.103166014
135	0x3d68a291	0.05679566
136	0xbddab71e	-0.10679458
137	0xbd40f2d9	-0.047106598
138	0x3d148902	0.036263473
139	0xbd5a1ff0	-0.053253114
140	0x3db162b6	0.08661406
141	0xbca0116f	-0.019539563
142	0x3d90948f	0.07059585
143	0xbd65e1ff	-0.05612373
144	0x3d236983	0.039895546
145	0x3db38179	0.08764929
146	0x3e018de6	0.12651786
147	0xbdd9c824	-0.10633877
148	0x3c9bfb8e	0.019040849
149	0x3db183c5	0.08667711
150	0xbd515f33	-0.05111618
151	0xbdd391f1	-0.103305705
152	0x3dbba9f9	0.09163279
153	0xbdfd8350	-0.123785615
154	0x3d0df023	0.03465284
155	0xbd804401	-0.06262971
156	0xbd5cad4d	-0.05387621
157	0x3d850534	0.06495133
158	0xbd8754c3	-0.06607964
159	0xbd410c77	-0.047131028
160	0xbd9c6631	-0.07636679
161	0xbd1f2e9f	-0.03886282
162	0x3d2f3b87	0.04278138
163	0x3d65be57	0.056089725
164	0x3d972e9d	0.07381938
165	0xbcc021de	-0.02345365
166	0xbbe680e9	-0.0070344103
167	0x3d01b913	0.03167064
168	0x3e052cfb	0.1300544
169	0xbdcd51b6	-0.10025351
170	0x3dca2a3c	0.09871337
171	0x3daf9faf	0.08575379
172	0xbd0c38ac	-0.034233734
173	0xbe015a8e	-0.126322
174	0xbd17be0a	-0.03704647
175	0xbda8e57e	-0.08246897
176	0xbdd95b08	-0.10613066
177	0xbd7ab0bb	-0.0612037
178	0x3d8e7da4	0.06957558
179	0x3bc9deed	0.006160608
180	0x3c46d1e6	0.012135005
181	0x3d08380a	0.033256568
182	0x3d32b8bf	0.04363322
183	0xbdaad638	-0.0834164
184	0xbd9959ea	-0.07487853
185	0x3dd8817b	0.105715714
186	0x39bc7198	0.00035942788
187	0x3d00bfb7	0.031432834
188	0x3d647f68	0.055785567
189	0x3d481767	0.048850443
190	0x3d50ee3c	0.051008448
191	0x3d56ae2c	0.052412197
192	0xbcb15a62	-0.021649543
193	0xbccb9e0e	-0.02485564
194	0xbd7dfa0e	-0.06200605
195	0xbd4d193a	-0.050072886
196	0x3e01efed	0.1268918
197	0xbcc7e108	-0.024399295
198	0xbd6cc16c	-0.05780165
199	0xbd00d0a6	-0.031448983
200	0xbd6fecb7	-0.05857536
201	0x3d51c043	0.051208746
202	0x3d947b79	0.07250113
203	0xbdecd678	-0.11564344
204	0x3ba0a49f	0.004902437
205	0x3ddce10f	0.10785114
206	0x3dd7d8dc	0.105394095
207	0x3cabf08f	0.02098873
208	0xbc548c46	-0.012972897
209	0xbdba8acf	-0.09108507
210	0xbc1ebd03	-0.009688619
211	0x3d38c1ff	0.045106884
212	0xbb768002	-0.003761292
213	0xbd3860d3	-0.045014214
214	0xbce5a28b	-0.028031608
215	0x3d8d29a5	0.06892709
216	0x3d7a8383	0.061160576
217	0x3d40560d	0.046957064
218	0xbddcd817	-0.10783403
219	0xbdd159fb	-0.102222405
220	0xbdac81e4	-0.08423212
221	0xbdefde20	-0.11712289
222	0xbd93d61e	-0.07218574
223	0x3dd763ba	0.10517068
224	0x3d39ff0d	0.04540925
225	0x3dda012e	0.10644756
226	0x3d9ba28f	0.07599365
227	0x3d170f3b	0.03687976
228	0xbd86bed0	-0.06579363
229	0xbe00dd62	-0.12584451
230	0x3e018cb7	0.12651335
231	0x3d07a77b	0.033118706
232	0xbd58494d	-0.05280428
233	0x3dc46ed9	0.09591455
234	0xbdf503a5	-0.11963586
235	0x3d08941e	0.03334438
236	0x3d5110d1	0.051041428
237	0x3ddb61c9	0.107120104
238	0xbdc24acf	-0.09486925
239	0xbd59a546	-0.053136133
240	0x3c467708	0.01211334
241	0x3d575adf	0.052576896
242	0x3d79b719	0.06096563
243	0x3b8fe6e1	0.0043915366
244	0x3dbc98f8	0.09208864
245	0x3b486aa4	0.003058114
246	0xbcc78b5d	-0.024358446
247	0xbd50652a	-0.050877728
248	0xbddb5edb	-0.107114516
249	0x3d6d9299	0.058001135
250	0x3d9014f6	0.07035248
251	0x3d8c1359	0.06839628
252	0xbd4220ce	-0.047394566
253	0x3c8a952a	0.01691683
254	0xbdf36f0d	-0.11886416
255	0x3d89c819	0.06727619

actor.weight f4 [5, 64]
0	0xbe274ae0	-0.16337156
1	0xbd514fee	-0.051101618
2	0x3c2082ca	0.009796808
3	0xbd4934ce	-0.049122624
4	0x3e062387	0.1309949
5	0xbde48d40	-0.11159754
6	0x3debdfa2	0.11517264
7	0x3dc63f04	0.09679988
8	0x3d070876	0.032967053
9	0xbc9515d0	-0.018198878
10	0x3c8217a9	0.015880423
11	0x3ca01211	0.019539865
12	0x3da2e67d	0.079541184
13	0xbe10695b	-0.1410269
14	0xbd357773	-0.04430337
15	0xbd32974b	-0.043601315
16	0xbd27ac5c	-0.04093586
17	0x3e562855	0.20913823
18	0xbd8f3a9c	-0.06993601
19	0x3e2b3efd	0.16723247
20	0xbd35a96d	-0.04435103
21	0x3e37a898	0.17935407
22	0xbe32feef	-0.17480062
23	0x3e355a75	0.17710288
24	0x3c4f54b8	0.012654476
25	0x3e03727b	0.1283664
26	0x3cdc5297	0.02689485
27	0x3dc4b93e	0.09605645
28	0x3d72349e	0.05913221
29	0xbde84736	-0.113417074
30	0x3d2f760d	0.04283719
31	0x3dc92963	0.09822347
32	0x3de13763	0.10996892
33	0xbd91a25b	-0.07111045
34	0xbdc9a555	-0.09845988
35	0xbdc42e0d	-0.09579096
36	0xbdf52309	-0.11969573
37	0x3da7b04b	0.08187922
38	0xbc59cece	-0.013293935
39	0xbd7319b6	-0.05935069
40	0xbd3414a9	-0.043965016
41	0x3d8f40f4	0.06994811
42	0xbdf60a0e	-0.120136365
43	0x3dbf20c2	0.0933242
44	0x3db7c15c	0.08972427
45	0x3dc38d5c	0.095484465
46	0x3d8c2834	0.06843606
47	0x3dc81735	0.097700514
48	0x3d6ab98c	0.057305858
49	0xbe442577	-0.19154917
50	0xbdc16a81	-0.09444142
51	0xbcd8391c	-0.02639442
52	0xbd2aca74	-0.04169698
53	0x3d6f9e14	0.058500364
54	0x3ded90ac	0.115998596
55	0xbd082bb8	-0.03324482
56	0xbda4c3cc	-0.08045158
57	0x3c871e94	0.016494073
58	0x3d2b2934	0.04178734
59	0x3dc4caca	0.096089914
60	0x3d2288a9	0.03968111
61	0x3cc0fb13	0.023557222
62	0x3ac6eb20	0.0015176274
63	0xbd5514b8	-0.052021712
64	0xbdb05771	-0.08610428
65	0xbd44f1c8	-0.048082143
66	0x3d2f7c44	0.04284312
67	0x3d8b493c	0.06801078
68	0x3df29208	0.118442595
69	0x3d39f6cb	0.045401376
70	0xbe09db30	-0.1346252
71	0xbdd4134f	-0.10355245
72	0x3de19094	0.11013904
73	0xbdb44e03	-0.08803942
74	0x3dfa59dc	0.122241706
75	0xbc02f037	-0.007991842
76	0x3de3c925	0.1112235
77	0xbca68c91	-0.0203307
78	0x3bc1bbbc	0.0059122723
79	0x3e15bef1	0.1462362
80	0xbcd07dc0	-0.025450587
81	0x3b238e00	0.0024956465
82	0x3d9a0356	0.075201675
83	0xbd8ebcb5	-0.06969587
84	0x3e56521c	0.2092976
85	0xbd0e92bc	-0.034807906
86	0xbd4883de	-0.048953883
87	0x3e0b47bc	0.13601583
88	0xbbbe717a	-0.0058118673
89	0x3cc5748e	0.02410343
90	0x3adf80b7	0.001705191
91	0xbd0d600e	-0.034515433
92	0xbd52b3ce	-0.051441006
93	0x3d1ce2eb	0.038302343
94	0x3dffb209	0.124851294
95	0x3d60486e	0.054756574
96	0x3e07aa76	0.1324862
97	0x3d8e3153	0.069430016
98	0xbe5b03a4	-0.21388108
99	0xbd6fc418	-0.05853662
100	0xbb702568	-0.003664339
101	0xbc84e114	-0.016220607
102	0x3d29de98	0.041472048
103	0xbd68d93e	-0.056847803
104	0x3d692fcd	0.056930352
105	0x3db6e5a3	0.089305185
106	0x3cac1936	0.021008115
107	0x3cf5d720	0.030009806
108	0xbe2478c4	-0.16061693
109	0xbd829df8	-0.063777864
110	0xbe41ebbf	-0.18937586
111	0x3dccc484	0.0999842
112	0x3dce74da	0.100808814
113	0x3b9e6b46	0.0048345653
114	0xbd851358	-0.0649783
115	0xbe0cde5c	-0.13756698
116	0x3d945b68	0.07243997
117	0x3dc7a6ea	0.09748633
118	0xbe1edf44	-0.15514857
119	0xbc5638d4	-0.013075072
120	0x3bc86fe4	0.006116854
121	0x3dbc1722	0.091841
122	0x3d9312f5	0.0718135
123	0x3ce6f77c	0.028194182
124	0xbd99a02c	-0.075012535
125	0x3d254c59	0.040356014
126	0x3df63dd0	0.120235085
127	0xbc71775f	-0.014737933
128	0x3e3b6b17	0.1830257
129	0x3d2f8407	0.04285052
130	0x3d1b114f	0.037858304
131	0xbd5eb3ea	-0.0543708
132	0xbe45202c	-0.19250554
133	0xbdbc8c61	-0.09206463
134	0xbcae2cfa	-0.02126168
135	0xbe4bb41c	-0.19892925
136	0x3d65ede3	0.05613507
137	0xbbbf9330	-0.0058464035
138	0xbc20a6cd	-0.009805393
139	0xbe3a9fc2	-0.18225005
140	0x3d441a9d	0.047876943
141	0xbd8c1102	-0.068391815
142	0xbd771f20	-0.060332417
143	0x3cc135d5	0.02358524
144	0xbd74b1a4	-0.059739724
145	0xbdec5649	-0.11539895
146	0x3df9474c	0.12171802
147	0xbd069c76	-0.032864057
148	0xbd8e60c8	-0.06952053
149	0xbb14db10	-0.002271358
150	0xbd509be0	-0.050929904
151	0xbdca361c	-0.09873602
152	0x3c621dfa	0.013801092
153	0xbd330d1c	-0.043713674
154	0xbe0bd5c0	-0.13655758
155	0xbe0e5b11	-0.13901927
156	0xbc9683f4	-0.018373467
157	0xbe02f3b4	-0.12788278
158	0x3dc1f0f1	0.09469784
159	0x3e8435f0	0.258224
160	0xbd3525a8	-0.044225365
161	0xbd05c9d3	-0.032663178
162	0x3cf5d3ce	0.030008223
163	0xbc37cdfa	-0.011218542
164	0xbdb5eccf	-0.08883058
165	0xbd9abfb5	-0.075560965
166	0x3cb73f5a	0.022369076
167	0x3d9d3e50	0.07677901
168	0x3cf545a0	0.029940426
169	0xbd8aa833	-0.06770363
170	0x3e66abbe	0.22526452
171	0xbd11b3d5	-0.03557189
172	0xbdf1e682	-0.11811544
173	0x3dabbea9	0.08385975
174	0x3c1be2a8	0.009514488
175	0x3e142815	0.14468415
176	0x3e1b42e7	0.1516224
177	0xbdbe31e7	-0.09286862
178	0xbe4a2417	-0.1974033
179	0xbc3be644	-0.011468474
180	0xbca477d8	-0.020076677
181	0x3e0887bd	0.1333303
182	0xbd95c8ed	-0.07313714
183	0xbdfdaa47	-0.123859935
184	0x3e09a1fe	0.13440701
185	0xbd640b19	-0.055674646
186	0x3c796b88	0.015223391
187	0xbc8007b5	-0.015628675
188	0xbd3f47d6	-0.046699367
189	0xbd7342ad	-0.05938976
190	0xbc51e490	-0.012810841
191	0xbce90bec	-0.028448068
192	0xbd8add84	-0.06780532
193	0xbdebda27	-0.11516219
194	0x3d924eea	0.07143958
195	0xbcebfdfa	-0.028807629
196	0x3dc1a4c9	0.094552584
197	0x3e008b05	0.12553032
198	0x3e071ccf	0.13194583
199	0xbdb2262b	-0.08698686
200	0x3d73f674	0.059561208
201	0xbda3b882	-0.079941764
202	0xbd9fe779	-0.07807822
203	0xbe6582a2	-0.22413114
204	0xbceea225	-0.02913005
205	0x3dde8023	0.10864284
206	0x3dcefa7e	0.10106371
207	0x3d4906fa	0.04907892
208	0xbccdb680	-0.025111437
209	0xbc57b710	-0.013166204
210	0x3d5b2aa3	0.05350746
211	0xbdbbf035	-0.09176675
212	0x3e29f0bb	0.16595738
213	0x3d101e26	0.035185
214	0x3d39424c	0.04522924
215	0xbdb449c0	-0.08803129
216	0x3ca94d50	0.020666748
217	0xbd8b952f	-0.06815564
218	0x3e50057b	0.2031459
219	0xbe21d3fb	-0.1580352
220	0x3df2cd25	0.118555345
221	0xbe4280fc	-0.18994516
222	0xbd8b75cc	-0.06809577
223	0xbd796eb5	-0.060896594
224	0x3dd1e0fb	0.1024799
225	0x3d04dd50	0.032437623
226	0x3e10a486	0.1412526
227	0x3e065f84	0.13122374
228	0xbd933d68	-0.07189447
229	0x3dde4fec	0.10855088
230	0x3c33ad62	0.010966631
231	0x3d8bb761	0.06822086
232	0xbd38744c	-0.045032784
233	0xbd848038	-0.06469768
234	0x3c93736c	0.017999373
235	0x3e578770	0.21047759
236	0xbd891441	-0.06693316
237	0x3cdc210f	0.026871232
238	0xbc986592	-0.01860312
239	0x3d256c54	0.040386513
240	0x3d66e79c	0.056373224
241	0xbdf588cd	-0.11988983
242	0xbdf338d0	-0.118760705
243	0xbe6e8db8	-0.23296249
244	0x3d1fce76	0.039015256
245	0xbacac550	-0.0015470181
246	0x3cfd7e93	0.030944144
247	0x3dd5766c	0.10422978
248	0xbe236e7e	-0.15960118
249	0x3e1bfe9b	0.15233843
250	0x3c441cd8	0.0119697675
251	0xbe333de0	-0.17504072
252	0xbe136244	-0.14392954
253	0xba76af50	-0.0009410279
254	0xbd840bc4	-0.064475566
255	0x3d7416c6	0.05959203

actor.bias f4 [5]
0	0xbdeb31e6	-0.11484127
1	0xbc333983	-0.010939005
2	0xbc8ad5dd	-0.016947681
3	0x3dff5069	0.12466509
4	0xbc6fd287	-0.014637596
