checkpoints/agent_0_best.pt (torch, 179545 bytes, 11 tensors)

encoder.0.weight f4 [16, 5, 3, 3]
000000 6b 56 85 3d 84 c0 3f bb 69 a6 f4 bc ba 92 32 bd
       0.065106235 -0.0029259035 -0.029864507 -0.04359696
000010 b3 97 fa bd 28 db 26 bc 40 87 6c be ff 37 45 bd
       -0.122359656 -0.010184087 -0.23098469 -0.048149105
000020 d2 2d d8 3b f1 20 e1 3c dc 4a b4 bc 77 1a f1 bd
       0.006597259 0.027481528 -0.022008352 -0.11772626
000030 a1 24 cc 3d 7b 65 2c 3e 09 31 27 3d a7 0b d5 bd
       0.09967924 0.16835587 0.040818248 -0.10402613
000040 51 49 b6 3c d2 2b 06 be c0 9d ed 3d e4 e4 58 bb
       0.022251757 -0.13102654 0.11602354 -0.0033095414
000050 49 ee 19 3e 8a 3e 8b 3d 6f af 49 be 52 98 02 be
       0.15032305 0.06799038 -0.19695829 -0.12753418
000060 3c ac 4c be db 06 22 3d 4a 9d 0f bc 09 fd 13 be
       -0.19987577 0.03955732 -0.008765528 -0.14451994
000070 16 9f fd bc 6c 49 60 bd 58 c7 19 3e 33 77 28 bc
       -0.030959647 -0.05475752 0.1501745 -0.010282326
000080 1a e6 ee 3d f5 e6 24 bc 80 20 18 be 86 60 1c be
       0.11664982 -0.01006483 -0.14856148 -0.15271196
000090 44 f3 a1 3c 7e 77 f0 3d 36 4e 8c bc d9 1e d2 bc
       0.019769318 0.11741541 -0.017127138 -0.025649475
0000a0 32 d5 79 bd fa bd d9 bc 40 cf c7 bc 89 81 d8 3d
       -0.060994335 -0.026579846 -0.024390817 0.10571582
0000b0 6b 1e 02 3d 99 00 47 3d db 30 8b 3c 59 19 a3 3d
       0.03176729 0.048584554 0.01699107 0.07963819
0000c0 ea ba 50 3d 2c cf 93 bc 4f ae 35 be d8 4e a0 3e
       0.050959505 -0.018043123 -0.17742275 0.31310153
0000d0 0a 87 d1 3d 4d 8f 3b be 8d 7d a6 bc 50 7b 7a 3e
       0.10230835 -0.18316384 -0.02032354 0.24461102
0000e0 5f d8 15 3e b3 d5 98 3d fb fb 0d be 80 e1 b1 bd
       0.1463332 0.07462635 -0.13865654 -0.08685589
0000f0 ef d3 b1 3c ae bf d2 3c a7 29 44 3d 1d d2 76 3c
       0.021707503 0.025726166 0.047891285 0.015064743
000100 83 4a 17 be ac 9a c7 bc 30 53 de 3c b3 b6 65 3d
       -0.14774518 -0.024365745 0.027139276 0.05608244
000110 af 52 4a 3c 6f 88 04 3e ff 8b 1a bd 2d 63 96 bd
       0.012348815 0.1294267 -0.037731167 -0.07343135
000120 09 2b 21 bc c3 0d 3b bd fd 92 33 3d a1 8e 0f 3e
       -0.009836921 -0.04566742 0.04384135 0.14019252
000130 45 f4 3b 3e e6 da dc bd 3d 1b c0 3d 0d 59 02 3e
       0.183549 -0.10783939 0.09380195 0.12729283
000140 61 29 d4 bd a7 4a be bc e7 e6 e4 ba cd ed e2 3d
       -0.10359455 -0.023228956 -0.0017463834 0.11080513
000150 1d 16 d9 3d 42 36 e1 bc b6 ad 97 3b 71 4d 97 bd
       0.10599921 -0.027491692 0.0046288623 -0.07387818
000160 15 7c aa bd 0e 1c ba bd 8d b9 a0 bd 13 9c 63 3d
       -0.08324448 -0.09087382 -0.07847891 0.055568766
000170 2a 8c 5a bd c7 bf 6d bd 79 d1 09 be 42 47 20 3d
       -0.053356327 -0.05804422 -0.13458814 0.039130457
000180 a8 fb a2 bd 48 dc 37 be 95 e2 04 be 53 3b 70 bd
       -0.07958156 -0.17955124 -0.12977059 -0.058650326
000190 14 f5 cb bd 1f 5b d4 bc 67 14 69 bc 34 13 97 3e
       -0.09958854 -0.025922356 -0.014226056 0.29506838
0001a0 81 97 0f be 58 22 d3 bd be 55 e5 3b b0 04 af bd
       -0.14022638 -0.10309285 0.0069987467 -0.08545816
0001b0 e6 76 04 be 2b c8 0d 3d 96 b9 12 be 96 d1 e0 bc
       -0.12935981 0.034614723 -0.14328608 -0.027443688
0001c0 ab b5 fb bd ac 3b fd 3b 40 71 20 3e 2c 1f 06 be
       -0.1229051 0.0077280607 0.15668201 -0.13097829
0001d0 af d1 42 be f0 84 23 3b 38 59 a5 3d fc a9 0f be
       -0.190253 0.0024951063 0.08073658 -0.14029688
0001e0 30 7d 34 be 80 9c 2a 3d 2c 79 7b bd 15 20 26 3e
       -0.1762588 0.041653156 -0.061394855 0.16223176
0001f0 7f ef 8e bc 32 5f 3e bd 5b 89 16 bd e5 7a 52 bd
       -0.017448185 -0.046477504 -0.036752086 -0.051386733
000200 ce d9 19 bd e5 98 02 3c 7f 2e ba 3d fa 2a b2 3b
       -0.03756123 0.007971023 0.090909 0.005437252
000210 02 e4 33 be b3 4e 00 be b2 3f 30 3d 9f 5d 3c 3d
       -0.17567447 -0.12530021 0.043029495 0.04598772
000220 3f 79 f5 bd e0 b9 c3 bd 00 84 c8 bd 0f 9e 07 3d
       -0.119860165 -0.09556937 -0.09790802 0.03310972
000230 91 0a 47 3d 0a 03 58 3d bb 8f 02 be 47 8c 27 be
       0.04859406 0.052737273 -0.12750141 -0.16362105
000240 c9 5a 0e be a7 4f 50 bc e6 ca fa 3c 96 1a a9 bd
       -0.1390182 -0.012714303 0.030614328 -0.08257024
000250 6b 20 b3 bb 8b fa 0d be b5 bf 0b be f7 92 06 3e
       -0.005466511 -0.13865106 -0.13647349 0.13142
000260 2e 6a f3 3d bf 66 b0 bd d9 fd e7 3d 31 31 76 bd
       0.118854865 -0.08613347 0.113277145 -0.060105506
000270 e7 b1 ed 3d 22 41 1c 3e cc d4 a1 bc 62 b5 56 bd
       0.11606198 0.15259221 -0.01975479 -0.052419074
000280 e9 f2 e1 bd 00 71 20 bd 06 10 b8 bd 17 43 d3 3d
       -0.110326596 -0.039170265 -0.08987431 0.10315531
000290 bc 02 96 be 45 ee 9a bd 76 aa b0 bc 9b 2a 92 3d
       -0.2929896 -0.075649776 -0.021565657 0.071370326
0002a0 11 13 fc bc a7 b0 8d 3d 5a eb 4a 3e 80 76 83 bd
       -0.03077081 0.069184594 0.19816342 -0.064190865
0002b0 37 fe 9f 3d c9 f1 1f 3d 58 ef 16 bc b2 f6 29 be
       0.078121595 0.039048944 -0.009212337 -0.16598013
0002c0 f7 ab 13 be e0 e7 9c 3d 05 52 22 bd f6 c4 80 bc
       -0.14421068 0.07661414 -0.039629 -0.015718918
0002d0 9a 5f 05 3d b1 4a 38 be b0 ad c5 bd 11 eb 0b 3e
       0.032561876 -0.17997243 -0.09652269 0.1366389
0002e0 5a 7f 40 bd a0 4c ca bc 23 2d 51 3e 8c d4 ef bd
       -0.046996452 -0.02469474 0.20427375 -0.11710462
0002f0 4a 91 32 bd 89 fb 8a bc 51 88 41 be e4 59 81 bd
       -0.04359559 -0.016965644 -0.18899657 -0.063159734
000300 07 c0 89 3d 53 c4 4a 3e 8b 57 20 be 07 21 b6 bd
       0.067260794 0.19801454 -0.15658395 -0.08893018
000310 3e 3a 14 3d 42 5c 7b bc a0 40 d2 3d e8 a4 35 3e
       0.036188357 -0.01534182 0.102662325 0.17738688
000320 22 11 2c 3d 72 0b aa bd 7c ef 49 bc 5c 27 e1 bb
       0.042008527 -0.08302964 -0.012325164 -0.006871147
000330 cc 83 40 bd 36 c2 3c 3d ae 6f 13 be 3a 32 7a 3d
       -0.04700069 0.04608365 -0.14398071 0.061083056
000340 41 ff 41 3d 2b cc 1f bc db 48 68 bc ea 22 b5 bd
       0.04736257 -0.009753267 -0.014177526 -0.0884455
000350 f2 ce fe 3d c7 1b 82 bd ef 60 87 3d a6 c4 1f 3d
       0.124418154 -0.06352954 0.066102855 0.039005898
000360 6e 8d 85 3c c4 4e e7 3c b5 ee 83 bd 36 eb 21 3e
       0.01630279 0.0282358 -0.06442014 0.15812382
000370 9a 07 b7 bd 07 25 9f 3d 3e 06 c0 3d 4e e3 32 bd
       -0.08936997 0.07770734 0.093761906 -0.043673806
000380 8d 6e 78 3d 13 fd e4 bd 57 0a 95 bd 6e 7c 2c bc
       0.060652304 -0.111810826 -0.07277363 -0.010527713
000390 c6 9e 06 3e af b9 7b bd 82 d7 8a 3d c7 dc f6 3d
       0.13146505 -0.06145638 0.06779386 0.12053829
0003a0 95 5c 2b 3e 28 79 20 3d 67 d6 b7 bd 14 37 ad 3c
       0.16734536 0.039178044 -0.08976441 0.021144427
0003b0 18 bd 5d 3d 6a 10 1f 3e 39 e3 26 3d b4 4d ed bd
       0.054135412 0.15533605 0.04074404 -0.11587086
0003c0 0b 99 2f 3d 74 23 90 3d 24 13 53 3e ed 43 f9 3d
       0.042870563 0.07038012 0.2061277 0.12171159
0003d0 58 62 01 3d 97 bd 9a bd 1f a8 06 be 78 bc 95 ba
       0.03158793 -0.07555693 -0.1315007 -0.0011423966
0003e0 e2 aa 4d bd eb 6d dc 3b 2e c8 be bd 2b 4a be bb
       -0.050211795 0.0067269704 -0.09315525 -0.0058071814
0003f0 dc 4e c2 bd f7 43 eb bd cc 75 0d bc 32 e5 5f 3d
       -0.094876975 -0.11487573 -0.008634042 0.054661937

encoder.0.bias f4 [16]
000000 1f 7f f1 3b 67 95 0a bc 3c 5d 8e 3c df 7e 13 bd
       0.0073698903 -0.008458472 0.017378442 -0.036009666
000010 6e 29 9e 3c d5 21 e5 3d 8c a3 68 bd ab 06 64 bd
       0.019306865 0.111880936 -0.056796595 -0.05567042
000020 e7 da a7 3d 99 81 8f bc b5 79 92 bd e0 81 a4 bc
       0.08196049 -0.017517852 -0.0715212 -0.02008146
000030 6d 3e d4 3d 7b fd 1f 3e c3 22 9f bc 20 cb f8 3d
       0.10363469 0.15624039 -0.019425755 0.12148118

encoder.3.weight f4 [64, 144]
000000 89 4e 61 3d ae 88 31 3d 61 77 17 bd 2a c8 1a bc
       0.055006538 0.04334324 -0.036979083 -0.009447137
000010 b2 cc 14 3c 44 ff 4b bc cf 96 8b bc f1 63 a7 3d
       0.009082006 -0.012450997 -0.017039685 0.08173359
000020 30 9d 87 3d 11 17 02 be 9d 9c eb bc af 1e b6 bc
       0.06621778 -0.12704112 -0.028761202 -0.022231428
000030 43 b3 93 3d 89 9c 74 bd 24 58 47 bd 2c 66 06 3e
       0.07211926 -0.059719596 -0.04866804 0.13124913
000040 74 ff 65 3d 17 e3 40 bc ab 47 e6 3d 91 28 03 3d
       0.056151822 -0.011772892 0.11244138 0.03202111
000050 2b 38 93 3d 8e fa d1 bc 50 8a c9 3d ab 29 e6 3b
       0.071884476 -0.02563217 0.09840834 0.00702401
000060 7c 85 87 3d 8a 77 c9 bd c5 2a 8a bd 15 f0 b2 bd
       0.06617257 -0.098372534 -0.06746439 -0.08737198
000070 6c cb 34 3d cb 6e e1 bd b3 5d d9 3d 36 4d a5 3d
       0.04413931 -0.1100746 0.10613575 0.080713674
000080 e9 24 23 bd 9b b1 33 be 93 b4 9d 3d 98 d5 93 3d
       -0.039830122 -0.1754822 0.077004574 0.07218474
000090 5b 12 94 bd e9 99 71 3d c4 e6 07 3e 50 a7 01 3e
       -0.072300635 0.05898467 0.13271624 0.12661481
0000a0 f1 67 f1 3c f7 f5 0e 3e 88 7a 05 bd ec 1c a5 3d
       0.029468508 0.13961016 -0.032587558 0.08062157
0000b0 9c b6 82 3d 6e 54 22 b9 3a ca 14 3e e6 2c 21 3d
       0.06382486 -0.00015480976 0.14530268 0.03934946
0000c0 4e 3a 47 3d ba fe be bc 43 20 1a be a6 3a 9f 3c
       0.048639588 -0.023314822 -0.1505137 0.019437145
0000d0 6c 9b 3f 3d 0e 94 87 bd 6f 9b 82 bc 7f 21 13 3c
       0.04677908 -0.06620036 -0.015943257 0.008980154
0000e0 9a 24 46 3e 49 63 e1 3c ad 79 1d 3d 0f 3e 13 be
       0.193499 0.027513163 0.038446117 -0.14379142
0000f0 fb ce 3b be 0f cf 1e 3d f4 52 32 3d f5 7d 95 bd
       -0.18340676 0.038771685 0.04353614 -0.07299415
000100 38 87 06 3d 8c d0 0b 3e 33 b6 f9 3c 04 e3 8c 3d
       0.0328438 0.13653773 0.030482387 0.06879237
000110 71 0a 80 3d e0 83 83 bb 95 c9 e0 bd 99 ae 67 3c
       0.062519915 -0.0040135235 -0.10975949 0.014140748
000120 fb db 41 bb 15 72 bc 3d 0d 9c 19 be d8 40 12 be
       -0.0029580581 0.09201447 -0.15000935 -0.14282548
000130 39 14 93 bd 20 e9 0d bc 95 8d 8f 3d bb 93 07 bb
       -0.071815915 -0.008661538 0.070094265 -0.002068742
000140 93 6a 20 3d b2 bc e7 bd ef 03 9a ba 20 ab c4 bd
       0.039164137 -0.11315288 -0.001175044 -0.09602952
000150 98 6e 67 bd 56 09 fb 3b 90 89 62 3e d9 8e 22 bd
       -0.056501955 0.007661025 0.22122788 -0.03968701
000160 4d c4 ec 3d fd 86 00 be 49 85 bf bd 0f f7 93 bd
       0.11560879 -0.12551494 -0.09351594 -0.07224857
000170 a4 c5 0b 3e ec 04 1a 3d 01 0d d9 3b 8e d0 59 bd
       0.13649613 0.03760235 0.0066238646 -0.05317741
000180 21 a3 9f bd 35 60 56 bd 43 8b 0f 3d 64 cd 7f 3d
       -0.07794786 -0.052337844 0.03504492 0.062451735
000190 00 57 47 3d e1 3c 16 bd 9d 50 02 bd 7a 6c 06 3d
       0.048666954 -0.036679152 -0.03181516 0.032818295
0001a0 bc d2 1e 3e 26 78 dc bd 46 e2 af bd 06 d1 86 3e
       0.15510076 -0.10765104 -0.0858808 0.26331347
0001b0 bb f0 86 bd 15 f8 80 ba a4 85 46 3c 9b 6b 97 3d
       -0.065888844 -0.0009839559 0.012116823 0.07393571
0001c0 7c 5e 6c bd 1e f7 39 be 5c a7 84 3d 92 4f 12 3e
       -0.057707295 -0.18160674 0.06477234 0.14288166
0001d0 de 21 01 3e 98 90 90 3d aa 7a 87 3c 95 ff 29 3d
       0.12610576 0.07058829 0.016537983 0.041503508
0001e0 61 3b ed 3b e5 73 96 3c 9f d9 e7 3d 11 5b 28 3a
       0.0072397445 0.01836581 0.11320805 0.00064222614
0001f0 c2 f9 ba 3d 39 38 70 bc ca 06 6a bd 11 56 93 bc
       0.09129669 -0.014661842 -0.05713538 -0.017985376
000200 86 50 ce bb 78 fd 14 3e da c2 1d bd 65 d2 51 bd
       -0.0062962202 0.14549816 -0.038515903 -0.05122604
000210 38 a3 42 3a 4a f2 64 bd 10 02 88 3c 46 34 0b be
       0.0007424834 -0.055895127 0.016602546 -0.1359416
000220 86 35 62 bb 4d 84 53 3b 31 d5 e6 3d 53 c5 c7 3c
       -0.0034516766 0.0032274902 0.11271132 0.024386084
000230 aa 1e 39 3b bb 50 a9 3d 5b 22 a8 bc 73 c2 14 3e
       0.0028247037 0.08267351 -0.020524194 0.14527301
000240 53 01 c2 3d 5b 67 9a 3d 36 4f 38 be 41 d9 c0 bc
       0.09472909 0.07539245 -0.17998967 -0.023541095
000250 23 26 55 bc 39 a5 21 bd 70 4a a4 bd 03 b3 8a 3d
       -0.013009581 -0.03946421 -0.0802201 0.06772425
000260 47 17 e1 bd 26 dd a9 bc 6d 4a cc bd 11 4e 48 3b
       -0.10990768 -0.020735335 -0.09975133 0.003056411
000270 da 45 83 bd c9 8c 97 ba 45 fd 88 bd a9 34 d0 3d
       -0.064098075 -0.0011562343 -0.06688932 0.10166294
000280 5d b4 83 3d 74 30 ec 3d 36 dc a7 3d fd ea d7 bc
       0.06430886 0.11532679 0.08196299 -0.026357168
000290 87 b6 07 be 2a 61 f9 3d 45 f0 73 bd 32 24 64 3d
       -0.13253222 0.12176736 -0.05955531 0.05569858
0002a0 82 c0 d3 bd f4 6a 0f bc ad 5b 97 3d 14 25 16 3e
       -0.10339452 -0.008753527 0.07390533 0.14662582
0002b0 2b dd 09 be 78 b1 b4 3d fd fb df 3c fb ac 85 bd
       -0.13463275 0.08822912 0.027341837 -0.06527134
0002c0 6c 5c 4d bd 7f 33 c3 3b 0d 31 04 be d4 07 21 3d
       -0.05013697 0.0059570665 -0.12909336 0.039314106
0002d0 c6 d2 3c bd 03 36 e2 bc 25 3e 94 bd 53 04 0c be
       -0.046099447 -0.027613645 -0.07238416 -0.13673525
0002e0 4d 48 cb bd 5a 76 e4 3c aa 1d 69 be 83 3b d2 bd
       -0.099259 0.027888466 -0.22765222 -0.10265257
0002f0 9f fb 46 bd 86 91 dc 3a 99 23 cd 3c 73 8b 5d 3c
       -0.04857981 0.0016828037 0.025041388 0.013522017
000300 5c 2b 3e be c1 8a 02 3c 45 ae 4f 3c 14 69 13 3d
       -0.18571228 0.007967652 0.012675826 0.035988882
000310 a8 0d b5 3b f3 a6 c3 bd 7c 56 0f bd 86 d4 83 38
       0.0055253096 -0.095533274 -0.034994587 6.286152e-05
000320 89 be c1 3d 05 cd 2d bd df d8 a6 bb 77 ac 24 3e
       0.0946017 -0.04243185 -0.005091771 0.16081415
000330 49 cf 6d bd d4 32 d8 bd e2 e9 0e be b9 76 70 bd
       -0.05805901 -0.1055657 -0.13956407 -0.058706973
000340 bf 23 4d bd 7c 9a 23 bc 6c ba 91 bd ca eb 8b bd
       -0.05008292 -0.009985562 -0.07115635 -0.068320826
000350 69 5c 7d 3b ba 41 82 bc de 1e be bc 51 58 5f bc
       0.0038659817 -0.015900481 -0.023208078 -0.013631896
000360 40 b4 24 bd 0f f2 db bd 95 8b a0 bd 46 5e 17 bd
       -0.040210962 -0.107395284 -0.07839123 -0.03695514
000370 dd 36 9c 3b 04 01 5a 3d 4a 78 e8 bd 93 27 e2 3b
       0.0047672824 0.053223625 -0.11351068 0.0069016903
000380 42 87 a0 bd 8a 35 40 be 13 c4 d1 bd 07 ed 3a 3c
       -0.078382984 -0.18770424 -0.10242476 0.011409051
000390 70 39 48 3d 47 55 68 bd 51 b8 77 bc 43 32 11 bd
       0.0488829 -0.05672195 -0.015119628 -0.035448324
0003a0 c5 16 10 be 53 85 de bd ca 4a 92 3c 57 53 b4 3c
       -0.14071186 -0.10865273 0.017857928 0.022012396
0003b0 6c a8 f5 bd 01 26 f9 3d ca 13 3d 3e ad 7d 8d 3c
       -0.119950145 0.12165452 0.1846458 0.017271841
0003c0 50 16 42 3e ec 77 09 be ef d5 09 3e e2 3d 86 bb
       0.18953824 -0.13424653 0.13460515 -0.0040967325
0003d0 33 9b af bd 22 32 cd bd 7b 22 69 bd 90 32 48 bc
       -0.08574524 -0.10019328 -0.05691765 -0.012219086
0003e0 28 4e 42 bd ee 93 28 bd d1 2b 4f be ca 03 9b bd
       -0.047437817 -0.0411567 -0.20231558 -0.07569082
0003f0 49 a1 97 bd 41 dd 98 bd 27 9f 01 bd 82 86 cf 3c
       -0.074038096 -0.07464076 -0.03164592 0.025332693

encoder.3.bias f4 [64]
000000 07 13 a7 bd 82 32 90 bd 67 ec 85 bc 78 23 94 bd
       -0.08157926 -0.070408836 -0.016348077 -0.072333276
000010 b2 1a 9f 3d f7 ac b0 3b 62 36 21 bd b0 4d 80 bd
       0.077687636 0.0053917128 -0.039358504 -0.06264818
000020 46 fd 88 bd 82 ef 65 3c e7 30 56 3d 61 95 18 3d
       -0.06688933 0.014034154 0.05229273 0.037251834
000030 ee 8a 20 3d 3b 7e ae 3d 15 46 8b bd 80 d2 bd 3c
       0.039194994 0.0852017 -0.068004765 0.023171663
000040 3e ff b8 bb 62 03 89 bc 8b 2d 20 3c fb fc b7 3d
       -0.0056456616 -0.016725246 0.009776483 0.08983799
000050 22 a0 00 3d 7c 7d 04 3d 78 44 ae 3d e4 1d 7c bc
       0.031402715 0.032346234 0.08509153 -0.015387986
000060 37 4d 03 bd f1 e2 28 bd b5 90 94 3d ce 7a 1a bd
       -0.03205606 -0.041232053 0.07254163 -0.037714772
000070 87 a9 b6 3d 4b 7c 93 bd a3 55 b3 bd f0 29 65 bd
       0.089190535 -0.072014414 -0.08756568 -0.055948198
000080 1b 94 78 bc de 3f ac 3d 70 af 3c 3d 62 ed c0 3c
       -0.01517203 0.08410619 0.046065748 0.023550693
000090 7f d4 b1 bc 75 78 89 3c f6 56 29 bd 9b a0 81 bc
       -0.021707771 0.016781071 -0.041342698 -0.015823653
0000a0 76 83 2b 3d 4b 49 82 bd ba d2 52 3d 84 94 aa bd
       0.041873418 -0.06361636 0.051470496 -0.08329108
0000b0 36 c1 20 bc 4c 50 18 3d db 4d 8f bd 11 fe b2 3d
       -0.00981169 0.037185952 -0.069972716 0.087398656
0000c0 41 91 10 bd 64 19 df 3c 73 34 1d 3d d7 4e 6b bd
       -0.035294775 0.027233787 0.038380098 -0.057448234
0000d0 7b c7 b4 3d 59 46 6b 3d 6d 5b 51 3d 5a ff 95 bd
       0.088271104 0.057440136 0.05111258 -0.07324095
0000e0 8a 22 20 bd b5 2a e4 bb c9 01 5d 3d 8c 7f 00 bd
       -0.03909544 -0.006963099 0.05395678 -0.03137164
0000f0 27 df a6 bd 94 29 a7 bc 50 be 1e 3d 26 e5 db bb
       -0.08148032 -0.020405568 0.038755715 -0.006710666

lstm.weight_ih_l0 f4 [256, 64]
000000 27 e4 29 3d ad 1d b8 bb db 8a 0a 3e 8a b8 8f 3d
       0.04147735 -0.005618772 0.13529532 0.0701762
000010 6b 6f 5f 3c 77 28 9e 3d 6b c6 09 be 83 6d d6 bb
       0.013637404 0.07722562 -0.13454597 -0.0065438165
000020 45 10 57 3d 57 72 4e bd 50 56 3d 3d 4a 71 de 3d
       0.05250575 -0.05040201 0.046224892 0.10861452
000030 7f f5 d6 bd 50 cc 2c 3d 46 6f 3f 3e 41 eb 4f bc
       -0.104960434 0.042187035 0.18694791 -0.012690366
000040 d2 82 c7 3d e9 b9 58 be 2c c2 b9 b9 38 a0 1f bc
       0.09741749 -0.21164669 -0.0003543062 -0.009742789
000050 a4 42 1e 3e 81 63 41 3d 04 bd c3 3d a3 f8 ee 3c
       0.15455109 0.047214035 0.09557536 0.029171294
000060 b7 ad 30 bd 17 7a d7 3c 8f 79 4d 3e 3c dd a1 bc
       -0.043134417 0.026303334 0.20065902 -0.019758813
000070 9b 35 34 be 34 44 01 3e 44 9a 49 be 05 f0 77 3b
       -0.17598574 0.12623674 -0.19687754 0.0037832272
000080 ca a3 07 3e 9f ba 73 3d cc d2 7a 3c 9c 4a 22 3e
       0.13246074 0.059504148 0.015309047 0.15848774
000090 9b 84 ef 3c 07 20 18 3e 0e d8 c5 3d 12 43 c9 3b
       0.029238036 0.14855967 0.0966035 0.0061420286
0000a0 b3 16 ef bd 6e 47 87 bd f3 26 90 bd ad 52 b9 3b
       -0.116742514 -0.06605421 -0.07038679 0.0056556077
0000b0 28 15 af 3d 41 33 84 bd b9 5c 40 3d 6e 90 9e 3b
       0.08548957 -0.064550884 0.046963427 0.0048389947
0000c0 c3 3d eb bd 93 9c b0 bc 94 1b 1c be 50 7e 9a 3d
       -0.114863895 -0.021559035 -0.15244895 0.075436234
0000d0 73 c7 b9 3d 01 6e 8c 3c 93 c6 f3 bd ec ff 35 3c
       0.09071245 0.017142298 -0.119031094 0.01110838
0000e0 e0 d9 bd bc 5b 05 be 3d 6a 07 da bd 2e b1 f6 bd
       -0.02317518 0.09278365 -0.10645945 -0.12045513
0000f0 97 66 30 3d 5e 1b cc 3d 43 02 fa 3d 52 7d d9 3d
       0.043066587 0.099661574 0.12207463 0.10619606
000100 fd 44 c4 ba 0b 1c 9a 3d f7 07 58 3d cd 23 dd bd
       -0.0014974173 0.0752488 0.05274197 -0.10797844
000110 80 f7 16 be db 84 4a be 77 1f ee 3c 17 09 d2 bd
       -0.14742851 -0.19777243 0.029067738 -0.1025564
000120 2c 03 5b bc 0a a4 a1 3d 07 74 ba 3b 93 00 78 bd
       -0.013367455 0.07892616 0.005690101 -0.060547423
000130 87 66 8e bd 90 f0 96 3d b7 6d 27 3d dd 7e 35 3d
       -0.06953149 0.073701024 0.040876117 0.04431044
000140 aa a6 8e 3d 40 4b 2a 3e 69 5e 28 bd a9 a8 60 3e
       0.069653824 0.16630268 -0.04110566 0.21939339
000150 02 89 f0 3d 73 fc 19 be 7a 81 54 3e df b8 6f 3d
       0.11744882 -0.15037708 0.20752516 0.058525916
000160 ee 2f d1 3d ae 63 6e 3d de 26 e3 3b 20 6a f6 3d
       0.1021422 0.05820053 0.0069321236 0.120319605
000170 b3 e0 d0 bd ec 2a 96 3b d6 b7 c4 bd f6 d9 14 be
       -0.10199108 0.0045827534 -0.096053764 -0.1453627
000180 e7 c9 a1 ba e9 af 70 3d d9 f6 8e bd b2 48 d2 3d
       -0.0012343497 0.05876151 -0.06980676 0.10267772
000190 3a 16 9e 3d 6f 24 f1 bd b3 44 31 bd a0 25 f7 3d
       0.07719083 -0.11774527 -0.043278407 0.12067723
0001a0 a0 f9 61 bd f8 c4 ac 3c c9 23 21 3d 93 18 c1 3d
       -0.0551697 0.021090016 0.039340768 0.09428515
0001b0 99 af 9b bd b6 a2 25 bd a5 ed 2d be f5 21 19 3b
       -0.07601852 -0.040438376 -0.16985185 0.0023366187
0001c0 53 72 68 3a a0 72 9d 3d ee ec 7b 3c 5c a5 f9 3d
       0.00088671333 0.076878786 0.015376313 0.12189743
0001d0 72 b8 0a be 09 c0 a5 bb f8 c4 d5 bc a6 d3 54 3b
       -0.13546923 -0.0050582928 -0.026094899 0.0032474785
0001e0 1a df b4 3d b8 b6 e6 3c cc 01 3e 3e a8 63 29 be
       0.08831616 0.028163299 0.18555373 -0.16541922
0001f0 dc 8e 91 3d 92 aa 84 3d 57 74 0d bd 31 de 5d bd
       0.071073264 0.06477846 -0.03453478 -0.054166976
000200 64 66 32 3d e5 52 a9 bc 42 d3 ff bc e1 f3 e2 bb
       0.04355468 -0.02066941 -0.031228665 -0.0069260453
000210 2f 4e 50 be 03 b2 18 bd 22 ef a7 3c ae 87 94 bd
       -0.20342325 -0.03727914 0.02049977 -0.07252441
000220 61 a7 12 3e 96 fa 40 3e 0f e8 a7 3d f0 b7 3c 3e
       0.14321662 0.18845591 0.081985585 0.18429542
000230 70 bf 90 bd 9b f0 76 bc 05 ea 98 bc a1 13 7f 3c
       -0.07067764 -0.015072013 -0.018666277 0.015568645
000240 ec 36 97 3d 3a c6 df bd 14 de 65 3d e7 22 cb 3d
       0.073835224 -0.109264806 0.056119993 0.099187665
000250 54 98 af bd 5f ef b7 bd 96 fd 76 3d dd 1c be 3d
       -0.08573976 -0.08981203 0.060300432 0.09282849
000260 1b 2e 00 3d 64 e2 b1 3c d2 a1 12 be 05 87 bc bd
       0.03129397 0.021714397 -0.14319542 -0.092054404
000270 3f 9f 0a bc 29 09 16 bd 45 a0 65 3b d7 8d 19 3d
       -0.008460819 -0.03662983 0.0035038155 0.037488785
000280 fa 1b 42 bb 1f fd 0f 3e f7 29 d8 bd b0 18 8f 3d
       -0.0029618726 0.14061402 -0.10554879 0.06987131
000290 54 0b 41 3d 02 ae 2b bd d9 0e 62 bd 5c 93 c9 3d
       0.047129944 -0.041913994 -0.05518994 0.0984256
0002a0 50 95 00 3e f2 9f a4 3c ca 16 82 bd 49 d7 ab bd
       0.12556958 0.0200958 -0.06352003 -0.08390672
0002b0 32 98 93 bd 7b a7 98 3d 07 c4 7f bd d6 6d 2b 3c
       -0.07206763 0.07453819 -0.062442806 0.010463199
0002c0 37 3b 7c bd 9d 30 1f 3e c3 bc 62 bc 42 ab 23 3d
       -0.06157991 0.15545888 -0.01383895 0.039958246
0002d0 86 2e 4a 3e 57 56 4e be e1 62 60 bc 8b a5 20 bd
       0.1974431 -0.20150124 -0.01369545 -0.039220374
0002e0 fd 03 5e 3e b9 5c 4c bb d3 0c a6 bd 38 76 db bd
       0.21681209 -0.0031183197 -0.08107915 -0.10715908
0002f0 06 45 62 bd 10 c2 a7 3c 2d 7c 17 bd b3 c8 21 be
       -0.055241607 0.020478278 -0.036983658 -0.15799217
000300 29 be 7e 3a 96 11 28 bd 69 29 a4 bc b5 f8 c3 bc
       0.0009717667 -0.041032396 -0.020039277 -0.023922304
000310 23 2e 05 be 2d ba ae bc d8 16 1f 3e 71 66 f8 bd
       -0.13005881 -0.02132901 0.15536058 -0.12128914
000320 2b a5 fb bd cc 4d 2c 3d c4 37 a7 bd 05 49 94 3c
       -0.12287363 0.04206638 -0.08164933 0.018101225
000330 cb d8 93 3d 11 30 b6 3d de 57 bb 3d e5 76 00 be
       0.07219084 0.08895887 0.09147619 -0.12545355
000340 53 b7 0f bd 0c 88 62 bd 1f 8c b3 bd 6e bf 9b 3d
       -0.03508694 -0.055305526 -0.0876696 0.07604872
000350 8a bc 89 bd c7 b7 0a 3e 72 13 a6 b9 9b 20 51 3d
       -0.06725414 0.13546668 -0.00031676475 0.051056486
000360 0c 2e ae 3d 12 a4 ea 3d 0f 71 bf 3d d5 90 b8 bd
       0.085048765 0.11457075 0.09347736 -0.090119995
000370 a8 91 0b 3e 6f 8d 62 3d 10 24 ac bb 42 c7 88 bd
       0.13629782 0.055310663 -0.0052533224 -0.066786304
000380 e2 64 75 bb 2f 64 72 bd a5 15 4b 3d cd 6f 9c 3b
       -0.0037444164 -0.059177574 0.04958119 0.00477407
000390 10 0c 3a bd 03 59 5b be 32 d1 17 3e 22 de 05 3e
       -0.04542166 -0.21420674 0.14825895 0.13073018
0003a0 d6 08 55 bc f6 f9 cc bb 0d 37 ac bd 36 5d 82 3d
       -0.013002595 -0.0062553836 -0.084089376 0.06365435
0003b0 3e 99 9d 3d 82 63 c0 bd 8f 91 be bc 76 2f b9 bd
       0.07695244 -0.093939796 -0.023262767 -0.090422556
0003c0 08 b1 43 bc 9f 57 b4 bc b3 8f 82 3c 8e 27 29 3e
       -0.011944063 -0.022014437 0.015937662 0.16518995
0003d0 7b 7c 41 3e f0 f7 47 3d 1e 89 7d 3d e8 99 70 bd
       0.18895142 0.048820436 0.061898343 -0.058740526
0003e0 d8 92 79 3c 89 5e 88 3d 3f 0b 0c bd 1c 34 ec bc
       0.015232764 0.06658656 -0.034190413 -0.028833441
0003f0 a0 e1 01 be 14 40 19 3e 79 63 a5 3d d4 4a 26 3d
       -0.12683725 0.1496585 0.080756135 0.040598705

lstm.weight_hh_l0 f4 [256, 64]
000000 b7 03 03 3d bd 15 c1 3d 13 8e 81 3e eb 92 e4 ba
       0.031985965 0.094279744 0.25303707 -0.0017438804
000010 38 56 93 3d 85 e9 43 3d 74 f3 3f 3d 60 75 09 be
       0.07194179 0.047830123 0.046863034 -0.13423681
000020 c0 83 24 bd a2 47 37 be 2f 75 94 3d ba 75 3b be
       -0.04016471 -0.1789842 0.072489135 -0.18306628
000030 a5 a7 0d 3e 01 ef 19 3d d6 27 2a 3d e9 12 d5 bd
       0.13833483 0.037581448 0.041541897 -0.104039975
000040 d5 1e 29 3d 74 b3 8c 3d 6b 91 39 3d b6 d4 04 be
       0.04128917 0.068701655 0.045304697 -0.12971768
000050 5e e2 79 3d 02 66 5c bd f9 9c 22 bd 94 d7 f8 bb
       0.061006896 -0.05380822 -0.039700482 -0.0075940583
000060 6c 88 6b 3d 0a fc b0 bd 0a af 9c bd 01 cb 0a be
       0.05750315 -0.08641823 -0.076505736 -0.13554002
000070 6b 07 09 be d8 88 23 bc fc a7 a5 bb 61 27 12 be
       -0.13381736 -0.009981357 -0.0050554257 -0.14272834
000080 fe e4 cb bd ef 95 dc bd 84 34 02 be 43 c9 b0 3c
       -0.09955786 -0.10770785 -0.12715346 0.021580344
000090 87 b7 44 3e ed 47 be bc 71 24 1c bd 67 f9 09 3c
       0.19210635 -0.023227656 -0.03812069 0.008421279
0000a0 60 8e 0b be 01 56 56 3e e0 67 46 bd af 0f e9 3d
       -0.1362853 0.20931245 -0.048438907 0.113799445
0000b0 91 25 f6 3c dd 9d 88 3d 01 b9 19 bd 9b a4 00 be
       0.03004721 0.06670735 -0.03752995 -0.12562792
0000c0 5a c3 20 3d bb a1 67 3d c1 13 1b bd 93 ce 09 bd
       0.0392488 0.056550723 -0.037860636 -0.03364427
0000d0 87 af 51 bd 01 23 cc 3d b4 cc 94 3d 51 01 39 bc
       -0.051192787 0.09967614 0.072656065 -0.011291818
0000e0 b0 98 c8 3d 65 86 70 bc a8 64 47 3d 79 39 9c 3d
       0.09794748 -0.01468048 0.048679978 0.076281495
0000f0 e3 d6 be 3c 11 39 9e bd e2 1f 2c 3d da ac b0 bd
       0.023295825 -0.07725728 0.042022593 -0.08626719
000100 0f d5 f4 bd 41 db d0 bb 68 e2 b7 3b 94 5f 2d bd
       -0.119547 -0.0063737934 0.0056117065 -0.04232748
000110 f4 70 c4 3d c9 1d 1c bd 93 40 f2 bc e8 28 dd 3c
       0.095918566 -0.038114343 -0.029571807 0.026997045
000120 f1 42 b3 3d 32 37 d5 3c 35 77 66 3d 34 68 93 bd
       0.087530024 0.026027296 0.05626603 -0.071976095
000130 52 6e e5 bd fe 40 b5 bd 5b f7 f3 3c 74 8d 92 bb
       -0.112026826 -0.08850287 0.029781034 -0.004472429
000140 09 68 e1 bd 6f f0 85 bd b5 14 15 3e b5 a4 c1 3b
       -0.11006171 -0.0654 0.1455868 0.005909527
000150 66 1b 6f bd 22 9d 9e bd b7 9a ee bc 95 85 2d be
       -0.05837574 -0.077448145 -0.029126508 -0.16945489
000160 2f 45 4d 3c 6c ea ae bd 4c b4 4f bd 6b a9 7d bb
       0.012528702 -0.08540806 -0.050709054 -0.0038705717
000170 b5 68 98 bd 3c 39 8c bc 0e e6 df 3d 48 fa 07 be
       -0.07441846 -0.017117135 0.10932551 -0.13279068
000180 7d 37 ff 3c d2 96 9f bc 53 03 bd 3d 79 32 4f 3d
       0.031154389 -0.019481096 0.0922915 0.050585244
000190 ae 34 6c 3d 94 06 9f bd 01 e9 73 bd 71 31 39 3d
       0.057667427 -0.077649266 -0.05954838 0.045213167
0001a0 9e 79 42 bc 24 11 39 3e c4 49 e6 3c bf 3a c3 bd
       -0.011869816 0.18072945 0.028111346 -0.09532689
0001b0 cd 12 a6 bd 2a 81 7c bd 93 c2 a8 bc d4 66 73 3c
       -0.08109055 -0.061646618 -0.020600593 0.014856059
0001c0 5a 82 2d be 07 c2 a0 bd eb fb 4c be f0 cf 04 3e
       -0.16944256 -0.07849508 -0.20017974 0.12969947
0001d0 5e fd fb bd 38 76 05 3d fb 0b 4f be 60 e3 8c bd
       -0.12304185 0.032583445 -0.20219414 -0.06879306
0001e0 4b 54 77 3b d8 54 05 3e 60 43 d6 3d 37 55 1a be
       0.0037739452 0.13020647 0.104620695 -0.1507157
0001f0 14 19 b5 3c f0 e1 f9 3c 7e cb 4d 3e 3d ae 34 bd
       0.022106685 0.030503243 0.20097157 -0.04411148
000200 6f be 63 3d 1f ba 9e bd 2f d2 1f 3e cf e1 16 bb
       0.055601534 -0.077503435 0.15607522 -0.0023022776
000210 dd 0d 3c be 3f 92 d2 3d dc 91 41 be 03 15 84 bd
       -0.18364663 0.102818005 -0.18903297 -0.0644932
000220 e5 ae 43 bd a4 dc af 3d bd 24 73 3d a0 6d c9 3d
       -0.047774214 0.08587006 0.05936121 0.098353624
000230 18 33 ed bb ae 72 be 3d ec 8f b4 bd 10 59 2a 3e
       -0.007238757 0.09299217 -0.088165134 0.16635537
000240 ba 95 5a bc fa e2 4e bc 42 62 eb bd bc 3d 14 3b
       -0.013341362 -0.012627358 -0.114933506 0.0022619804
000250 1f f8 a8 bd 34 57 fe 3c fb 0b 55 3d 34 20 01 be
       -0.0825045 0.031047441 0.05201338 -0.12609941
000260 b2 18 f1 3c d2 d3 04 be 56 fc 3c be 7e 03 ff bd
       0.029430721 -0.12971428 -0.18455634 -0.12451838
000270 bd cb 8b bd 73 f2 b7 3d 51 d8 44 be fb 02 87 3d
       -0.06825969 0.089817904 -0.19223143 0.06592365
000280 4c 8c e7 3d 2d 61 35 be 1c be 25 3e 4a 98 c0 3c
       0.113060564 -0.17712851 0.16185802 0.023510117
000290 6f b2 ff 3d 4b 40 00 3d 11 59 c8 3d 53 7d 4b be
       0.124852054 0.031311315 0.09782613 -0.19872026
0002a0 a9 b8 04 be 1e 64 f6 3d 01 f2 d6 bc f8 61 11 bd
       -0.12961067 0.120308146 -0.026238443 -0.03549382
0002b0 cd 3a 8c 3d ae 27 a7 bc a4 ee 3d bd d5 ca c4 3d
       0.06847153 -0.020404663 -0.046370164 0.09609
0002c0 fd 46 3c bd ee dc c8 39 ec 8b 2c bc a7 a2 98 3c
       -0.045966137 0.00038311578 -0.010531407 0.018632246
0002d0 a0 fc 1a 3d 60 04 8a bd 36 c1 cc bd 52 f3 3c be
       0.03783858 -0.06739116 -0.099977896 -0.18452194
0002e0 b8 f7 84 bd 9a c9 b8 3c 2e c4 f4 3c c1 bb c9 3c
       -0.06492561 0.022557069 0.029878702 0.02462566
0002f0 11 35 0d bd 7e e6 86 bd be 97 b9 3c de 86 82 bd
       -0.034474436 -0.06586932 0.022655364 -0.0637338
000300 d1 1b c7 bd 8b b5 90 3a f5 f9 f1 bc 07 6c e0 3d
       -0.097221024 0.0011040432 -0.029538134 0.109581046
000310 aa a0 07 bd 70 f4 41 be e5 d0 10 bd 0f c4 4e 3d
       -0.033112206 -0.18940902 -0.035355467 0.050479945
000320 36 9a 01 3e d4 06 97 bc c8 d0 f0 3b 31 52 e2 3b
       0.12656483 -0.018435873 0.0073491074 0.0069067706
000330 7c 03 74 bd c2 9a c0 bd e5 c2 95 bd 6b 21 39 bd
       -0.059573635 -0.09404518 -0.07312564 -0.045197885
000340 53 40 35 3e 9b 13 0e be cd 43 36 3d 3f 1b 83 bd
       0.17700319 -0.13874666 0.044498254 -0.06401681
000350 0c 9d af 3d 83 57 6a bc aa c5 30 3e 3b 92 af 3d
       0.08574876 -0.014303091 0.17262903 0.08572813
000360 92 9e 73 3d f6 89 b9 3c 42 b7 da 3d ac 4d 58 3c
       0.059477396 0.022648793 0.10679485 0.013202112
000370 dc 66 87 3c a9 aa bb bc e9 5d 8c bd eb ea 8a bc
       0.01652854 -0.022908526 -0.068538494 -0.01695772
000380 3e 5b eb bb 44 4a 18 be 7b 82 2b bd ec 51 00 be
       -0.007182508 -0.1487208 -0.041872483 -0.1253125
000390 44 fa 43 be 6c 57 51 be 9c e6 d0 bd 5b d4 94 3d
       -0.19138438 -0.20443505 -0.10200235 0.07267066
0003a0 7e 23 be ba a6 f6 b4 bc af bc 89 3d 9e 08 e2 3a
       -0.0014506427 -0.022090267 0.06725442 0.0017245
0003b0 d8 40 bc bd c1 cc 27 3e 93 0b 7d 3d 42 98 8b bd
       -0.091920555 0.16386701 0.061778616 -0.0681615
0003c0 f1 25 93 bd bf 71 a4 bd fc 3b b6 3d a3 af 4c bc
       -0.07184971 -0.08029508 0.0889816 -0.012493047
0003d0 0c 57 f8 bd fa 8d e6 bd 81 45 01 3d 5d de 0d be
       -0.12125978 -0.11257549 0.031560425 -0.13854356
0003e0 03 99 cf bd c3 a2 aa 3d 1c 9a 49 bd 9d 86 23 3e
       -0.101366065 0.083318256 -0.049219236 0.1596932
0003f0 45 e1 a8 bd 4a b2 99 bd e2 ed ae 3c 8e 89 f1 bd
       -0.08246092 -0.07504709 0.021353666 -0.117938146

lstm.bias_ih_l0 f4 [256]
000000 82 df 2c bd 7d 81 e7 bc 79 80 87 3d e6 21 9f bb
       -0.04220534 -0.028259987 0.06616301 -0.004856336
000010 89 94 0c 3d 4c 9f 42 3b cc f1 51 bc ba 0b c1 3d
       0.03432134 0.0029697 -0.0128139965 0.09426065
000020 2c 6c b8 bd 1b 37 f2 3d 4c d5 b5 bd 3a dc 86 bc
       -0.09005007 0.11826917 -0.08878574 -0.016462434
000030 b5 9f 4e 3b 83 66 98 bc 8e aa 6c 3d 4f 02 bb bd
       0.0031528298 -0.018603569 0.05777984 -0.091313
000040 17 c8 09 bb fb bb bc 3d b6 db f7 bd f6 94 ca bb
       -0.0021023804 0.09215542 -0.121024534 -0.0061823083
000050 5f 87 8b 3d 07 b7 83 3d f3 b5 89 3d 9a 9e 6f bd
       0.06812929 0.06431394 0.06724157 -0.058500864
000060 02 cb a5 3c 11 aa d8 bb 50 4d b0 bd 4d 82 c3 3d
       0.020238403 -0.0066120704 -0.08608496 0.09546337
000070 ae e0 71 bd d3 8f bb bd 66 94 7e 3d df 11 73 3d
       -0.059052162 -0.09158292 0.062153243 0.059343215
000080 2f b9 07 3e 9c 4c 18 3c 1f 25 a8 3d ed eb c1 bd
       0.13254236 0.009295609 0.08210205 -0.094688274
000090 ae a6 2d bc c7 dc 12 bd 95 12 9d bd db 99 56 3c
       -0.010598822 -0.03585508 -0.0766956 0.013098205
0000a0 78 1f c7 bd af 56 ca bb 4a d3 ad 3d 7f b6 a9 bd
       -0.09722799 -0.0061748843 0.08487566 -0.082867615
0000b0 24 15 bf bd 68 3c b3 bc 2e c1 d2 bd 06 69 f4 3d
       -0.09330204 -0.02187939 -0.10290752 0.11934094
0000c0 29 e0 17 bd e4 5c 65 3c eb 65 98 bd 1a a9 e7 bd
       -0.03707901 0.013999198 -0.07441314 -0.113115504
0000d0 7e ce c0 3d fe 08 d2 3d 7f 47 a6 3d e4 88 33 bd
       0.09414385 0.102556214 0.081191055 -0.04383172
0000e0 02 1d 9a 3d 44 9b ea bd ad 2b 3f 3d 19 88 f4 3b
       0.07525064 -0.11455396 0.04667251 0.007462513
0000f0 1d 47 a8 bd 8f f2 b9 3d 2b 6d c3 bd f1 20 07 3e
       -0.08216689 0.090794675 -0.095423065 0.1319616
000100 fb b2 44 3d 02 db 0d 3e e9 20 bf 3c d5 1a aa 3b
       0.04802225 0.13853076 0.023331122 0.005191187
000110 cc d3 fe bb 07 88 21 bd 1e 51 1a 3d 99 c6 1c bd
       -0.007776713 -0.039436366 0.037675016 -0.038275335
000120 f4 e5 a2 bd 94 29 01 3d 2d 9f bd bd ab fc b6 bd
       -0.07954016 0.031533793 -0.09258876 -0.08934911
000130 87 33 fb bd 35 c0 a1 3c 02 a2 5b 3d 7d 39 eb bc
       -0.122656874 0.019744972 0.0536213 -0.028713936
000140 bf 73 de 3d 0d 5f c7 bc 9a d4 bb 3d 57 d8 96 3d
       0.108619206 -0.024337316 0.0917141 0.07365482
000150 b7 ef 53 bc 98 b6 48 3d bb 2f 3f bd 8b 4e 82 3d
       -0.01293557 0.04900226 -0.04667638 0.06362637
000160 f4 9f 77 bc 44 4c c1 3d b0 d1 ae bd dd 62 aa 3d
       -0.015113819 0.09438375 -0.085360885 0.08319638
000170 20 65 9d bd 43 d9 75 3d c6 21 b4 bc cd 9d cc bd
       -0.07685304 0.06002165 -0.02198876 -0.099910356
000180 b1 96 81 bc de f7 c5 bd 5d ff 3f bd 0e b0 ae bc
       -0.015818926 -0.096664175 -0.046874393 -0.021324184
000190 f3 b1 70 3c 1a 46 f9 3d e8 38 ab bc c0 29 f9 bc
       0.014690864 0.12171574 -0.020901158 -0.030415416
0001a0 3a 4c 0d 3e 10 67 6c bc a7 78 63 bc c3 54 49 3d
       0.1379861 -0.014428869 -0.013883746 0.0491531
0001b0 0b 11 ce bd 2d b2 5c 3c 6a 6c 80 3c 73 51 ec bd
       -0.100618444 0.013470215 0.015676696 -0.11538973
0001c0 77 85 a3 3c a4 1b 2e bd 86 31 94 bd 7f d2 68 bd
       0.019961102 -0.04250683 -0.07236008 -0.05684137
0001d0 43 dc ef bc 4a 63 c6 3d ab f5 a4 3d b7 c8 f6 3d
       -0.029279834 0.09686907 0.0805467 0.12050002
0001e0 bc 20 21 3c 95 1e 7d bc 07 b9 85 3d dc a7 bf bd
       0.009834465 -0.015449186 0.06529432 -0.093581885
0001f0 87 d0 12 3d 9a 51 cb 3d ee dd b2 bd 11 db f3 3d
       0.0358434 0.09927674 -0.08733736 0.11907018
000200 f2 b7 c5 3d 30 b2 e1 3b ef c5 30 3d 40 a3 4a bd
       0.096542254 0.0068876967 0.043157514 -0.049472094
000210 2a cf 06 bd 9f cf ff 3a 52 a8 71 3d 6a cd d4 3d
       -0.03291241 0.0019516832 0.058998413 0.10390742
000220 d7 f7 62 3d 55 dd a7 3d a9 0b 50 bd 33 2e 67 3b
       0.05541214 0.081965126 -0.05079237 0.003527534
000230 14 16 91 3d 73 84 28 bd 09 5a 8c bc fb a4 31 3d
       0.07084289 -0.04114194 -0.017132776 0.04337023
000240 6e 54 80 3d d8 72 19 bc 5b a1 e9 3d 5c 34 0e 3b
       0.06266104 -0.00936576 0.11407729 0.002169869
000250 48 f7 e7 3d f2 0e 86 bd 30 3c d6 bd 27 e7 82 bd
       0.11326462 -0.06545819 -0.104606986 -0.06391745
000260 63 4d 04 3e f8 61 00 be 21 60 b9 bc d8 cc 97 3d
       0.12920146 -0.12537372 -0.022628846 0.07412118
000270 6b 68 c0 bd c0 fb c1 bc 88 3f 27 3d 79 e7 18 3c
       -0.09394916 -0.023679614 0.040832072 0.009332531
000280 7f 91 ff bd 6b 60 b0 3d 88 bc 62 3d 27 8f 63 3d
       -0.12478923 0.0861214 0.05535558 0.055556443
000290 c3 e5 c3 bd aa 42 24 3a 15 66 89 bd 89 c0 00 3d
       -0.09565308 0.0006266037 -0.06708924 0.031433616
0002a0 33 81 8d bd 08 d6 e4 3d 14 40 58 bd 35 87 c1 bd
       -0.069094084 0.11173636 -0.052795485 -0.09449617
0002b0 66 04 cf 3d 13 c5 e9 3d 8c bb 0b bd bf e6 8b bc
       0.10108261 0.11414542 -0.034114406 -0.017077802
0002c0 fc 45 65 bd e9 7b b8 3d 51 87 6b bd 73 fb 4c bd
       -0.055974945 0.09008009 -0.057502095 -0.05004449
0002d0 77 4b 0b be 45 3e ac bd 62 67 a3 bd cb 21 c5 bd
       -0.13603006 -0.084103145 -0.07978703 -0.09625586
0002e0 02 ea 76 3b c5 a2 bc bd 73 89 a7 bd 0b eb ce bd
       0.00376761 -0.09210733 -0.08180513 -0.10103425
0002f0 8e 18 ed 3b 31 38 2d 3d d5 5c da 3d bb 09 73 3d
       0.007235593 0.042289916 0.106622376 0.05933545
000300 c0 50 e4 bd 0a c5 8e 3d c9 33 84 3c cd 19 48 bd
       -0.11148214 0.06971176 0.016137974 -0.04885273
000310 a3 75 6d bd 5a 89 f1 3c 10 fd ca bd 4c 14 17 bb
       -0.057973515 0.02948444 -0.09911549 -0.002305287
000320 85 fc 01 3d 5d 32 d3 3d 2b a6 79 3d 22 ff 66 3d
       0.031734962 0.103123404 0.060949486 0.056395657
000330 76 07 3c bc b8 0a 79 bd 77 be 99 bc 28 31 fa bb
       -0.011476388 -0.060801238 -0.018767579 -0.0076352544
000340 ad 57 a6 3d 6b b8 98 bd d1 78 ba 3d 7f 60 9f 3d
       0.081221916 -0.0745705 0.09105075 0.07782077
000350 75 f3 e3 3d a9 8e d7 bc df 24 15 bc ca 5a b5 3d
       0.1113042 -0.026313143 -0.009103029 0.08855207
000360 7f 4d c7 bd e2 98 32 bd d0 0e 45 3d 7b 7d 94 3c
       -0.09731578 -0.04360283 0.04810983 0.01812624
000370 33 80 a6 bd d3 5d b1 3d 5e 97 a2 3c bc ae d9 bc
       -0.08129921 0.08660474 0.019847568 -0.026572578
000380 37 3d af bd 69 37 a4 bd 7f 19 d1 bd a8 37 b9 3c
       -0.08556598 -0.08018381 -0.10209941 0.022609547
000390 fe 5b c7 3d ee 83 df bc 5d 6c ca bd bb a9 e1 3d
       0.09734343 -0.027284589 -0.0988395 0.11018702
0003a0 14 cd ee 3d d4 57 ce bd 7d 12 21 bd 64 1d bd bd
       0.11660209 -0.10075346 -0.039324272 -0.092341214
0003b0 ec 2e 34 3c 61 43 1e 3d 4f 9a f9 3d 38 fe b8 3a
       0.010997515 0.038638476 0.12187635 0.0014113849
0003c0 06 82 0c 3e 8e cc c8 bd 1e b0 29 3c ac f9 e2 bd
       0.13721475 -0.09804641 0.010356931 -0.110827774
0003d0 10 52 d7 bd 1f c6 55 bd 54 26 80 3c 7d bd 97 3d
       -0.10513699 -0.052190896 0.015643276 0.07409189
0003e0 29 d8 95 bc dc 57 f0 3a 3c 37 9a 3d d9 0c 8e 3c
       -0.01829155 0.0018336731 0.07530066 0.01734011
0003f0 ce 7b 91 bc 21 8c d5 bd b4 24 c1 3c ab dd 86 bd
       -0.01775923 -0.10427118 0.023577072 -0.065852486

lstm.bias_hh_l0 f4 [256]
000000 d2 49 1b bd d0 88 02 3d 8d 67 a2 bd 83 eb cb bd
       -0.037912197 0.031868756 -0.07929907 -0.0995703
000010 ed 00 c8 bd 84 4c 3c bd 24 46 62 3c e0 50 dd 3c
       -0.097658016 -0.04597141 0.013810668 0.027016103
000020 48 c8 ae bd 81 58 f1 3c 33 36 48 3d c2 48 ab bc
       -0.08534294 0.029461147 0.048879813 -0.020908717
000030 5e 9d e0 3d b8 50 a6 3b 6c e7 96 bc b7 e3 35 bc
       0.109675154 0.0050755404 -0.018420897 -0.011101655
000040 bf 42 e4 3d 9f 22 ac 3d c2 f6 db bd 12 cc ad bd
       0.11145543 0.08405041 -0.10740425 -0.08486189
000050 bc 01 2c bc b2 a1 16 3d 73 41 3e bd 5f 17 b6 3d
       -0.01049846 0.0367753 -0.046449136 0.088911764
000060 05 db cd 3d 77 b1 a7 3d 83 09 95 3c 4a ab 82 3c
       0.1005154 0.081881456 0.018193012 0.015950818
000070 36 e9 c5 bd 31 0a ba bd 2b 76 1b 3d 2e 9b 3b 3b
       -0.09663622 -0.09083975 0.03795449 0.002862643
000080 0b 89 bb 3d 64 65 97 3a 49 74 82 3c 5b c6 07 3d
       0.09156998 0.0011550603 0.01592459 0.03314815
000090 12 ac 6a 3d 44 16 c1 bd 13 65 a4 bd 33 2c 32 3d
       0.057293005 -0.09428075 -0.08027091 0.043499183
0000a0 77 f1 a4 3b da dc b7 3c ca 40 d4 bd c0 33 5f bc
       0.0050336677 0.022444177 -0.1036392 -0.013623178
0000b0 b8 bc af bd c6 92 eb bd 5e e7 de 3d b0 76 92 3b
       -0.08580917 -0.11502604 0.108839735 0.004469715
0000c0 2c 4e a4 3d 39 88 f6 bd 1a fe 72 bd 2e 48 3e 3d
       0.080227226 -0.12037701 -0.05932436 0.046455555
0000d0 e9 8e 32 bd b2 c2 0d 3c b3 d1 e8 bc d4 f4 8a bc
       -0.04359332 0.008652376 -0.028420305 -0.016962446
0000e0 22 d8 ad bd 10 d0 ab 3d df 2e b0 bd a1 60 8b bd
       -0.0848849 0.08389294 -0.0860269 -0.0680554
0000f0 cf 2c f1 3d 1c 09 7b bd 8f 18 57 3d a8 04 c6 bd
       0.11776125 -0.061287984 0.052513655 -0.09668857
000100 14 17 b0 3d c8 d9 d8 bd 5a 31 91 3c 9a b1 db 3d
       0.08598152 -0.105884135 0.017723728 0.10727234
000110 d3 d6 24 bc e2 03 96 3c 42 d9 a7 bd 11 fe d0 3d
       -0.010060984 0.018312398 -0.081957355 0.10204709
000120 76 09 d7 3d aa cb d5 bd b7 5d bc bd b4 bd 05 3e
       0.104998514 -0.104392365 -0.09197562 0.13060647
000130 26 42 ab bd 01 5a a9 3d 8f 89 d1 3c c3 46 ba 3d
       -0.08362226 0.0826912 0.025578288 0.09095528
000140 2c 27 77 bd 5d 0e d5 3d 98 a4 71 3d 9b 43 9e bd
       -0.06034009 0.1040313 0.05899486 -0.077277385
000150 a8 51 ab bd a0 d0 16 3b 45 93 c7 3d 9a 65 ea 3c
       -0.08365184 0.0023012534 0.09744886 0.0286129
000160 c1 f7 27 bd e0 c5 33 3d 46 9c c8 3d f2 dd 56 bb
       -0.04100776 0.04388988 0.09795432 -0.0032786098
000170 b0 6c 21 3d 2a cb d8 bd f2 0a d8 3c 49 1f a5 bd
       0.039410293 -0.105856255 0.026372407 -0.08062608
000180 3e b2 7d 3d 34 18 4f 3d 35 8c 41 bd 0f ef 5f bd
       0.061937563 0.05056019 -0.047252852 -0.054671343
000190 79 40 b3 bd a0 bc 9f bd 35 a6 d5 3d 38 e3 86 3d
       -0.087525316 -0.07799649 0.10432092 0.06586307
0001a0 78 30 82 3d e3 73 b9 bd 1c 81 5e 3d c8 49 c2 bc
       0.06356901 -0.09055307 0.054322347 -0.023716822
0001b0 89 87 b8 3d fb ed 71 bd 3a 4b 30 bc f5 ff 0e 3c
       0.09010226 -0.059064846 -0.010760123 0.008728017
0001c0 45 cb d0 bd a7 0d 39 3b 5d d6 df bc 1b 31 2d 3d
       -0.101950206 0.0028236897 -0.027323896 0.04228316
0001d0 b8 2c 83 bd bd a7 9f 3d 67 e3 eb 3d 9c 42 49 3d
       -0.06405014 0.077956654 0.11517983 0.04913579
0001e0 f7 c2 99 bd 13 7d 8f bc 79 cf ac 3d be f1 6b bd
       -0.0750789 -0.017515695 0.0843801 -0.05760359
0001f0 34 56 44 3d 96 26 02 3e 8e 3a d3 bd a3 1d bd 3d
       0.047933772 0.12710032 -0.10313903 0.092341684
000200 72 86 dc bd 8d 22 ae 3b 7a 60 a7 3d 0f 77 44 bc
       -0.10767831 0.0053141774 0.08172698 -0.011991276
000210 61 67 8c bd a6 4e c1 3b c4 72 21 bd 52 c6 da 3d
       -0.068556555 0.005899268 -0.03941609 0.10682358
000220 7e b1 c6 bd 10 0a 32 3d 68 87 be bb 9b 89 c8 bc
       -0.09701823 0.043466628 -0.0058144815 -0.024479678
000230 27 19 64 3d 7c b4 a5 3d a7 ac ae 3c d5 fa 38 bd
       0.05568805 0.08091065 0.021322561 -0.045161087
000240 5b 24 b3 3d 2b ac f9 bd fd 42 01 3d d1 68 09 3e
       0.08747169 -0.121910416 0.031558026 0.1341889
000250 ba 46 10 bc 1f 39 8c 3d 16 7e b5 bd 0d 42 0a be
       -0.008805925 0.068468325 -0.088619396 -0.13501759
000260 75 1c 92 bd 11 fa 67 bc 38 25 dd bd 50 6b ee bd
       -0.07134334 -0.014158742 -0.107981145 -0.11641562
000270 e1 b8 af 3d 7f 80 dd bd 20 01 03 bd 69 2f f2 bd
       0.08580185 -0.10815524 -0.031983495 -0.11825449
000280 f2 3f 08 3d 8f bb c9 bd f6 b4 cf 3c 37 03 f3 3c
       0.033264108 -0.09850227 0.025354844 0.029664619
000290 59 08 d6 3d f2 29 7a bd 99 a8 4c 3d e4 c5 33 3c
       0.10450811 -0.06107516 0.049965475 0.010972474
0002a0 c1 90 64 bd 89 ea 5a bc d8 b2 16 bd 23 cd b7 3d
       -0.05580211 -0.013361582 -0.036791652 0.089746736
0002b0 6a 95 aa 3d 7b 06 d8 bd f8 fc 65 3d 38 d2 d0 3c
       0.0832928 -0.10548111 0.056149453 0.025490865
0002c0 15 f7 83 bd b1 cb 58 bc db ef 95 3c cd 10 de 3d
       -0.064436115 -0.013232158 0.018302849 0.10843048
0002d0 63 c4 cd bd 5b 92 c5 bd e8 57 1c 3d 49 60 3e 3d
       -0.100472234 -0.09647056 0.03816977 0.046478543
0002e0 fc bc 82 3d 91 2f ca 3d 8d bb db bd 68 06 43 3d
       0.06383702 0.09872354 -0.10729132 0.04761353
0002f0 2f 3e 5d bd 9b 44 68 bc 96 1a 04 bd 99 67 06 3e
       -0.05401438 -0.014176513 -0.032251917 0.13125457
000300 3b b5 22 3d 47 a7 ac bd b6 45 d1 bd d6 2d f2 bd
       0.039723616 -0.08430343 -0.102183744 -0.11825149
000310 cc b3 96 bd dc a4 a7 bd 26 c9 e3 3b 22 d7 f9 bc
       -0.07358512 -0.08185741 0.006951469 -0.030498091
000320 db 63 3e bd 61 3b 38 bd 96 40 c9 bb 6c d1 cc bd
       -0.04648195 -0.044978503 -0.0061417324 -0.100008816
000330 e0 73 f4 3d cc 3b 8b 3d 9a 6f c6 bd 1b da 09 bd
       0.11936164 0.06798515 -0.09689255 -0.033655267
000340 f8 e9 76 bd 38 c9 e3 bd a3 31 bd bd 4f ad a2 3d
       -0.060281724 -0.11122364 -0.09237983 0.07943212
000350 85 a2 72 3d 21 31 ba 3d ed e1 c0 3d 04 c3 b2 3d
       0.059237022 0.09091402 0.09418092 0.087286025
000360 98 52 b6 3c fe 43 48 3d b6 37 cc 3d bb 54 a8 3d
       0.02225618 0.048892967 0.099715635 0.08219286
000370 14 5d 27 3d 25 64 bb bd 6f 8f 80 3d 34 fb a2 3d
       0.04086025 -0.091499604 0.06277358 0.079580694
000380 77 c8 f2 bc 0d 2a 30 bb 0a 62 0d 3c e4 60 85 3d
       -0.029636605 -0.0026880533 0.008629331 0.06512621
000390 49 b1 26 3c 60 f6 98 3d 9b 7e ab bc 1d 3c 08 3e
       0.010174104 0.07468867 -0.020934394 0.13304181
0003a0 a7 72 44 3d b0 16 b7 bd d6 c4 c8 3d f8 50 07 bd
       0.047960903 -0.08939874 0.098031685 -0.033036202
0003b0 2c 9a 39 3c 80 67 c0 bd 75 b4 87 bd a2 42 02 3e
       0.011328261 -0.09394741 -0.06626216 0.12720731
0003c0 25 94 c9 bd 38 85 26 bd c1 7d 31 3d 83 b0 f2 3b
       -0.098427095 -0.04065439 0.04333282 0.0074062957
0003d0 d8 25 01 3e 9b 0f f3 3d b1 cf a6 bd d1 76 bd 3d
       0.12612092 0.11868211 -0.08145083 0.09251178
0003e0 3f 44 16 3c a1 7a ef bd 8e 12 a0 bd c0 db a4 bd
       0.009171545 -0.116933115 -0.07816039 -0.080497265
0003f0 c9 b3 2e 3d 03 5c c6 bc a1 e3 c8 3d 75 40 08 3e
       0.042651925 -0.024213796 0.09809042 0.13305838
