checkpoints/agent_3_best.pt (torch, 179545 bytes, 11 tensors)

encoder.0.weight f4 [16, 5, 3, 3]
-0.058332514 -0.04124873 -0.12224558 0.054564256 0.031402644 -0.0155413775 -0.055000708 0.059200037
0.015195634 -0.020000808 -0.104030795 0.068889424 0.10010035 0.059958123 -0.07747078 -0.09110585
0.04955616 0.17918824 0.14085042 0.13726458 -0.09954758 0.04221794 0.024880439 -0.24447161
-0.050375506 -0.11281364 -0.024994817 0.024272632 0.20091148 0.083954975 0.008201019 -0.1813386
0.109258145 0.06360744 -0.060248315 0.0377981 0.07887258 0.056918878 0.17809111 0.019322248
0.11312847 0.20972605 0.047743328 -0.009086609 0.09424214 0.10382143 0.15253428 -0.077861875
0.1776908 -0.12751082 0.071366034 -0.06523553 0.018387023 0.08320824 0.18219523 0.054234613
-0.1334198 -0.026286464 0.09360762 -0.052206933 -0.1682182 -0.07998116 -0.11761516 -0.08220777
-0.018457767 0.092459485 0.11694911 0.011874559 0.054048374 -0.077654056 0.18833849 0.0653072
0.16302587 -0.013012749 0.14257343 0.04814491 0.13556151 0.14000028 0.059056792 0.1456883
-0.15921155 0.1527055 -0.039836183 -0.04261836 -0.16388464 0.18026443 0.027686857 -0.08098578
0.054656018 -0.034279678 0.049428817 0.016139586 0.061153132 0.09341984 0.14096418 -0.0006829533
-0.08450729 -0.099774696 0.028089965 0.011820946 0.10175316 -0.10003638 -0.04182285 0.16900401
0.03000147 0.1403903 -0.10856194 0.12978058 -0.013200512 -0.13908216 -0.063191526 0.20314938
-0.059955984 0.031452525 -0.05473081 -0.0035982952 0.21020892 -0.030484656 -0.011726521 -0.13462672
0.06520069 -0.043483663 -0.15870608 -0.13066866 0.03257703 0.12183085 -0.06345289 0.11123619
-0.10870734 -0.0376164 0.107958004 0.1870091 0.05062186 -0.06149929 -0.04732291 0.009250138
-0.047247414 0.17688817 -0.0476008 0.005634602 0.02848791 -0.11915024 0.030022657 0.0754861
-0.1301928 0.07248676 -0.056640018 0.01683805 -0.118692145 -0.17783514 0.08431541 0.11332421
-0.057498336 0.04500748 0.09224058 0.068058 0.1352032 -0.020150978 -0.16209188 0.044122096
-0.006444918 0.08942545 0.040205967 0.19356862 -0.14488897 -0.0012895223 -0.16204299 0.15317285
7.439032e-05 0.08185061 0.022990432 0.03219956 0.10103828 -0.00015428849 0.050426014 -0.06270225
0.1096264 -0.07671434 0.12697402 0.16400999 0.01235803 0.048073694 0.031957332 0.17453876
0.06435132 -0.1277313 -0.10176506 0.0053621195 0.068695724 -0.09783513 0.07411879 0.20890798
-0.14480525 0.18198307 -0.04129103 -0.011308629 -0.038479388 0.11235238 -0.023003215 0.16538191
0.058490824 0.020157551 0.01013444 -0.16265053 -0.11422451 -0.13584575 0.020998053 -0.033669576
0.124011174 -0.12282637 -0.1842407 0.03953231 -0.024879064 0.014506875 0.046909157 0.09013483
-0.08122905 -0.17378089 -0.049457163 -0.04365532 -0.026001176 0.023963258 0.10314195 0.006239728
0.12754554 -0.18948022 0.0611051 0.09604586 0.07900288 -0.06174553 0.12799747 -0.09654175
-0.073228024 0.20516665 0.102208644 0.032400817 -0.21505691 0.23039098 -0.06980621 -0.009300437
-0.07925543 -0.1331538 -0.14160138 0.056446105 0.025349934 -0.10638074 -0.060247973 0.10133586
-0.11741099 -0.15994246 -0.10291254 -0.08024476 -0.01685619 0.065845646 0.14379221 -0.040285807
00000000: 13ee 6ebd 6ef4 28bd e45b fabd c57e 5f3d
00000010: 0fa0 003d 43a1 7ebc 6c48 61bd bd7b 723d
00000020: 1cf7 783c bcd8 a3bc 190e d5bd e615 8d3d
00000030: 6a01 cd3d a696 753d 00a9 9ebd b495 babd
00000040: 66fb 4a3d 1f7d 373e 183b 103e 168f 0c3e
00000050: 9adf cbbd b8ec 2c3d 10d2 cb3c c456 7abe
00000060: 8c56 4ebd d60a e7bd eec1 ccbc 66d7 c63c
00000070: bdbb 4d3e 96f0 ab3d 915d 063c d3b0 39be
00000080: bcc2 df3d 9e44 823d f0c6 76bd 2ed2 1a3d
00000090: f287 a13d c523 693d 845d 363e b149 9e3c
000000a0: e6af e73d 6dc2 563e 828e 433d 00e0 14bc
000000b0: 0602 c13d 54a0 d43d f231 1c3e 0c76 9fbd
000000c0: 94f4 353e 3292 02be 5b28 923d 359a 85bd
000000d0: 62a0 963c 1569 aa3d 6391 3a3e 1d25 5e3d
000000e0: 339f 08be b656 d7bc 5ab5 bf3d f0d6 55bd
000000f0: 6441 2cbe 2acd a3bd 38e0 f0bd 8c5c a8bd
00000100: be34 97bc 665b bd3d 0483 ef3d 838d 423c
00000110: d461 5d3d 1709 9fbd cedb 403e c8bf 853d
00000120: 41f0 263e 6d33 55bc c5fe 113e 9933 453d
00000130: a3d0 0a3e 3c5c 0f3e 89e5 713d 502f 153e
00000140: 5a08 23be d55e 1c3e 442b 23bd 9790 2ebd
00000150: 60d1 27be 3d97 383e 8ccf e23c dfdb a5bd
00000160: fdde 5f3d d968 0cbd df75 4a3d 2a37 843c
00000170: b57b 7a3d e752 bf3d ea58 103e 3808 33ba
00000180: 2812 adbd ad56 ccbd ed1c e63c a4ac 413c
00000190: f663 d03d e0df ccbd 704e 2bbd 630f 2d3e
000001a0: a5c5 f53c 7ac2 0f3e b955 debd 33e5 043e
000001b0: f646 58bc 8e6b 0ebe 8f6a 81bd 6406 503e
000001c0: 6894 75bd 5dd4 003d 6a2d 60bd 60d1 6bbb
000001d0: 0241 573e f5ba f9bc 9820 40bc 96db 09be
000001e0: f087 853d ed1b 32bd d983 22be 01ce 05be
000001f0: 7e6f 053d 7482 f93d 97f3 81bd cdcf e33d
00000200: f4a1 debd a713 1abd 1619 dd3d 507f 3f3e
00000210: de58 4f3d aee6 7bbd abd5 41bd e48d 173c
00000220: 8186 41bd 2c22 353e 0ef9 42bd 78a2 b83b
00000230: 7a5f e93c 0b05 f4bd 13f2 f53c 7598 9a3d
00000240: 4351 05be f073 943d 5dff 67bd f3ef 893c
00000250: de14 f3bd 6a1a 36be 8fad ac3d 8616 e83d
00000260: 6083 6bbd c359 383d a1e8 bc3d fe61 8b3d
00000270: b572 0a3e aa13 a5bc 6afb 25be 5fb9 343d
00000280: e42f d3bb b124 b73d 03af 243d da36 463e
00000290: c65d 14be 3005 a9ba 99ee 25be 58d9 1c3e
000002a0: 0002 9c38 4ba1 a73d 6e56 bc3c b0e3 033d
000002b0: 28ed ce3d 80c8 21b9 828b 4e3d 0a6a 80bd
000002c0: ce83 e03d 681c 9dbd 7a05 023e 3cf2 273e
000002d0: 5679 4a3c ece8 443d b1e5 023d 4aba 323e
000002e0: a0ca 833d fecb 02be 336a d0bd b8b4 af3b
000002f0: 58b0 8c3d c95d c8bd 98cb 973d f9eb 553e
00000300: d447 14be c559 3a3e c820 29bd d447 39bc
00000310: 909c 1dbd 0119 e63d 3d71 bcbc e059 293e
00000320: 1394 6f3d 7321 a53c ec0a 263c dc8d 26be
00000330: 8aee e9bd 261b 0bbe 1c04 ac3c 1ce9 09bd
00000340: 92f9 fd3d 648c fbbd 98a9 3cbe a2ec 213d
00000350: 2ecf cbbc 3eae 6d3c d123 403d 9c98 b83d
00000360: 6b5b a6bd 9ef3 31be 9893 4abd eccf 32bd
00000370: 6b00 d5bc 984e c43c 163c d33d a276 cc3b
00000380: 4c9b 023e 1a07 42be 5749 7a3d b1b3 c43d
00000390: 43cc a13d e2e8 7cbd c511 033e aeb7 c5bd
000003a0: 93f8 95bd 3517 523e c452 d13d b8b6 043d
000003b0: e137 5cbe 9deb 6b3e 8ff6 8ebd dc60 18bc
000003c0: ac50 a2bd 7859 08be f4ff 10be 0834 673d
000003d0: aaaa cf3c 25de d9bd 94c6 76bd 2d89 cf3d
000003e0: 2c75 f0bd f5c7 23be cfc3 d2bd 5d57 a4bd
000003f0: fe15 8abc 15da 863d 443e 133e bb02 25bd

encoder.0.bias f4 [16]
-0.13314664 0.13393167 -0.11709507 0.11233813 -0.10862068 -0.105528094 0.15657887 -0.07297687
-0.0008195691 0.11978765 -0.053068053 -0.08353714 -0.03636239 0.03748646 0.070820875 -0.05848805
00000000: 9857 08be 6225 093e 8acf efbd 8911 e63d
00000010: 8574 debd 1d1f d8bd 3656 203e e674 95bd
00000020: 5ad8 56ba 3a53 f53d e35d 59bd 8515 abbd
00000030: bbf0 14bd 678b 193d 890a 913d 2a91 6fbd

encoder.3.weight f4 [64, 144]
-0.15952003 -0.0012429128 0.05405717 0.016679514 -0.01701856 0.0817998 -0.040488042 0.004009202
0.04847737 0.00043835072 -0.033590574 0.0328415 0.011996079 -0.07248604 0.026664373 -0.01206731
-0.047668595 0.049169105 -0.0073607583 0.056446657 0.0711695 0.016924405 -0.046807423 0.11846578
0.062060475 -0.081180215 -0.047400028 -0.09097102 0.116061844 0.036698293 0.13813864 -0.00464968
-0.0034518093 0.11196646 -0.11966053 0.035993688 -0.03683231 0.15864603 -0.12299461 -0.1100441
0.07615213 -0.07984178 0.007874152 0.05293809 -0.019579876 -0.036335554 -0.012296133 0.011961686
-0.08434822 0.102570325 -0.018288493 0.11576396 0.0152635835 0.04393354 -0.098629005 0.118739046
-0.06777913 -0.07228781 -0.11695145 0.03166228 -0.13959219 0.008933884 0.03760693 -0.08102849
-0.043638285 -0.037508428 0.07911162 -0.06439681 -0.101391934 0.09044565 0.02030332 0.017908778
0.01881516 0.0988864 -0.047884256 -0.09508135 -0.12354595 -0.056970693 0.0147097455 -0.010870075
-0.0583535 -0.06374517 -0.010308215 0.009943022 0.016349752 0.040667307 -0.057754993 -0.013316223
0.02758362 0.13489285 -0.161645 -0.019249966 0.111711614 -0.026501264 0.11711846 0.015211908
0.114585444 -0.060393155 -0.019783478 0.046741825 -0.014726237 0.07629305 -0.03159671 0.039745063
-0.021882132 0.080938436 0.07624961 0.011086335 0.042905293 0.041301005 0.012159016 0.05107137
-0.018702447 -0.032578785 -0.017379915 -0.0077911783 0.11333739 -0.010763786 0.013454324 -0.073078476
0.013007908 -0.0018856339 0.020797664 0.0718737 -0.08330515 0.10181811 -0.1115774 0.0062425593
0.0051928163 -0.010657781 0.04041937 0.16596547 -0.11339606 -0.021164991 -0.028506882 0.086299434
0.07422054 -0.05266498 0.010286305 -0.14612111 0.0150556825 -0.087577984 -0.073865935 0.07237713
0.03810499 0.10479171 -0.018653791 -0.13246372 0.06897968 -0.0388875 0.07423885 0.07437493
-0.03179376 -0.056140013 -0.07044663 -0.022180106 -0.033470254 -0.04826781 0.022484645 0.04016342
0.07185056 -0.05896429 -0.069172576 0.07972514 0.05033248 -0.0337966 0.03545045 0.047183946
-0.031583212 -0.16320243 0.011709502 -0.043700486 0.022200892 -0.1601885 0.1082521 -0.020508897
-0.03492561 -0.010611694 -0.018816493 -0.046236616 -0.1189532 -0.03991406 0.02942231 0.022289753
0.024932072 -0.027343728 -0.016355814 -0.043534197 -0.09473202 0.014852761 -0.010904886 0.122204885
0.058280077 0.100814566 0.059495766 -0.04090845 0.08549518 -0.022489768 0.051394127 -0.023224758
-0.03730601 -0.0068155807 0.1110643 -0.102104105 0.07444351 0.068122104 -0.032189984 0.017686244
-0.08521953 -0.06300411 -0.115591116 0.030213635 -0.009966994 0.06516266 0.03869862 -0.08981235
-0.11809249 0.081584886 -0.046150662 0.1162785 -0.0018962119 0.06963236 0.13646379 -0.057749067
0.023442041 0.039553087 -0.03314679 0.14139828 0.09126089 -0.0725117 0.015995659 0.2346808
-0.13910735 0.04853116 0.035504226 0.06991774 0.058293093 -0.019611128 0.053860787 -0.032337252
0.09530185 -0.02728915 0.1375561 0.13881467 0.016364045 -0.029551975 -0.040690333 0.060919777
0.015233545 0.0006270539 0.04939349 0.015319888 -0.031471282 0.072468735 -0.15159161 -0.014062267
00000000: 3859 23be 3ce9 a2ba 0d6b 5d3d 7aa3 883c
00000010: 826a 8bbc a786 a73d cad6 25bd a05f 833b
00000020: 3590 463d 70d2 e539 4596 09bd cf84 063d
00000030: 348b 443c 9073 94bd 3e6f da3c f7b5 45bc
00000040: 2540 43bd 8b65 493d 8432 f1bb 9c34 673d
00000050: 51c1 913d 0da5 8a3c 24b9 3fbd 309e f23d
00000060: 2033 7e3d d041 a6bd 8826 42bd 044f babd
00000070: d5b1 ed3d f350 163d 3774 0d3e 585c 98bb
00000080: c037 62bb ac4e e53d 9410 f5bd 1e6e 133d
00000090: 7add 16bd 1b74 223e 99e4 fbbd cd5e e1bd
000000a0: a6f5 9b3d 1684 a3bd 9602 013c 9cd5 583d
000000b0: fa65 a0bc 97d4 14bd b875 49bc f3fa 433c
000000c0: c2be acbd 6410 d23d c0d1 95bc a815 ed3d
000000d0: 1c14 7a3c a8f3 333d 01fe c9bd 752d f33d
000000e0: c9cf 8abd a20b 94bd 3e84 efbd 4fb0 013d
000000f0: 41f1 0ebe 6d5f 123c b909 1a3d 44f2 a5bd
00000100: 0fbe 32bd 70a2 19bd 4605 a23d 7ae2 83bd
00000110: 93a6 cfbd 923b b93d 2653 a63c 6eb5 923c
00000120: 4022 9a3c f484 ca3d 4822 44bd 03ba c2bd
00000130: a905 fdbd 1a5a 69bd 2501 713c 6618 32bc
00000140: 1404 6fbd d48c 82bd cae3 28bc 0fe8 223c
00000150: eaef 853c c392 263d 8090 6cbd 4a2c 5abc
00000160: 0bf7 e13c 5a21 0a3e 4486 25be 1bb2 9dbc
00000170: 0fc9 e43d 2e19 d9bc cedb ef3d 5e3b 793c
00000180: c6ab ea3d d05e 77bd f610 a2bc 5b74 3f3d
00000190: 5146 71bc 883f 9c3d 8d6b 01bd b8cb 223d
000001a0: 2842 b3bc 0dc3 a53d c128 9c3d 76a3 353c
000001b0: 76bd 2f3d 3e2b 293d 9c36 473c 3630 513d
000001c0: e035 99bc 5571 05bd 5360 8ebc 244d ffbb
000001d0: 6f1d e83d 975a 30bc 866f 5c3c 2baa 95bd
000001e0: 1f1f 553c 6027 f7ba dd5f aa3c 8532 933d
000001f0: e49b aabd 0386 d03d b182 e4bd 628e cc3b
00000200: 8028 aa3b f99d 2ebc c88e 253d daf2 293e
00000210: 323c e8bd 3462 adbc 4487 e9bc c2bd b03d
00000220: f000 983d 3cb7 57bd e487 283c c6a0 15be
00000230: 1cac 763c 165c b3bd 0647 97bd 763a 943d
00000240: fa13 1c3d 099d d63d d6cf 98bc 92a4 07be
00000250: 3845 8d3d 8048 1fbd 8a0a 983d e251 983d
00000260: 2c3a 02bd 12f3 65bd 5346 90bd 0eb3 b5bc
00000270: 1b18 09bd 78b4 45bd b831 b83c 6682 243d
00000280: 6326 933d 8a84 71bd 5aaa 8dbd ef46 a33d
00000290: 6e29 4e3d 4e6e 0abd 7e34 113d f443 413d
000002a0: 665d 01bd 8a1e 27be 36d9 3f3c 48ff 32bd
000002b0: a5de b53c 7408 24be 47b3 dd3d 4602 a8bc
000002c0: 280e 0fbd acdc 2dbc 0c25 9abc 9b62 3dbd
000002d0: bc9d f3bd ed7c 23bd 0e07 f13c 0099 b63c
000002e0: 583e cc3c f4ff dfbc a1fc 85bc ea50 32bd
000002f0: dc02 c2bd ff58 733c 68aa 32bc 8e46 fa3d
00000300: 17b7 6e3d de77 ce3d d5b1 733d 9e8f 27bd
00000310: 1918 af3d 763c b8bc a682 523d d941 bebc
00000320: 30ce 18bd 3c55 dfbb ae75 e33d f51b d1bd
00000330: d775 983d 9a83 8b3d a5d9 03bd bee2 903c
00000340: 9487 aebd 4c08 81bd 09bb ecbd 9682 f73c
00000350: 9a4c 23bc 0074 853d 7282 1e3d 8aef b7bd
00000360: 7ada f1bd fa15 a73d 7a08 3dbd 6c23 ee3d
00000370: 508a f8ba 699b 8e3d 2abd 0b3e 498a 6cbd
00000380: 8609 c03c 6b02 223d eec4 07bd b6ca 103e
00000390: fde6 ba3d 0481 94bd 5409 833c 2a50 703e
000003a0: 2872 0ebe 9cc8 463d e16c 113d 0831 8f3d
000003b0: bdc4 6e3d 84a7 a0bc 219d 5c3d 1174 04bd
000003c0: 9e2d c33d 7f8d dfbc 82db 0c3e 6f25 0e3e
000003d0: e40d 863c fc16 f2bc e8aa 26bd 0487 793d
000003e0: 1e96 793c e060 243a d450 4a3d 4400 7b3c
000003f0: 08e8 00bd 7d6a 943d d53a 1bbe 6c65 66bc

encoder.3.bias f4 [64]
0.035207365 -0.01564488 0.089735985 0.018599046 0.065245114 0.045151252 -0.0707761 0.06708475
0.07179331 -0.08427589 0.030772554 0.053659637 -0.011341447 -0.012464857 0.090502575 0.028412206
-0.06487786 -0.001073139 0.047893368 0.057869688 -0.079149574 -0.025314063 -0.018962592 -0.035361893
-0.07137428 -0.077352606 0.08450236 0.052482802 0.008418924 -0.064322546 0.041964125 0.06804973
0.09452721 0.03430306 -0.06570093 -0.02574811 0.029317409 0.0020470216 0.01801041 0.085774966
0.029851587 0.03813389 -0.0042532417 0.004450464 0.05506006 0.08417358 0.031407144 0.068572275
-0.026239883 -0.0219705 -0.020125128 -0.0747971 -0.064244606 0.08859625 -0.074657604 -0.08048964
-0.024160964 0.07143662 0.075489074 -0.0108864745 0.09304926 0.017256347 0.03566221 0.077250026
00000000: 9935 103d b129 80bc 80c7 b73d 075d 983c
00000010: 3b9f 853d 85f0 383d 0ff3 90bd bb63 893d
00000020: 5f08 933d d698 acbd b916 fc3c 35ca 5b3d
00000030: 7ad1 39bc 6639 4cbc 6a59 b93d b7c0 e83c
00000040: afde 84bd 92a8 8cba d62b 443d c408 6d3d
00000050: 2c19 a2bd 705f cfbc 7057 9bbc a2d7 10bd
00000060: ae2c 92bd 0b6b 9ebd 930f ad3d 35f8 563d
00000070: 87ef 093c 8abb 83bd 93e2 2b3d a85d 8b3d
00000080: 7b97 c13d 5e81 0c3d 368e 86bd b3ed d2bc
00000090: 102b f03c 5327 063b 918a 933c c9aa af3d
000000a0: 518b f43c 4832 1c3d c75e 8bbb 33d5 913b
000000b0: a886 613d 3363 ac3d c7a4 003d 9f6f 8c3d
000000c0: 06f5 d6bc 7afb b3bc 74dd a4bc 392f 99bd
000000d0: ad92 83bd f371 b53d 16e6 98bd c1d7 a4bd
000000e0: 37ed c5bc 5d4d 923d 049a 9a3d 2f5d 32bc
000000f0: 9c90 be3d 2f5d 8d3c 8a12 123d 4335 9e3d

lstm.weight_ih_l0 f4 [256, 64]
-0.046429377 -0.013879529 0.014006554 -0.0056314357 0.0107453475 0.020847473 0.039764818 -0.009193945
-0.088503234 -0.061285507 0.048958853 0.06625503 -0.063698746 -0.09548754 0.10847265 0.09841025
-0.12667598 0.037935443 -0.041251484 0.13928202 -0.03366606 -0.16318102 -0.03613483 -0.08299075
0.006264831 -0.015719378 -0.024589315 0.025758963 0.018433414 -0.047455333 -0.059339274 0.13359345
-0.01974048 -0.0556767 0.016919613 0.13906352 0.12226673 -0.045906384 -0.020744583 0.09550098
-0.059872884 0.06798875 0.18963619 0.002647303 -0.045473423 -0.014064595 -0.028813696 -0.045414954
-0.18154217 -0.07537147 0.0037014708 -0.16603643 0.030470585 -0.10900085 -0.12964295 0.07973384
-0.13179037 -0.10786901 -0.048032586 0.18637168 0.06572373 -0.13944153 -0.1577142 0.098702095
0.10801521 0.06300948 -0.18191494 -0.011572637 -0.0337852 0.068947256 -0.011332221 0.10882565
-0.06900851 0.058626957 0.103587955 -0.06869119 0.052802704 0.0006196266 -0.11786452 0.070454285
0.1021716 -0.03775464 -0.000931859 0.026894834 0.090008475 0.16708691 -0.10887993 0.10274102
0.03214694 -0.1258882 0.09540535 -0.03745475 0.05212845 0.12716217 0.09031666 0.13972813
-0.12509713 -0.013465758 0.03316753 0.07567143 0.12403471 0.083122835 -0.020639585 0.074183464
-0.08353978 -0.061908 -0.1170176 0.030868389 0.036615953 0.07944563 -0.035841104 0.030284783
-0.044517957 -0.1516557 -0.012120217 0.09287885 0.059938364 0.13395876 -0.11544166 -0.10015895
0.13527974 0.12550026 0.13856152 0.1790866 0.12487963 0.10582143 -0.08047797 -0.040500045
0.061634816 0.16072369 0.12699768 0.030250577 0.111355394 0.045859907 -0.0745114 0.04547394
0.008510362 -0.0380709 -0.020696627 0.09147085 -0.10891908 -0.08958419 -0.0029793382 0.20661461
-0.115750685 0.0558217 0.06674053 -0.05452539 -0.16498235 -0.009368813 -0.019472407 -0.006124277
0.06870778 0.022873132 0.048273772 -0.09117056 0.06749883 0.1029301 0.07476033 0.12747337
0.081002444 -0.08942572 0.11437502 -0.109832615 -0.017165378 0.17028648 0.029071879 -0.03638126
-0.1258943 -0.09359805 0.04142324 0.0064630434 -0.05913457 0.1449339 0.019496126 -0.11247385
-0.010188751 0.18389551 -0.053632416 -0.029307734 -0.006099144 -0.051183626 0.04612096 0.13385326
-0.077754825 -0.10539386 0.104406565 -0.07733129 0.10249803 0.04845546 -0.028733667 -0.03540703
-0.14472005 0.1513976 0.013149854 -0.09653584 2.8113136e-05 -0.02719384 0.058206365 0.15550333
-0.028804066 -0.035738863 0.061761793 0.002711434 -0.062113844 0.013805158 0.01946248 -0.043612596
0.017749062 0.004240621 0.083259985 0.015808031 0.09967358 -0.0076214746 -0.0050843395 0.0059156353
-0.07339667 -0.13999096 0.009861199 -0.024941718 0.10391134 -0.013878373 0.11973335 -0.10023373
0.18463673 0.045468207 0.09733664 -0.02212256 0.013770843 -0.030465346 -0.001086764 0.04767272
0.034687534 0.15411417 -0.07408579 0.045849036 0.08453599 0.023174256 0.05125419 0.17697209
0.054107867 -0.055513926 0.06978692 -0.105617344 -0.18401463 0.22494271 -0.06739165 -0.0049836296
0.10005589 0.13965984 0.13484274 0.11380445 0.08201121 0.1829045 0.15123233 0.093577884
00000000: bb2c 3ebd f766 63bc bf7b 653c e887 b8bb
00000010: 410d 303c 52c8 aa3c 6fe0 223d 33a2 16bc
00000020: 2f41 b5bd 8306 7bbd 1489 483d b8b0 873d
00000030: 7d74 82bd f98e c3bd e926 de3d 508b c93d
00000040: 59b7 01be 3262 1b3d 51f7 28bd f29f 0e3e
00000050: 6ce5 09bd ed18 27be 1e02 14bd 0ef7 a9bd
00000060: 3649 cd3b edc5 80bc 886f c9bc 7604 d33c
00000070: ac01 973c 8660 42bd bd0d 73bd b9cc 083e
00000080: cab6 a1bc 400d 64bd 009b 8a3c ab66 0e3e
00000090: fb66 fa3d 5508 3cbd 8bf0 a9bc 0596 c33d
000000a0: 453d 75bd b03d 8b3d fd2f 423e 607e 2d3b
000000b0: 5742 3abd 306f 66bc b30a ecbc 0805 3abd
000000c0: 31e6 39be 5b5c 9abd 6094 723b 7405 2abe
000000d0: 739d f93c d63b dfbd 1fc1 04be 7f4b a33d
000000e0: 0ef4 06be 6dea dcbd d1bd 44bd 38d8 3e3e
000000f0: 2a9a 863d c3c9 0ebe d57f 21be 5324 ca3d
00000100: 1437 dd3d 1d0b 813d e947 3abe 289b 3dbc
00000110: 5a62 0abd 3834 8d3d c8aa 39bc fbdf de3d
00000120: 5554 8dbd d222 703d ec25 d43d f7ad 8cbd
00000130: a647 583d 706e 223a f462 f1bd 564a 903d
00000140: 583f d13d 9ca4 1abd 0048 74ba 8e52 dc3c
00000150: 5d56 b83d d518 2b3e 71fc debd e269 d23d
00000160: 82ac 033d d6e8 00be e163 c33d 276a 19bd
00000170: a484 553d cd36 023e f1f7 b83d e414 0f3e
00000180: 7619 00be 7c9f 5cbc adda 073d 9ff9 9a3d
00000190: e905 fe3d 4e3c aa3d 5914 a9bc 80ed 973d
000001a0: e716 abbd 3e93 7dbd eca6 efbd b4df fc3c
000001b0: 9cfa 153d 64b4 a23d 1fce 12bd cb17 f83c
000001c0: 7658 36bd a24b 1bbe e093 46bc 4437 be3d
000001d0: ee81 753d 7c2c 093e ad6c ecbd 2320 cdbd
000001e0: c686 0a3e 2483 003e 12e3 0d3e 7a62 373e
000001f0: e4c0 ff3d e8b8 d83d a2d1 a4bd 60e3 25bd
00000200: ca74 7c3d c094 243e ae0b 023e 0fd0 f73c
00000210: 4c0e e43d 99d7 3b3d 6f99 98bd e242 3a3d
00000220: 0c6f 0b3c 3bf0 1bbd f98b a9bc 1255 bb3d
00000230: f710 dfbd ea77 b7bd 0041 43bb c892 533e
00000240: b20e edbd 4ba5 643d 42af 883d 0456 5fbd
00000250: 22f1 28be a67f 19bc 9984 9fbc 29ae c8bb
00000260: aab6 8c3d 6f60 bb3c b8ba 453d a1b7 babd
00000270: d43c 8a3d 04cd d23d f21b 993d 6188 023e
00000280: 9ce4 a53d d524 b7bd 733d ea3d ecef e0bd
00000290: 689e 8cbc 945f 2e3e 2628 ee3c 8404 15bd
000002a0: 6fea 00be 56b0 bfbd 6aab 293d f0c7 d33b
000002b0: 1737 72bd 8d69 143e 57b6 9f3c b158 e6bd
000002c0: b8ee 26bc 1b4f 3c3e aaad 5bbd c616 f0bc
000002d0: 54db c7bb eca5 51bd 55e9 3c3d d410 093e
000002e0: ec3d 9fbd bcd8 d7bd 1cd3 d53d de5f 9ebd
000002f0: 7dea d13d 3c79 463d de62 ebbc f606 11bd
00000300: 7e31 14be f907 1b3e 7c72 573c 95b4 c5bd
00000310: 80d4 eb37 9ec5 debc cc69 6e3d 443c 1f3e
00000320: 81f6 ebbc ea62 12bd eff9 7c3d 50b2 313b
00000330: 166b 7ebd 082f 623c c76f 9f3c 1fa3 32bd
00000340: 7b66 913c e8f4 8a3b 3684 aa3d d87f 813c
00000350: a921 cc3d 90bd f9bb 889a a6bb f2d7 c13b
00000360: fe50 96bd ca59 0fbe de90 213c 9352 ccbc
00000370: 78cf d43d 1e62 63bc c236 f53d 5847 cdbd
00000380: 6911 3d3e df3c 3a3d 6f58 c73d 5f3a b5bc
00000390: 1a9f 613c 7692 f9bc c071 8eba 7844 433d
000003a0: 8414 0e3d 1bd0 1d3e 4aba 97bd 33cc 3b3d
000003b0: 3521 ad3d f0d7 bd3c eaef 513d 2c38 353e
000003c0: 36a0 5d3d 9262 63bd 72ec 8e3d e84d d8bd
000003d0: 556e 3cbe 6257 663e a204 8abd b74d a3bb
000003e0: 1aea cc3d fd02 0f3e 3714 0a3e 4f12 e93d
000003f0: 7ef5 a73d 514b 3b3e a6dc 1a3e c3a5 bf3d

lstm.weight_hh_l0 f4 [256, 64]
-0.18429181 0.028187614 0.008486657 0.16528264 -0.04617144 0.018420044 0.094857395 -0.21625154
-0.078633085 -0.016736832 0.051821195 -0.032600667 -0.09158828 0.049221333 0.08160241 -0.1439255
0.12876815 -0.14488252 -0.07021665 -0.16408432 -0.068557784 -0.14048572 -0.009050611 -0.12272483
0.04947576 -0.07166391 0.00758533 0.05554412 0.13105433 -0.038311914 -0.13482475 -0.086372085
0.07954255 -0.025624868 0.02806891 0.020142905 -0.060795415 0.010000429 0.09660527 0.048865374
-0.03978105 0.12573211 0.08186047 0.09551924 -0.0454706 0.066391766 -0.053377718 0.07982143
0.009340666 0.03083117 0.1642204 -0.08907143 -0.039834592 -0.06451986 -0.1632901 0.011434441
-0.0662026 -0.0053098886 0.012319347 -0.035226863 0.11489296 0.04554928 0.04806853 -0.05854142
-0.20713948 0.087496325 -0.051922746 -0.041514896 -0.037100002 -0.03670649 0.21848683 0.019721037
-0.015504987 0.0059335995 0.018969309 -0.1280241 0.10564931 0.07298515 -0.06170584 0.0041493215
-0.020328997 0.084567666 -0.011287712 -0.063122235 0.05370269 -0.03934462 -0.05011572 0.04192115
0.033378743 -0.07767287 0.059736513 0.00015259348 -0.012966173 -0.078231126 -0.04102482 0.063454054
-0.11183492 0.06594998 -0.014971735 -0.1741677 -0.08166678 -0.019599058 -0.1475221 0.10779678
0.13184017 -0.027622275 0.06880681 -0.0042334013 0.0880048 -0.10802626 -0.11068393 0.10952736
-0.0725827 0.012777045 0.15703006 -0.021352481 -0.027377095 0.06409443 -0.06470865 -0.049217317
0.07753628 0.078770235 0.02185784 0.0902276 -0.19499934 -0.07970896 0.09459166 -0.0339063
-0.041350175 -0.07462155 0.011104066 -0.08734722 0.20964637 -0.059020486 0.0071183555 -0.10035158
0.13530141 0.19229428 0.19140586 -0.056563266 0.060437214 -0.0038094725 0.036338173 0.17191438
0.084395856 0.1079417 -0.13012987 -0.121163055 0.15795375 0.036220305 0.08085427 -0.10969052
-0.055024758 0.03198245 -0.14416172 0.080594644 0.18921492 0.053112544 -0.06331177 0.0356398
-0.14745164 0.06308871 0.008887167 0.04423393 -0.10613699 -0.13336785 -0.13396356 0.057160474
-0.08799303 0.024380453 0.11211206 -0.015171864 -0.06355039 -0.13956828 0.026491826 -0.08916529
0.1159432 0.04111733 0.11251893 -0.04972513 0.0022340398 0.12179355 0.0056725293 0.061866507
0.14210099 -0.029873075 0.014698237 0.012246823 -0.04314087 0.102915116 -0.08239274 0.09118787
-0.073166706 -0.19021305 0.045565136 -0.117703825 -0.05396776 -0.034871217 -0.03195397 -0.10543437
0.09633872 0.059871294 0.090682365 -0.111700706 0.080935985 -0.1336055 -0.0008550319 0.104180634
0.13202992 0.047563035 0.11216845 -0.057169113 -0.171392 0.007001463 0.061003488 0.034003872
0.05719585 0.0134271495 0.15127921 0.122648984 0.018821567 -0.056997027 -0.109969705 0.044283755
0.021004535 -0.027163327 0.11037644 -0.057293344 0.068614855 -0.010629149 0.06482332 0.15819776
-0.0002632388 0.17323604 -0.0058409525 0.17106493 -0.10859437 0.05791334 -0.04944806 0.04007689
0.10536827 -0.028667826 -0.14910126 -0.08728296 -0.011156671 -0.044441283 -0.022240188 0.11292292
-0.0031506643 -0.08671435 -0.086401515 -0.04841753 0.07740744 -0.077634215 0.0019612052 -0.0959104
00000000: feb6 3cbe b6e9 e63c 9f0b 0b3c da3f 293e
00000010: 441e 3dbd a2e5 963c 9844 c23d 0b71 5dbe
00000020: 620a a1bd ae1b 89bc 7642 543d 4788 05bd
00000030: a392 bbbd 4f9c 493d 2a1f a73d 3561 13be
00000040: ccdb 033e 155c 14be bfcd 8fbd b805 28be
00000050: 0668 8cbd 7ddb 0fbe 0449 14bc 2857 fbbd
00000060: 18a7 4a3d 87c4 92bd 5c8e f83b 3b82 633d
00000070: 1b33 063e f4ec 1cbd 800f 0abe d9e3 b0bd
00000080: 34e7 a23d 3eeb d1bc c5f0 e53c bc02 a53c
00000090: 9d04 79bd d7d8 233c fcd8 c53d 0f27 483d
000000a0: 74f1 22bd ebbf 003e 76a6 a73d 979f c33d
000000b0: 613f 3abd 68f8 873d 98a2 5abd 6b79 a33d
000000c0: 9809 193c a691 fc3c 6429 283e 156b b6bd
000000d0: 9929 23bd fd22 84bd 8535 27be 8657 3b3c
000000e0: 3b95 87bd 93fe adbb 16d7 493c 0b4a 10bd
000000f0: 004d eb3d e291 3a3d 82e3 443d 21c9 6fbd
00000100: 5f1c 54be 4631 b33d f2ac 54bd 860b 2abd
00000110: 2cf6 17bd 8b59 16bd 03bb 5f3e 038e a13c
00000120: a108 7ebc a46e c23b 8665 9b3c c018 03be
00000130: aa5e d83d 3d79 953d 43bf 7cbd 08f7 873b
00000140: ff88 a6bc d031 ad3d 18f0 38bc 3b46 81bd
00000150: 5af7 5b3d d327 21bd 2446 4dbd 83b5 2b3d
00000160: 26b8 083d f412 9fbd 46ae 743d 8001 2039
00000170: 1270 54bc a437 a0bd a409 28bd 33f4 813d
00000180: b509 e5bd c810 873d 024c 75bc 0459 32be
00000190: ea40 a7bd 348e a0bc 0910 17be 8fc4 dc3d
000001a0: 1c01 073e 1c48 e2bc 96ea 8c3d 58b8 8abb
000001b0: dc3b b43d df3c ddbd 42ae e2bd e14f e03d
000001c0: 3da6 94bd d056 513c 7dcc 203e 66eb aebc
000001d0: ee45 e0bc f143 833d f885 84bd 1998 49bd
000001e0: 57cb 9e3d 4a52 a13d 360f b33c 3fc9 b83d
000001f0: e8ad 47be 743e a3bd 46b9 c13d 55e1 0abd
00000200: cd5e 29bd 2fd3 98bd d4ed 353c 19e3 b2bd
00000210: 8aad 563e 77bf 71bd 1841 e93b 2185 cdbd
00000220: 748c 0a3e cbe8 443e e6ff 433e e2ae 67bd
00000230: 038d 773d 58a8 79bb 56d7 143d 530a 303e
00000240: bcd7 ac3d 8a10 dd3d c440 05be 5624 f8bd
00000250: a1be 213e be5b 143d ec96 a53d 6ca5 e0bd
00000260: a461 61bd 0800 033d 219f 13be ce0e a53d
00000270: 8ec1 413e 8a8c 593d 9aa9 81bd 0afb 113d
00000280: 90fd 16be a734 813d 7b9b 113c a32e 353d
00000290: 5a5e d9bd 9591 08be be2d 09be 1a21 6a3d
000002a0: b135 b4bd 84b9 c73c 029b e53d 6993 78bc
000002b0: b526 82bd fdea 0ebe 6305 d93c 4b9c b6bd
000002c0: a173 ed3d a56a 283d 5370 e63d 94ac 4bbd
000002d0: f868 123b e66e f93d a0e0 b93b bc67 7d3d
000002e0: ec82 113e 61b8 f4bc e0d0 703c e6a6 483c
000002f0: 7bb4 30bd 29c5 d23d 86bd a8bd b5c0 ba3d
00000300: 6dd8 95bd 36c7 42be 82a2 3a3d b40e f1bd
00000310: 4c0d 5dbd 1fd5 0ebd 2be2 02bd faed d7bd
00000320: 3c4d c53d 9a3b 753d adb7 b93d 57c3 e4bd
00000330: c4c1 a53d e1cf 08be 3824 60ba a85c d53d
00000340: da32 073e 75d1 423d 93b8 e53d 292a 6abd
00000350: 6281 2fbe 876c e53b cbde 793d a547 0b3d
00000360: 3246 6a3d 8cfd 5b3c f0e8 1a3e 642f fb3d
00000370: b02f 9a3c b775 69bd cc37 e1bd e262 353d
00000380: b411 ac3c a085 debc 0b0d e23d 6dac 6abd
00000390: f285 8c3d e225 2ebc 17c2 843d 98fe 213e
000003a0: 5003 8ab9 ca64 313e 7665 bfbb a52b 2f3e
000003b0: ba66 debd 8a36 6d3d 0d8a 4abd aa27 243d
000003c0: 52cb d73d cad8 eabc 00ae 18be 69c1 b2bd
000003d0: 78ca 36bc 1008 36bd 0e31 b6bc 2244 e73d
000003e0: 607b 4ebb 4b97 b1bd 47f3 b0bd 7651 46bd
000003f0: cb87 9e3d b0fe 9ebd 9087 003b ac6c c4bd

lstm.bias_ih_l0 f4 [256]
0.03255853 -0.09711816 -0.08940449 0.060949665 0.06395619 -0.12858221 -0.11198156 0.10271719
-0.08241624 0.021880878 0.029412962 0.046233613 0.044698063 0.113301076 -0.022631746 0.051052276
0.05776323 -0.116471 -0.062264677 0.012388428 0.13098188 0.011650323 -0.024386441 0.026257932
0.0014878912 0.0010000733 -0.09303249 -0.0688475 -0.10945232 0.07270385 0.04329272 -0.029364645
0.111100934 -0.12426418 0.05412744 0.10381631 -0.02735197 -0.10102288 -0.09266518 0.030158883
-0.03930654 0.09399981 0.060705613 0.028981993 0.050342422 -0.06379692 0.04041721 0.14036788
-0.073656425 0.07891256 -0.059549317 0.12761591 -0.0064376313 -0.05423611 0.14246202 -0.023314666
-0.12716644 -0.02922115 0.034478676 -0.02964415 -0.10663581 -0.09225854 0.024614302 -0.06679404
0.009762316 0.0707668 0.020721765 -0.059165794 0.1256743 -0.0315417 -0.066075824 -0.09449083
0.11612926 -0.119721845 -0.10059028 -0.06330413 -0.076199815 -0.025237713 0.05704635 -0.06362641
0.03120459 0.012516051 0.07322713 -0.10859417 0.091286376 -0.062598936 0.116413735 0.070998
0.0037760802 0.019262876 0.0059127985 0.022344148 -0.091091454 -0.026732948 -0.06704771 0.026940567
-0.061696716 -0.1076971 -0.03360637 0.016421825 0.12645003 -0.09738279 0.0628719 -0.054971572
0.0461657 0.124372475 0.010950264 -0.04052312 0.0035349217 -0.06239639 -0.098945946 0.095586754
0.11143775 0.0451686 0.06903004 -0.014870034 -0.100399375 -0.031223519 0.05314592 0.07388974
-0.11731238 -0.13581324 0.105938405 -0.062934674 0.028094303 -0.014122886 0.04195906 -0.07518722
-0.035263564 -0.07474977 -0.07819738 -0.11594272 -0.09120554 -0.08658417 0.06239846 0.019814352
0.052906938 0.08838404 0.0049745683 -0.06930091 0.02422786 0.036092672 0.06943359 0.090045206
-0.05490703 0.043005254 -0.019137762 -0.06678985 0.009212621 0.08490481 -0.035153992 0.024090422
-0.026849166 -0.061060354 -0.017421486 -0.09156712 0.078518726 0.13490443 -0.03956907 -0.047380656
-0.09979272 0.0010382998 0.086757556 0.10741051 0.0070983823 0.022931099 -0.079088636 -0.025339043
0.019359842 0.034465633 -0.0047935094 0.0008538316 -0.07584837 -0.11515859 -0.02846806 -0.08332844
0.12232092 0.015854022 -0.07017835 0.08831867 0.03514623 -0.048373967 -0.0027158996 0.083784945
0.05793885 0.031806488 0.08081385 -0.01448441 0.08035631 -0.07637109 -0.0710283 -0.1000418
0.0100713335 -0.08872173 -0.056751467 -0.04036003 -0.03697935 0.0028127094 -0.0017408703 -0.02770191
0.03662436 0.060835946 -0.06311662 -0.050131675 0.042032294 -0.07276399 -0.033633996 0.106952846
-0.024780689 0.021004966 0.07857785 -0.047542628 0.1245715 0.083497554 0.073451824 -0.09550645
-0.00037981058 0.038648464 0.099508606 -0.014092435 -0.050366677 0.0019069039 0.104743496 0.04035483
0.09584193 0.10726773 -0.04990407 -0.09526916 0.11141964 -0.103528485 0.06732258 0.04767888
-0.07576232 0.018683301 0.12606357 -0.110500336 -0.057727244 0.034639962 0.007144165 0.10010056
-0.052258607 0.059742324 -0.04913871 0.115216516 0.12969692 -0.0708901 0.12455754 0.04475505
0.027149126 -0.0026364138 0.027313115 -0.021221276 -0.09416592 -0.03931946 -0.092785805 0.04769287
00000000: 185c 053d e3e5 c6bd b419 b7bd 5ba6 793d
00000010: 77fb 823d 0eab 03be 9756 e5bd 645d d23d
00000020: d8c9 a8bd 873f b33c 74f3 f03c 755f 3d3d
00000030: 5115 373d 650a e83d 3666 b9bc 311c 513d
00000040: 2399 6c3d 5988 eebd 3f09 7fbd d5f8 4a3c
00000050: 1d20 063e ffe0 3e3c 13c6 c7bc e01a d73c
00000060: 5805 c33a e414 833a d187 bebd ebff 8cbd
00000070: 8a28 e0bd c2e5 943d b553 313d 208e f0bc
00000080: e388 e33d 387e febd bcb4 5d3d a59d d43d
00000090: 3d11 e0bc 15e5 cebd 3ec7 bdbd c30f f73c
000000a0: e5ff 20bd f982 c03d 73a6 783d a56b ed3c
000000b0: db33 4e3d f6a7 82bd 848c 253d 99bc 0f3e
000000c0: 2ed9 96bd e99c a13d fce9 73bd bfad 023e
000000d0: c4f2 d2bb af26 5ebd 90e1 113e 66fe bebc
000000e0: eb37 02be 3161 efbc 8339 0d3d 4ad8 f2bc
000000f0: e063 dabd 0cf2 bcbd efa3 c93c 50cb 88bd
00000100: 1ff2 1f3c 2fee 903d b1c0 a93c d557 72bd
00000110: c4b0 003e df31 01bd c352 87bd 6984 c1bd
00000120: 2dd5 ed3d ba30 f5bd 4702 cebd 99a5 81bd
00000130: a60e 9cbd 52bf cebc 6fa9 693d 904e 82bd
00000140: c5a0 ff3c 1f10 4d3c 1bf8 953d 9f66 debd
00000150: 5af4 ba3d df33 80bd 536a ee3d 6667 913d
00000160: 1d78 773b 2ecd 9d3c 26c0 c13b 130b b73c
00000170: 288e babd 0eff dabc 4f50 89bd 77b2 dc3c
00000180: b2b5 7cbd 4c90 dcbd d5a6 09bd 1087 863c
00000190: 1e7c 013e a170 c7bd fcc2 803d df29 61bd
000001a0: 3f18 3d3d ffb6 fe3d bc68 333c 92fb 25bd
000001b0: 25aa 673b 5b93 7fbd 2ca4 cabd fdc2 c33d
000001c0: 7a39 e43d b602 393d 9f5f 8d3d 71a1 73bc
000001d0: 309e cdbd 77c8 ffbc 89af 593d 8153 973d
000001e0: 7941 f0bd a012 0bbe 3cf6 d83d e5e3 80bd
000001f0: 0626 e63c ad63 67bc 43dd 2b3d c2fb 99bd
00000200: 8770 10bd 6816 99bd f325 a0bd 6073 edbd
00000210: f8c9 babd 0b53 b1bd 8795 7f3d b551 a23c
00000220: f2b4 583d b102 b53d b401 a33b a3ed 8dbd
00000230: 8179 c63c e9d5 133d 3333 8e3d 9f69 b83d
00000240: 32e6 60bd 4726 303d ccc6 9cbc 1ec9 88bd
00000250: 88f0 163c 93e2 ad3d a2fd 0fbd 4759 c53c
00000260: c8f2 dbbc 6c1a 7abd 81b7 8ebc 8b87 bbbd
00000270: 6dce a03d 6324 0a3e 2d13 22bd 3812 42bd
00000280: 2060 ccbd 8f17 883a f2ad b13d 0bfa db3d
00000290: 8c99 e83b 00da bb3c 39f9 a1bd d393 cfbc
000002a0: 8898 9e3c d62b 0d3d df12 9dbb abd3 5f3a
000002b0: 6456 9bbd 44d8 ebbd d935 e9bc 1aa8 aabd
000002c0: 6483 fa3d 4be0 813c abb9 8fbd 6be0 b43d
000002d0: 7ef5 0f3d c823 46bd 3cfd 31bb 7197 ab3d
000002e0: 4a51 6d3d 8547 023d bb81 a53d 0550 6dbc
000002f0: d991 a43d 7268 9cbd 4977 91bd b7e2 ccbd
00000300: 3c02 253c bdb3 b5bd 3a74 68bd 8f50 25bd
00000310: a977 17bd 6f55 383b ea2d e4ba 1eef e2bc
00000320: 6d03 163d 1d2f 793d 4943 81bd df56 4dbd
00000330: 0e2a 2c3d 4905 95bd cdc3 09bd 180a db3d
00000340: df00 cbbc 9b12 ac3c 6ced a03d 0fbc 42bd
00000350: 581f ff3d c400 ab3d e96d 963d e398 c3bd
00000360: 5021 c7b9 da4d 1e3d 2bcb cb3d f5e3 66bc
00000370: 4a4d 4ebd 14f1 f93a c283 d63d 1b4b 253d
00000380: c648 c43d 2faf db3d 3668 4cbd 7a1c c3bd
00000390: fb2f e43d be06 d4bd 6ce0 893d ee4a 433d
000003a0: 4629 9bbd b90d 993c cf16 013e 004e e2bd
000003b0: 6773 6cbd a2e2 0d3d 9a19 ea3b 8601 cd3d
000003c0: 1f0d 56bd 5eb4 743d ac45 49bd a3f6 eb3d
000003d0: 45cf 043e d42e 91bd 0618 ff3d 1251 373d
000003e0: d867 de3c afc7 2cbb c1bf df3c 3ed8 adbc
000003f0: 10da c0bd 710d 21bd 7c06 bebd 9959 433d

lstm.bias_hh_l0 f4 [256]
-0.12517777 0.07700046 0.0017961273 -0.09144986 0.0984248 -0.019800685 0.041051134 0.04093688
-0.025035286 0.10235857 0.042672478 0.041477863 0.075684726 0.053610325 -0.0077082934 -0.089964695
-0.11772672 -0.06409946 0.047285367 0.0061480138 -0.020169519 -0.061387487 0.071159475 -0.06870688
-0.06978809 -0.081186734 -0.048780214 0.042304806 -0.054146796 -0.012538745 0.12740001 -0.09760753
-0.053853136 0.063937835 0.06940587 -0.016894145 0.056961574 -0.03742989 0.13590387 -0.019783102
0.031984854 0.006599814 0.054572266 -0.026941987 0.1030627 -0.08943042 -0.050921187 0.02223679
0.017564883 -0.04873432 0.04614264 0.06397128 -0.07334307 -0.12225946 0.05683215 -0.1104662
0.062326174 0.063693315 0.015252912 -0.04923545 -0.03706649 -0.059764173 0.07428966 0.023943363
0.102387875 -0.1104948 0.11863032 0.10747085 0.0057960083 -0.0026561865 -0.00404725 -0.0684626
0.12985538 0.047574542 -0.032763783 -0.10774257 0.04574102 0.059488058 0.07045025 0.06023523
-0.06244298 -0.09902032 0.03699342 -0.035339165 -0.042202607 -0.086738385 0.08061487 0.058651477
-0.060854122 -0.063557655 0.024367273 0.044298 0.039728634 -0.030802518 0.11845162 0.10036041
-0.07815205 0.09195626 -0.092383325 0.04742475 -0.113968074 -0.042374704 -0.090249896 -0.029628051
-0.10746542 0.04399681 0.019043352 0.020247996 0.052075434 -0.081896 -0.080249265 -0.07553282
-0.000991724 0.08984721 0.023442648 0.08062705 0.064120464 -0.03147976 0.1322735 -0.08190006
0.07953022 -0.074190244 0.115113795 -0.027685652 -0.026075251 -0.11874358 0.009864578 -0.11431247
-0.067305885 -0.052114084 -0.09768784 -0.06324097 0.054779004 -0.066893466 -0.027440166 -0.037239797
-0.072807625 -0.10112264 0.1072767 -0.1032751 0.040191777 -0.01560972 0.082876034 -0.061273932
-0.051363 -0.04557835 0.01304747 0.09484729 0.049696766 -0.14246036 0.08612312 0.045816306
-0.11123507 -0.1076668 -0.003638044 -0.11694067 0.11944764 0.089062884 -0.07088098 0.056706175
-0.02142603 -0.11939112 -0.09911859 -0.053617913 0.025414694 0.077096954 -0.059972666 -0.11670328
0.0941683 0.0007740934 1.0220974e-05 -0.03365766 0.043391116 -0.10567619 0.09078387 0.068780795
0.023835465 -0.07785393 0.041999716 -0.100421585 0.020767605 -0.027456911 -0.107376285 -0.021654854
0.091465384 -0.057973977 0.04510838 -0.09452599 0.08715079 -0.062305745 0.08678474 -0.072513856
-0.030369075 0.079960726 -0.006649191 -0.040500488 -0.011006825 -0.055251803 0.09069799 -0.10080971
-0.036195986 0.10791328 -0.08957318 -0.107170284 0.12232839 -0.050361454 -0.045897808 0.07161625
0.025026815 0.014476919 -0.022821264 0.102885 0.07330093 -0.03414401 0.11671796 0.09287997
0.057312764 0.024767 -0.034070306 0.016674366 -0.03952267 0.010869897 0.12697594 0.107244045
0.029144691 0.006472548 -0.0967303 -0.048818976 0.020973597 0.057601966 0.06980402 0.10933402
0.04959517 0.081235245 -0.071895726 0.029406141 0.105247125 0.065341815 -0.0573718 0.093656525
-0.048374992 -0.026544381 0.058359012 0.097705565 -0.074299805 -0.01056896 0.024908746 0.044536255
-0.03940838 -0.12774305 -0.013199356 0.11739933 -0.08366604 0.08288385 -0.038761266 0.08781965
00000000: 9a2e 00be 6bb2 9d3d 086c eb3a 104a bbbd
00000010: f192 c93d 0c35 a2bc 3c25 283d 6ead 273d
00000020: cd16 cdbc 5fa1 d13d 56c9 2e3d b1e4 293d
00000030: 9800 9b3d 8096 5b3d da95 fcbb 693f b8bd
00000040: b51a f1bd 9446 83bd 4dae 413d 4775 c93b
00000050: 8c3a a5bc 7271 7bbd 0fbc 913d 31b6 8cbd
00000060: 0fed 8ebd 3b45 a6bd c3cd 47bd ce47 2d3d
00000070: 08c9 5dbd 4f6f 4dbc 2675 023e 75e6 c7bd
00000080: 1b95 5cbd d7f1 823d aa24 8e3d 9765 8abc
00000090: 8a50 693d 1650 19bd 622a 0b3e 2c10 a2bc
000000a0: 8d02 033d 4143 d83b 2b87 5f3d 71b5 dcbc
000000b0: 8912 d33d 4c27 b7bd bc92 50bd ee29 b63c
000000c0: 3be4 8f3c a39d 47bd 1100 3d3d 6003 833d
000000d0: e434 96bd 2b63 fabd d4c8 683d 1a3c e2bd
000000e0: bb49 7f3d a471 823d 5ae7 793c 1cab 49bd
000000f0: 08d3 17bd 47cb 74bd 2d25 983d df24 c43c
00000100: bcb0 d13d 194b e2bd 74f4 f23d ad19 dc3d
00000110: 71ec bd3b 6a13 2ebb cb9e 84bb 1f36 8cbd
00000120: cff8 043e 86dd 423d 5133 06bd 23a8 dcbd
00000130: f05a 3b3d c0a9 733d 3848 903d 37b9 763d
00000140: 36c4 7fbd 2acb cabd 6a86 173d cdbf 10bd
00000150: a4dc 2cbd e5a3 b1bd 6919 a53d 883c 703d
00000160: 2c42 79bd 842a 82bd e09d c73c d271 353d
00000170: 7eba 223d 9055 fcbc c396 f23d c289 cd3d
00000180: 2f0e a0bd 9053 bc3d 7833 bdbd 7440 423d
00000190: 1868 e9bd 1991 2dbd f0d4 b8bd 87b6 f2bc
000001a0: d516 dcbd 0036 343d ce00 9c3c 20df a53c
000001b0: 0d4d 553d 17b9 a7bd ba59 a4bd f3b0 9abd
000001c0: bcfc 81ba d001 b83d cc0a c03c cb1f a53d
000001d0: 9751 833d ecf0 00bd b472 073e 38bb a7bd
000001e0: bde0 a23d 0ef1 97bd c8c0 eb3d 05cd e2bc
000001f0: c49b d5bc d62f f3bd 0a9f 213c a81c eabd
00000200: abd7 89bd 9475 55bd 9010 c8bd 7b84 81bd
00000210: f35f 603d 71ff 88bd 33ca e0bc c288 18bd
00000220: 2a1c 95bd 6319 cfbd e3b3 db3d e581 d3bd
00000230: 22a0 243d e9bf 7fbc e9ba a93d 60fa 7abd
00000240: 0262 52bd 5db0 3abd 0ec5 553c 4c3f c23d
00000250: d68e 4b3d 21e1 11be 5161 b03d e1a9 3b3d
00000260: 36cf e3bd 6980 dcbd 406c 6ebb 977e efbd
00000270: f7a0 f43d 9a66 b63d 0c2a 91bd bc44 683d
00000280: a485 afbc 5583 f4bd b0fe cabd 759e 5bbd
00000290: 7a32 d03c 02e5 9d3d e6a5 75bd 2102 efbd
000002a0: 4fdb c03d 87ec 4a3a c07a 2b37 9ddc 09bd
000002b0: e2ba 313d c26c d8bd e5ec b93d f2dc 8c3d
000002c0: 9842 c33c e271 9fbd e507 2c3d d5a9 cdbd
000002d0: d320 aa3c 51ed e0bc 19e8 dbbd 8565 b1bc
000002e0: 3452 bb3d 1f76 6dbd 91c3 383d d896 c1bd
000002f0: 1d7c b23d 4f34 7fbd 33bc b13d 2582 94bd
00000300: 91c8 f8bc 73c2 a33d 75e1 d9bb d7e3 25bd
00000310: f855 34bc b74f 62bd debf b93d 5275 cebd
00000320: 3e42 14bd a301 dd3d 2572 b7bd 187c dbbd
00000330: 4f87 fa3d d047 4ebd 57ff 3bbd 8aab 923d
00000340: 0905 cd3c 9930 6d3c a9f3 babc 5fb5 d23d
00000350: cc1e 963d 97da 0bbd d309 ef3d db37 be3d
00000360: cac0 6a3d 2ae4 ca3c 4e8d 0bbd ae98 883c
00000370: 86e2 21bd a717 323c fb05 023e c4a2 db3d
00000380: d9c0 ee3c ab17 d43b 891a c6bd 68f6 47bd
00000390: d2d0 ab3c 0af0 6b3d 69f5 8e3d 84ea df3d
000003a0: 4e24 4b3d aa5e a63d 113e 93bd 26e5 f03c
000003b0: ce8b d73d eed1 853d b1fe 6abd fece bf3d
000003c0: db24 46bd 9a73 d9bc dc09 6f3d db19 c83d
000003d0: 7f2a 98bd 6e29 2dbc 6d0d cc3c a66b 363d
000003e0: ae6a 21bd 13cf 02be 1d42 58bc 0f6f f03d
000003f0: 1a59 abbd 02bf a93d 22c4 1ebd cada b33d

actor.weight f4 [5, 64]
0.11858104 0.07512562 -0.11978139 0.031604312 0.08413056 0.15582074 -0.105364464 -0.15536228
-0.13984287 0.07824857 -0.009011737 -0.0739418 -0.058904544 -0.08499405 -0.022605252 -0.09924843
0.030430844 0.11794064 0.052132078 -0.107266925 0.014779297 -0.010235481 0.021571362 0.107753605
0.13300787 0.074742384 0.057399586 -0.07044929 -0.15142557 0.047962442 -0.04486178 0.03575539
-0.04791242 -0.0029269978 -0.013730381 0.0076443553 0.14263888 0.021799635 0.09488015 0.017162897
0.050710756 -0.11991376 0.12887886 -0.14538178 -0.097468145 0.06428093 -0.049225863 0.06953329
0.09862311 0.10222438 0.13660803 -0.062425453 -0.027125131 -0.033935405 0.19416769 -0.0074594542
-0.027155116 0.028434074 0.003680783 0.031387467 0.047282852 -0.022030126 -0.021360526 -0.05613779
0.010364948 0.0849804 -0.15422328 0.024052786 -0.018460955 0.13053378 0.0170553 -0.041823227
-0.15003178 -0.091998085 -0.052682057 -0.054637454 0.016878903 0.15614353 -0.091743104 -0.044897027
-0.12942673 -0.009276535 -0.04682725 0.022704327 0.0066909 -0.07918458 -0.119936876 -0.18551546
0.12595555 0.107233904 0.031650066 0.061559632 0.0012956522 -0.08091841 0.034525387 0.024860013
0.07540093 -0.096398756 0.01094568 -0.027308118 -0.12098716 0.026085658 -0.1177215 -0.045202535
-0.027811483 0.084794596 0.17813581 0.043307386 0.0565669 -0.079753414 0.003810186 0.12538888
0.18181767 0.023525903 -0.03613638 -0.037111025 -0.046462595 -0.07230501 0.018629918 0.026549852
0.02370147 -0.01726118 -0.07304001 -0.010443066 -0.056936145 0.11389072 -0.0860246 0.20476022
0.055953983 0.07536844 -0.014045724 -0.01837691 0.02876845 0.09565748 0.03206527 -0.01212549
0.20055076 -0.04425704 0.007224364 0.062382028 -0.019872703 -0.19972567 0.17512253 -0.091297455
-0.13715342 0.04048706 0.048712235 0.029637799 0.06793742 -0.05356307 -0.115862586 0.1524168
-0.05329422 0.07202284 0.030682748 -0.034794856 0.042097762 -0.07127248 -0.0764656 -0.02769869
0.17165488 0.025913564 0.0017886227 -0.16369632 -0.06351469 -0.015196884 -0.1420653 -0.018767066
-0.08679693 -0.15185653 0.14231202 -0.008953376 0.09960281 -0.11631052 0.035124898 -0.09407291
-0.081793256 -0.08926375 -0.1291255 0.036643535 0.10016931 0.055220626 -0.0072049983 0.10187876
-0.068287745 0.1627374 0.03733576 0.07080868 -0.058112286 -0.0438703 -0.191011 -0.03595412
0.14899251 0.03515637 -0.07347676 0.07457168 -0.052761484 -0.06321916 0.087446734 0.042399112
-0.058951937 -0.007086834 0.020233607 0.039096843 -0.0602298 -0.06909459 0.04024098 0.10440906
-0.16207 -0.09119636 0.07708767 0.05509727 0.025337456 -0.013091794 0.1319677 0.02543011
-0.17343858 -0.05157554 0.007438408 -0.003377989 0.03625582 -0.13247886 -0.064253464 0.07773997
-0.12176876 -0.1041176 0.111393385 -0.19198433 0.08549846 -0.010188714 0.038542993 -0.08636333
0.096965365 -0.11288087 0.017768335 -0.07854779 -0.023727762 0.21760726 0.05080509 -0.19796677
0.15309332 -0.010265399 -0.053865552 -0.08363012 0.15561514 -0.012012446 -0.04328087 0.05744689
-0.03225238 -0.115496695 -0.042905528 -0.074528664 0.10639823 0.07092294 0.026750289 -0.12601107
00000000: 9eda f23d 76db 993d f24f f5bd 8673 013d
00000010: a54c ac3d 798f 1f3e 53c9 d7bd 4a17 1fbe
00000020: f832 0fbe c940 a03d f7a5 13bc cc6e 97bd
00000030: e445 71bd 5c11 aebd a62e b9bc c342 cbbd
00000040: 1b4a f93c dd8a f13d 7288 553d c3ae dbbd
00000050: dd24 723c b8b2 27bc 6db6 b03c ecad dc3d
00000060: 3733 083e 8912 993d d41b 6b3d b847 90bd
00000070: 4e0f 1bbe 4474 443d fcc0 37bd 3e74 123d
00000080: d03f 44bd e0d2 3fbb 64f5 60bc 807d fa3b
00000090: ed0f 123e 2695 b23c 8650 c23d 3499 8c3c
000000a0: 15b6 4f3d 5895 f5bd d2f8 033e f6de 14be
000000b0: 619d c7bd b8a5 833d 0fa1 49bd 7867 8e3d
000000c0: eafa c93d 045b d13d fae2 0b3e d5b1 7fbd
000000d0: 8635 debc daff 0abd e5d3 463e 706e f4bb
000000e0: 6874 debc 93ee e83c 4b39 713b 2590 003d
000000f0: aaab 413d 8678 b4bc 45fc aebc bdf0 65bd
00000100: bed1 293c 340a ae3d b5ec 1dbe 590a c53c
00000110: 6e3b 97bc a6aa 053e 8eb7 8b3c d54e 2bbd
00000120: eea1 19be 7e69 bcbd 24c9 57bd 86cb 5fbd
00000130: a045 8a3c 17e4 1f3e cfe3 bbbd f2e5 37bd
00000140: 7188 04be 9cfc 17bc eecd 3fbd 6dfe b93c
00000150: 563f db3b 862b a2bd 77a1 f5bd c4f7 3dbe
00000160: 7efa 003e 739d db3d 80a3 013d f425 7c3d
00000170: e0d2 a93a 8db8 a5bd 7e6a 0d3d 3aa7 cb3c
00000180: ce6b 9a3d b66c c5bd 8255 333c 46b5 dfbc
00000190: 1ec8 f7bd 97b1 d53c f817 f1bd 4b26 39bd
000001a0: e8d4 e3bc caa8 ad3d 3c69 363e 1663 313d
000001b0: b2b2 673d c255 a3bd 50b4 793b f165 003e
000001c0: 692e 3a3e 65b9 c03c be03 14bd bb01 18bd
000001d0: 904f 3ebd a614 94bd c59d 983c 137f d93c
000001e0: 9629 c23c 5167 8dbc 0096 95bd 6519 2bbc
000001f0: e035 69bd 8a3f e93d aa2d b0bd aaac 513e
00000200: 0130 653d c55a 9a3d 0920 66bc 2c8b 96bc
00000210: d0ab eb3c 12e8 c33d df56 033d fea9 46bc
00000220: 2e5d 4d3e df46 35bd 5cba ec3b 4c84 7f3d
00000230: 14cc a2bc e384 4cbe 5253 333e 29fa babd
00000240: f271 0cbe c2d5 253d 7b86 473d f8ca f23c
00000250: c622 8b3d f364 5bbd 5d49 edbd 2613 1c3e
00000260: 0a4b 5abd b680 933d 635a fb3c 0d85 0ebd
00000270: b46e 2c3d 4ef7 91bd ff99 9cbd 5de8 e2bc
00000280: 4cc6 2f3e af48 d43c 3870 ea3a 02a0 27be
00000290: fd13 82bd 5afc 78bc 9179 11be 64bd 99bc
000002a0: 97c2 b1bd 4780 1bbe 3eba 113e 2eb1 12bc
000002b0: 8ffc cb3d 3634 eebd 20df 0f3d 4ca9 c0bd
000002c0: 3983 a7bd eacf b6bd 7a39 04be 8817 163d
000002d0: 9125 cd3d 062f 623d e817 ecbb d0a5 d03d
000002e0: 72da 8bbd a2a4 263e 62ed 183d 2404 913d
000002f0: 2607 6ebd 58b1 33bd 6398 43be a144 13bd
00000300: 7e91 183e 2000 103d fc7a 96bd 09b9 983d
00000310: 6d1c 58bd 0c79 81bd 4617 b33d b1aa 2d3d
00000320: 9677 71bd ac38 e8bb f3c0 a53c 0324 203d
00000330: 86b3 76bd 7781 8dbd bad3 243d 6bd4 d53d
00000340: aef5 25be 28c5 babd 24e0 9d3d adad 613d
00000350: 7f90 cf3c f77e 56bc 8a22 073e ce52 d03c
00000360: e299 31be e040 53bd e4bd f33b 4061 5dbb
00000370: fc80 143d 8aa8 07be 5297 83bd 2236 9f3d
00000380: e661 f9bd 9c3b d5bd 3722 e43d 8a97 44be
00000390: d119 af3d 90ee 26bc 42df 1d3d 42df b0bd
000003a0: c795 c63d 162e e7bd e68e 913c aadd a0bd
000003b0: b960 c2bc 70d4 5e3e 0019 503d cdb7 4abe
000003c0: 7fc4 1c3e 3430 28bc 20a2 5cbd 4546 abbd
000003d0: 9359 1f3e dacf 44bc 4847 31bd 6e4d 6b3d
000003e0: 121b 04bd 8889 ecbd b5bd 2fbd 7ca2 98bd
000003f0: 51e7 d93d 0c40 913d 6c23 db3c 0c09 01be

actor.bias f4 [5]
0.04948631 0.010237135 0.07658023 0.01279941 -0.12092716
00000000: 28b2 4a3d a8b9 273c 18d6 9c3d 9eb4 513c
00000010: a9a8 f7bd

critic.weight f4 [1, 64]
0.10179988 -0.0866362 -0.15591326 -0.11081399 -0.093846954 0.1181874 0.041456167 -0.08880632
-0.12643051 -0.07853306 0.15306641 -0.0014013909 0.049783427 0.21950908 -0.06637491 0.0047170566
0.13325326 0.14053002 0.001221776 -0.11204712 0.26825815 -0.15629311 -0.05156508 -0.0460928
0.038536303 -0.021021295 -0.0044075325 -0.07121099 -0.028982513 0.2067999 -0.16100097 -0.15877913
-0.11348492 0.009857468 0.013476121 -0.0030942094 -0.1365436 0.067721345 -0.0940416 -0.107902296
0.0703973 0.090375245 0.06966538 0.019005416 0.0702893 -0.020621266 0.034322567 -0.16764128
0.08311171 -0.025975874 -0.0521073 -0.11434159 -0.0033801496 0.04346756 -0.09168266 -0.0037402324
-0.025515288 -0.047035683 0.11518575 -0.08940971 -0.24857628 0.095476724 0.04883302 0.16440377
00000000: 757c d03d 526e b1bd baa7 1fbe 72f2 e2bd
00000010: d532 c0bd 3c0c f23d f1cd 293d 17e0 b5bd
00000020: 0077 01be f1d5 a0bd 71bd 1c3e e0ae b7ba
00000030: b5e9 4b3d fdc6 603e 92ef 87bd 8a91 9a3b
00000040: 8b73 083e 1ae7 0f3e 0024 a03a f678 e5bd
00000050: 2259 893e 4d0b 20be e835 53bd cecb 3cbd
00000060: 3ed8 1d3d da34 acbc 106d 90bb 11d7 91bd
00000070: bc6c edbc 5ac3 533e 70dd 24be ff96 22be
00000080: c86a e8bd 3881 213c f3ca 5c3c 38c8 4abb
00000090: 16d2 0bbe 7db1 8a3d e298 c0bd e1fb dcbd
000000a0: 762c 903d a816 b93d b9ac 8e3d 3fb1 9b3c
000000b0: d6f3 8f3d eeed a8bc d295 0c3d 28aa 2bbe
000000c0: 7936 aa3d 5bcb d4bc 776e 55bd ec2b eabd
000000d0: 8085 5dbb 0a0b 323d 1ec4 bbbd b01e 75bb
000000e0: 7005 d1bc 7da8 40bd 82e6 eb3d 701c b7bd
000000f0: c88a 7ebe 4d89 c33d 2205 483d 7659 283e
