checkpoints/agent_2_best.pt (torch, 179545 bytes, 11 tensors)

encoder.0.weight f4 [16, 5, 3, 3]
00000000: e323 8bbe 9b4d e43d f038 55be bed8 bd3d
00000010: 571e ddbd d123 3e3d 1f24 0fbd 4772 97bd
00000020: e820 093c be44 d0bd e403 763d aa5e 883d
00000030: cf29 b93c e40a fe3c 8c89 623d 65e6 3a3e
00000040: b9f7 4abe 1274 66be c04f 63bd 1804 d93d
00000050: e69c a33c 98bf a7bd 4830 923e a04c b1ba
00000060: f648 313e c958 1dbe 071a 66be fc56 a33a
00000070: 0a57 f73d 7f6f 29be 157b 92bd ef01 f63d
00000080: 6a33 9b3c 04fc 4f3d a890 6fbd e70f 0f3d
00000090: bca6 13be 0c4f 77be 8b14 19bd 40ff 4d3d
000000a0: afff c03c 255f 213e 867f a2bc 22bf eabd
000000b0: ca56 213d 66d2 133d 16ed 7a3e 7e7d 203c
000000c0: f0c6 8cbd cfc4 7fbe 412e 32be 1242 0dbd
000000d0: 6f3c 893d 8676 b1bd 76fb 9d3c 8018 373b
000000e0: 66b2 4cbe 02d4 1b3d 1a03 0b3d 7fe2 a23d
000000f0: d14d 2e3d eac5 f3bc fcef 733c e6ce 3fbc
00000100: 2577 02be d644 62be 05f1 01bd 330f 923d
00000110: b837 10bd 5c21 d0bd e6b5 403c c0e9 1f3e
00000120: 5aa5 293d 651d c3bc 4953 ddbc 9c3a a6bc
00000130: 91b1 54bc 4026 09bd 7e04 bbbc 705e fb3c
00000140: 4035 8139 6ae2 5d3d eddb 34bc e21a 613d
00000150: d68f 203d 208b edbd b856 883d 9187 2abe
00000160: bc7b fd3d 4a22 0abe 0892 83bd bdaa cabd
00000170: 470b b0bd 0892 753d 975b 913d 46e7 1ebd
00000180: 1a90 593d 7209 edbc 0297 213e 4284 5a3c
00000190: 2333 15be d920 ba3d 91b6 df3d 6095 74bc
000001a0: cb0b 37be 8c05 833d da5c ffbd d16b e83d
000001b0: 943f 01be 2c14 eebd 3a38 cfbc fff9 3dbe
000001c0: 2e83 dfbc 02df 1dbe f48a c33b a233 d43c
000001d0: da39 d63d dab9 66be 18f8 34be 1afb 20be
000001e0: 931c 85bd 628a 84bd acb3 eb3c baa6 d6bb
000001f0: 6364 f5bc 8b60 eebd 8c6c 813d d43b 00be
00000200: 5481 813c 914a 70bd f029 61bd b0b2 953b
00000210: d2ac f4bc deea 9bbd a34a e73d c8cc 123c
00000220: 2676 c43d 3aa6 1abe 1b00 0e3d 378e aebd
00000230: dead ef3d 0e86 2dbd 103b 5abe ecd5 083d
00000240: d5cf 0d3e cc8c 0f3d dbdc 9ebe d416 b93d
00000250: f6aa ae3d bdea d5bd 3bd7 cabd ca8f e23d
00000260: 2ab5 89bd 8086 69ba da42 893d 9a53 4cbe
00000270: 7c24 c7bb f8db 8abd 0039 213b d6af 023e
00000280: 46ae 1abd 5879 d1bc 910d 30be 1c0e 463e
00000290: 87c5 84bd cc1b 0c3e c555 843d 9ced 013d
000002a0: cc7a a33d 726b a2bd f821 0c3e 3ec7 d7bd
000002b0: 5e85 6abd e2e6 6bbe 00c4 38be 193f 7dbd
000002c0: a699 9a3c 2e1f d83c fe1c 1fbe 9004 1c3d
000002d0: edf1 9fbd 1a92 07be b02c 1ebe 064f 0bbe
000002e0: b6c6 7a3d 605c 073e dca4 3e3e 4d11 c4bc
000002f0: c571 ea3d 221c d6bd 33ce 5a3d 6e50 3abc
00000300: a20a 463d 288b 8bba 5148 123e a2be ae3d
00000310: 0ee5 a1bc 6aab 483d c84b 1fbd 2204 303e
00000320: 58b0 333e d39c 30bd f7cf 20be be23 703e
00000330: 8220 dc3d 313f 95bc b288 d5bd 0472 ac3d
00000340: 666d 2bbd 6872 613c 410b 4abe ee0f db3d
00000350: fc6c 12be 5d72 163e 0134 d5bd 9507 1dbe
00000360: 49c6 15bd f63f 943d 135b 2bbd fc36 adbd
00000370: 2c80 78be d1b4 4bbe 6390 46bd 7cdf ab3d
00000380: 623f 12be 579f 96bd cc2e 093e 6425 b73c
00000390: e058 84bc 9632 3a3d 74a2 5a3e 2a9e 373c
000003a0: 7a05 c43c 3183 193e 0a03 36be 5e65 afbd
000003b0: e267 383d 281d 5d3e aebe 0d3d 3fcf a9bc
000003c0: 30d0 33be 3066 94bd fefc acbd 2167 b33d
000003d0: d746 3b3d 7847 863d bc94 07bd 6512 69bd
000003e0: 4598 fe3d 1769 c7bd ac8c f13c 053d 45be
000003f0: a681 b23c 1acf 31be 5c41 ed3d e494 113e
-0.27175817 0.111476146 -0.20822501 0.09269856 -0.107968025 0.046420876 -0.034946557 -0.073948435
0.008369662 -0.101693615 0.060062304 0.06658681 0.022602944 0.031011052 0.055306956 0.18251951
-0.19821061 -0.22505215 -0.055495977 0.10596484 0.019972276 -0.081908405 0.2855246 -0.0013526864
0.17312989 -0.153659 -0.22470866 0.0012461836 0.12077148 -0.16546439 -0.07152382 0.120120876
0.018945415 0.05077745 -0.058487564 0.034927275 -0.14419073 -0.24151248 -0.037373107 0.050292253
0.02355942 0.15758951 -0.019836199 -0.11462237 0.03938941 0.036089323 0.24504504 0.009795545
-0.06873882 -0.2497742 -0.17400457 -0.034486838 0.0670098 -0.08665185 0.019284945 0.0027938187
-0.19989929 0.038043983 0.033938505 0.07953357 0.04255468 -0.029757459 0.01488876 -0.011707043
-0.12740763 -0.22096571 -0.031723995 0.07131805 -0.035209388 -0.10162613 0.011762118 0.15616512
0.041417457 -0.023817727 -0.027017253 -0.020291619 -0.012981788 -0.033483744 -0.02282929 0.03068468
0.00024644472 0.054171003 -0.0110387625 0.054957278 0.039199673 -0.115988016 0.06657165 -0.16653277
0.12377116 -0.13489643 -0.064243376 -0.09895847 -0.08595901 0.05995372 0.070975475 -0.03879478
0.05311594 -0.028935168 0.15780261 0.013337197 -0.14570288 0.090882964 0.10923494 -0.014928192
-0.17875592 0.06397542 -0.12468882 0.11348689 -0.1262191 -0.11624941 -0.025295366 -0.18552397
-0.027284231 -0.15417102 0.0059674922 0.025903527 0.10460253 -0.22531834 -0.17672765 -0.15720788
-0.06499591 -0.06471707 0.028772198 -0.006550637 -0.029955095 -0.11639508 0.06319532 -0.12522823
0.015808739 -0.058664862 -0.054971635 0.0045684204 -0.029867563 -0.07613157 0.11293533 0.0089599565
0.095928475 -0.15102473 0.03466807 -0.08523219 0.117030844 -0.042364173 -0.21311593 0.033407137
0.13848813 0.035046384 -0.31027874 0.09037557 0.08528702 -0.104451634 -0.09904333 0.11062582
-0.067240074 -0.00089082867 0.06702204 -0.19953766 -0.0060773473 -0.06780237 0.0024600625 0.12762389
-0.037763856 -0.025570557 -0.17192675 0.1934132 -0.06482988 0.13682479 0.06461672 0.031720743
0.07982406 -0.0793065 0.13684833 -0.10536049 -0.057256095 -0.23037294 -0.18043518 -0.061827753
0.018872093 0.026382055 -0.15538403 0.03809029 -0.078098156 -0.13239327 -0.15446734 -0.13604364
0.06122466 0.13218832 0.18617576 -0.02393403 0.11447481 -0.10454585 0.053419303 -0.011371715
0.048349984 -0.001064633 0.14285399 0.08532454 -0.019762542 0.0489916 -0.03889063 0.17189077
0.17547739 -0.04311831 -0.15704332 0.23451135 0.10748388 -0.018218609 -0.10426463 0.08420184
-0.041852377 0.013760187 -0.19730856 0.10696398 -0.14299387 0.14692064 -0.104103096 -0.15334924
-0.036566053 0.07238762 -0.041834902 -0.08457753 -0.24267644 -0.19893195 -0.04847754 0.08392236
-0.14281991 -0.073546104 0.13396758 0.022356696 -0.01615566 0.0454584 0.21351033 0.011207143
0.023928393 0.14991452 -0.17774597 -0.08564256 0.045020945 0.21593153 0.034605674 -0.020728705
-0.17559886 -0.07246053 -0.08446692 0.08759905 0.045721855 0.065566 -0.03310083 -0.056902308
0.12431387 -0.09736841 0.029486023 -0.19261558 0.021790337 -0.17364159 0.11584732 0.14216954

encoder.0.bias f4 [16]
00000000: 0619 e03d 84d3 003e 77a8 0bbe ab67 87bd
00000010: b489 f5bb c791 ad3d 9b8b 04bd be83 983d
00000020: 3c20 093e 310d 0bbe def6 be3d 3e56 183e
00000030: bc53 c5bd 64f1 cfbb eb77 1d3e 5656 0bbd
0.10942273 0.12580687 -0.13638483 -0.0661157 -0.007493222 0.084750704 -0.0323597 0.07447003
0.13391203 -0.13579251 0.0932443 0.14876649 -0.09635112 -0.0063459147 0.15377776 -0.034017883

encoder.3.weight f4 [64, 144]
00000000: 59c3 dd3c f1ee 963d 585d 703c fba2 0d3e
00000010: 379e d6bb f217 a4bd 0865 acbd fe1e 053e
00000020: 23d2 e7bd 8865 9b3d 96d0 a9bd 8e1d 863d
00000030: 40ee e3bc 2147 d9bc 9f57 05bd 8b5f bd3d
00000040: 569a e9bc 7693 09bc cecb 56bd 3a69 0b3e
00000050: 9ca1 11bc a878 7cbe 22e4 a63d e2dd 8fbd
00000060: 2694 a73c a548 f73d 6a67 01bd 62e5 1fbe
00000070: 26a2 a9bd 9c8a a43d f0ae 533d 5194 bfbd
00000080: 3ad4 dfbc 5854 9c3b 6008 6a3a 8775 063e
00000090: 5159 04bd 7da2 a43d 3355 23bd 8680 14be
000000a0: 9099 e5bd 22fb 1b3e 60d6 903d 2a70 f13d
000000b0: f85e 773b 2200 17bd 585a 01be 20db 3b3d
000000c0: ab2d 58bd 7236 a33c e2ac 18bd cbaa 8dbd
000000d0: a08f e5bb d4c8 b93d 34a3 80bc b767 55be
000000e0: 2198 22be 4ac7 153e 3462 e6bd 1004 b5bc
000000f0: f241 70bd 3c06 81bd 9747 9fbc 3327 8dbe
00000100: 6a90 883d c21c 0f3d 981f a23d d7bd e9bd
00000110: ee55 a13d 30ab 3c3c bd41 723e 2624 d23d
00000120: 3e3c dabd 1199 38be 7626 cdbd b4c8 8c3c
00000130: 202b 063e 5c53 76bd e066 f73b 4ae9 f03c
00000140: 1233 c0bc 883b 02bb c78f bfbd f514 78bd
00000150: 00b6 983c e369 023e a027 cd39 6d87 1b3e
00000160: adfd 29be e7f5 b63d d26d 383c 0c34 85bd
00000170: 186d 073b da4e d33c 045c 643e 3467 43bd
00000180: fc98 b1bd 949f 03be ef33 10bd 9b32 ddbd
00000190: 2c0e 8c3d 3a6a 113d a84b 6e3d 4c31 f7bc
000001a0: 98c6 b83c e846 c93d e683 a03d f2fa f03c
000001b0: a451 6cbd 4491 36be 9c44 c5bd 3ae3 9fbc
000001c0: ce14 abbd 4019 593d 16fc 993d 3cdc f03b
000001d0: d847 d73d 99f0 033c c81a 5bbd 2234 92bd
000001e0: 4b57 d73c d0c0 dfbd 8a6b 733d fdd8 5abd
000001f0: 5025 56ba bae5 03bd 3e2c f23b 7b3d 5f3d
00000200: 9c93 493d 2938 3f3d 9342 a63b 3fab d03c
00000210: 5a46 87bd bb54 46bd aa2f 9abd af94 f9bd
00000220: be59 d73d 937f b23d 8ee2 8e3d b067 453b
00000230: 0c90 42be 6701 1cbe 29f1 19be 2336 dabc
00000240: 73aa 503d 7ace c2bd e021 b23d d0e7 74bd
00000250: 4c03 22bd 4075 38ba 8ed5 39bc ae3c 4f3c
00000260: 8dca 57bd 1aa0 c23d 1d22 a1bd 6ccb 7e3c
00000270: cc74 babd 7c05 d3bc 50ae 43ba 8e8d 8dbd
00000280: 7a02 0ebd 443b e3bc 0327 90bd 404e a43b
00000290: 5e47 0f3e e350 143e 2f08 523c f05e 9cbc
000002a0: 15a5 373d ac16 c8bd be2a 01bd d353 403e
000002b0: 30aa babd 4bc8 fa3c 6089 103e 78b3 d73d
000002c0: 243f c0bc 4c78 ea3d a04c e53b ecdc 123d
000002d0: 447a 15bd 18e1 cfbd 8667 113e e802 8abc
000002e0: f24b 923d dae8 85bd 892e b5bd 461f 003c
000002f0: b0cc 453c 2414 c3bd 7564 6cbe 7ab8 953d
00000300: a420 30be ba45 9dbd 9bb6 9dbd ac7f dd3c
00000310: c4b2 9a3d 267c 953d 98f7 a93d f73f f7bd
00000320: d184 86bc 931b 233d b42f 143c fd12 75bd
00000330: 9b16 34bc cc76 70bd c16e 813d 8e39 7f3d
00000340: 6cba 0e3e 3258 c0bc a781 4cbd a45e 40bd
00000350: 0392 e63c f38d 26bd d6a8 2a3d 09af 6fbd
00000360: 62a6 cebd 22e9 733d de4f 13be d0d0 ab3b
00000370: 9344 bcbd d06b 2c3e ab6f 183e 8250 143d
00000380: 262b b33d dad2 bfbc 9505 c83d 0cdc 333e
00000390: e639 e1bc ec3a d4bc 6c1a e73c d548 8f3d
000003a0: 04b8 86bd 686f 0cbe 7e58 353e 221f 863d
000003b0: 60e0 cfbd 8039 a93d d7e0 af3d 7e6e 333d
000003c0: 2857 fa3d bec4 80bd c2a4 e53c 441e 42bd
000003d0: dc20 ccbd e4af e5bd 703f bcbd 6243 76bd
000003e0: 14fe ccbc 4772 463e a309 f53c 07c0 bfbd
000003f0: 2561 003e 92d1 7a3d 6168 b53d 820f 9bbd
0.027070688 0.07369793 0.014670692 0.13831703 -0.0065496224 -0.0801238 -0.08417708 0.13000104
-0.11319377 0.07587725 -0.08291738 0.06548606 -0.027823567 -0.026523175 -0.032554265 0.09246739
-0.028515976 -0.008396974 -0.052440457 0.1361436 -0.008888628 -0.24655402 0.08148982 -0.07024743
0.020456385 0.12074403 -0.031592764 -0.15614846 -0.082828805 0.0803425 0.051680505 -0.09354461
-0.027322877 0.0047707967 0.00089276396 0.1313077 -0.03231174 0.08038805 -0.039876174 -0.14502153
-0.1121093 0.15232518 0.07072139 0.11788972 0.0037745815 -0.03686536 -0.1263212 0.04586327
-0.052777927 0.019923422 -0.03727425 -0.06917342 -0.007005647 0.09071508 -0.015702821 -0.20840345
-0.15878345 0.14626804 -0.112491995 -0.022096664 -0.05865664 -0.06300017 -0.019443316 -0.2756897
0.0666817 0.034939535 0.07916182 -0.11413162 0.07877718 0.011515424 0.2365789 0.10260801
-0.106560215 -0.1802714 -0.100171015 0.017185546 0.13102388 -0.06013809 0.0075501055 0.029408116
-0.023461852 -0.001987191 -0.09353595 -0.06056686 0.018641472 0.12735705 0.0003913017 0.1518838
-0.16600676 0.08933621 0.011256652 -0.06504068 0.002066439 0.025794435 0.22300726 -0.047705844
-0.086717576 -0.12853843 -0.035205778 -0.10800668 0.068386406 0.035501696 0.05817762 -0.030174874
0.022555634 0.098279774 0.07837658 0.029416535 -0.057695046 -0.17828852 -0.09632227 -0.01951753
-0.083535776 0.053002596 0.07518785 0.0073504727 0.1051175 0.008052968 -0.053492337 -0.0713885
0.026286742 -0.10925448 0.05942873 -0.053429592 -0.0008169012 -0.032201506 0.007390528 0.05450199
0.049213037 0.046684418 0.0050738542 0.025472282 -0.06605215 -0.04842065 -0.075286224 -0.12186562
0.10515164 0.08715739 0.069768056 0.0030121617 -0.19000262 -0.1523491 -0.15033402 -0.026637143
0.050943803 -0.095120385 0.086978674 -0.059791386 -0.039553925 -0.00070365146 -0.011342419 0.0126487445
-0.0526834 0.09503193 -0.07867835 0.015551429 -0.091043085 -0.025759451 -0.0007464634 -0.06911765
-0.03467033 -0.027738221 -0.07038691 0.005014211 0.13992068 0.14483981 0.012819334 -0.019088238
0.04483517 -0.09769949 -0.031534903 0.18781976 -0.09114492 0.030613085 0.14114904 0.10532278
-0.023467608 0.11448726 0.00699766 0.03585522 -0.036493555 -0.10150355 0.14199647 -0.016847089
0.07143392 -0.065385535 -0.088467665 0.007819956 0.012072727 -0.09525326 -0.23085196 0.07310577
-0.17199951 -0.07679315 -0.07700845 0.027038418 0.07553628 0.0729907 0.08299178 -0.12072747
-0.016420754 0.03982122 0.009044576 -0.05983256 -0.010991718 -0.058707044 0.06319953 0.062310748
0.13938302 -0.023479555 -0.049928334 -0.046965256 0.028145796 -0.040662717 0.04166492 -0.058516536
-0.10090329 0.059548505 -0.14385936 0.0052433982 -0.09192767 0.16838002 0.14886348 0.03620959
0.08748464 -0.023415972 0.0976669 0.1756441 -0.027493428 -0.025907002 0.028210841 0.069963135
-0.06578067 -0.13714373 0.17709538 0.06548907 -0.10150218 0.082629204 0.08587807 0.043806545
0.12223655 -0.062875256 0.028032664 -0.047392145 -0.09967205 -0.11215189 -0.09191787 -0.060122855
-0.025023498 0.19379531 0.029911822 -0.09362798 0.12537058 0.061235018 0.08857799 -0.07571317

encoder.3.bias f4 [64]
00000000: 7036 05bd 1564 a53c 2707 693d 3860 88bb
00000010: ee02 f03c ac3d 683c fcfd b9bc da3d 02bd
00000020: 4458 1e3d 25a7 04bd a67c 1c3d 1adc 923b
00000030: 5ad7 36bd 57a2 53bd 27e6 693d 45d4 75bd
00000040: d35c 353d 06c2 0cbd f1c1 8c3d 8942 8e3c
00000050: de7d 303d 38d8 6b3c 94f3 413d 424f a93d
00000060: 0c5c 603c f6a2 8dbd 8261 b5bd e7ed 46bd
00000070: fe4d c7bc b84d 943d f3be 703d b9d7 7a3d
00000080: 5819 95bd dc89 243d cd83 a2bc 2e47 93bd
00000090: 5710 0fbd 73d7 96bd a293 79bc 2615 9bbd
000000a0: 445d 873d 6576 c8bc e2ff 8bbc c9dd 21bd
000000b0: ac49 593c 508d a3bd a0cd 20bc d83b 8c3d
000000c0: e7fe 84bc 6247 86bd d0ed 833d 1c9d b83d
000000d0: aac5 96bd 6153 22bd 7c91 babc 1166 50bd
000000e0: 8656 9c3d 6015 813d ba36 76bd 2c9e 30ba
000000f0: 88e8 16bd 7dab 143d 3265 523b 3e0d a43d
-0.03252262 0.020189324 0.056891587 -0.004161861 0.029298272 0.01417486 -0.022704117 -0.031797267
0.038658395 -0.032385964 0.03820481 0.0044818046 -0.04463897 -0.05166849 0.057104256 -0.06001689
0.044277977 -0.034364723 0.06872929 0.01736571 0.043088786 0.014394812 0.047351435 0.0826707
0.013693821 -0.06915848 -0.08856489 -0.048566725 -0.024329182 0.07241386 0.058775853 0.061240885
-0.072802246 0.040170535 -0.019838238 -0.07191311 -0.034927692 -0.073653124 -0.015232952 -0.07572393
0.06609586 -0.024470517 -0.017089788 -0.03951815 0.013262194 -0.079859376 -0.00981465 0.06847352
-0.016234828 -0.06556584 0.064418435 0.09014341 -0.0736192 -0.039630298 -0.02277445 -0.050878588
0.076336905 0.06302905 -0.060110785 -0.00067374366 -0.036842853 0.036296356 0.0032103774 0.08010338

lstm.weight_ih_l0 f4 [256, 64]
00000000: a9fd 80bd 1814 fa3c 844e 193e 1d89 ab3d
00000010: 2498 4cbd 9c5c 31be 7fca 3cbe 6554 2e3d
00000020: 00c0 8e37 4b6a 69bd 0004 3f3b 2679 873d
00000030: 5020 863d 894a 903c e48e 36bd 9c4f 2ebe
00000040: e8aa 433e 1e59 a93d e08b e2bc a6bc cd3d
00000050: 06e5 2c3d 34c3 0f3e 6e66 1b3e d3f6 2bbe
00000060: d99e d4bd 2eb7 183d a981 37be 2507 7c3c
00000070: d36b 64bc e7d6 163e 293f d23d 69a9 c53d
00000080: c93c 5a3e 8478 07be 875d 0f3e 0884 76bd
00000090: ce89 b4bd 3681 20be a627 8cbd 6f3a 0c3e
000000a0: c42e e8bd 1bcc dfbd 13c3 ecbd c433 21be
000000b0: f60e 873d 51ea d83d e054 a3bd 2438 e7bc
000000c0: 99e8 bcbd 8c3d 51bd 51d4 9f3d 0f05 abbd
000000d0: 1471 dd3d 10a0 6a3e f8f7 483d 50ed 0fbe
000000e0: 7052 4ebd d882 d3bb 674a f03d ee99 22be
000000f0: 2b04 5abd 5c1d 17bd 7010 113e bb16 afbd
00000100: 23e4 c43d 5c36 1ebd ed0e 3b3d c620 213e
00000110: 8f47 273d 0555 113e 00ba c53a cf5b 903d
00000120: 8b7b efbd c73a 1cbd 31ad 9abc f236 183e
00000130: 1005 e93b da54 413e cd41 37bd 7ec5 623d
00000140: d4f3 c4bb 1a5b 113e 4b35 e53d 965b e4bd
00000150: 4348 4bbe 4d53 643c 2061 133d 07da ea3d
00000160: 1023 e93d 039a 6f3d aea8 b43d 25b2 22be
00000170: d88c b83d 5083 97bd 0e8a 993d f269 473d
00000180: 855e 39bd e532 253d c270 8fbd d4c7 f6ba
00000190: 708a 1bbb 009b c6bd 4f57 13be e0b6 893e
000001a0: 98b2 fdbd 008f be39 2b83 85bd f286 ac3d
000001b0: 5f51 3b3e 8c67 5abc f185 663d b608 3a3e
000001c0: a3f6 963d 90b6 283a 4235 f83c 06f9 75bc
000001d0: 5b24 6ebd d824 cabb 04c7 c03c 9ac4 1bbc
000001e0: 6301 a63c 6cfd 46be 169c 553d 8847 a93c
000001f0: 403a cf3d 7e17 cf3d 136f 833d 5fd2 de3d
00000200: 92ea c0bd 777c 903c 4821 32bd ed20 22be
00000210: 30f4 3e3d 92cf e83c dc67 023d 6cd3 87bd
00000220: 7d84 c5bd 9b68 af3c 5e84 e93d f6a0 b93d
00000230: 9651 4c3d 287c d03d a1a1 7bbc 3495 3c3c
00000240: 709f 70bd 487e f8bc ef14 203e 2af4 debd
00000250: 981e 1abe 25f6 003e c523 63be ce98 7b3d
00000260: cf9f 0b3e 4d93 7dbc 1f00 6d3d fa6c babd
00000270: 9466 d6bd 0f39 48bc b21b 51bd b879 c73d
00000280: 447b b83d 6221 25bd 5d75 c8bd 0bb0 933d
00000290: 4c3b b8bd bd6b 113d e367 76bd a155 8e3d
000002a0: 2c56 43bd bcc3 14bc b708 dcbc 7af8 143d
000002b0: 12c2 80bd 0992 8abd b4fe 63bc 45ac 35be
000002c0: 3b87 013e 79f0 623d b460 c83d 42a4 7f3e
000002d0: 6932 0ebe 20bf 34be 5e1c 02be 5dc8 943d
000002e0: 6806 24be af13 8dbd d357 42be e4c2 b23d
000002f0: f793 0dbe 5029 e23c 6820 4abc 693f a53d
00000300: 1ad1 a4bd 27e2 e7bb 9926 373e 1546 15be
00000310: 567c b43d 6b0b 0fbe bef2 163e 3f1d f53d
00000320: 395d ad3d 1db6 c73d 8849 1a3c d5b9 b1bd
00000330: b30d 84be f7b5 3abd 0cfd 3fbd b826 103d
00000340: d2c8 813d 55f0 6f3e 5a71 dcbd 7396 833d
00000350: 9f28 52be e2c4 50bd 8082 ddbd 9a25 a63d
00000360: ecd1 293c 7e4c 023e 0791 37be 4093 c7bc
00000370: 58e0 10be fc96 f0bd bf21 523d a46d c3bd
00000380: e67a 09be c291 bf3c f916 30be de57 a9bd
00000390: 1485 fbbb bab0 cf3d 911e 863d 8617 33bd
000003a0: 864c 193e 20e7 c13b b716 efbc 9a4a e93d
000003b0: fd69 263e d9c1 d5bd 02dc 073e ee80 f63d
000003c0: aef4 5bbd 23ac 3cbe 51d2 113e 343a 1c3c
000003d0: ca8b c9bd 512f f0bd 6871 36bd 779c ac3d
000003e0: 2760 9ebd 729d 4fbd 701d 77bd 2d51 44bd
000003f0: bca2 1f3e 38f4 05be f9ca fd3c 1a9d fa3c
-0.06298382 0.03052716 0.14971358 0.08375762 -0.04994978 -0.17320484 -0.18436621 0.042560954
1.7017126e-05 -0.056986134 0.0029146671 0.06614904 0.06549132 0.017613666 -0.044569865 -0.17022556
0.19108164 0.08268951 -0.027654588 0.100457475 0.0422106 0.14039308 0.15175793 -0.16793375
-0.1038186 0.03728407 -0.17920555 0.015382563 -0.013941723 0.14730416 0.10265953 0.09651453
0.2131225 -0.13229567 0.14000522 -0.06018451 -0.08815347 -0.1567429 -0.068435 0.13694166
-0.11337045 -0.10927602 -0.11560645 -0.15742403 0.065946504 0.10591567 -0.07975173 -0.028225012
-0.09224052 -0.051084086 0.07804168 -0.08350574 0.108125836 0.22912621 0.049064606 -0.14055371
-0.050371587 -0.006454807 0.11732941 -0.15879032 -0.05322663 -0.036893234 0.14166427 -0.08549257
0.09613826 -0.03862606 0.04566853 0.15735158 0.040839728 0.14192589 0.001508534 0.07048761
-0.11693486 -0.038141992 -0.018881412 0.1486471 0.007111199 0.18880025 -0.044740487 0.055364124
-0.006010512 0.14194909 0.111918055 -0.11150281 -0.19851784 0.013935876 0.035981297 0.11467367
0.11383641 0.058496486 0.088212356 -0.15888269 0.09011239 -0.07398093 0.07497035 0.04868502
-0.045256156 0.04033174 -0.07003929 -0.0018827864 -0.0023733638 -0.09697533 -0.14388774 0.26897335
-0.1238758 0.00036346167 -0.06519159 0.08424176 0.1829276 -0.013330352 0.05628008 0.18167385
0.07371261 0.00064358953 0.030298833 -0.015012985 -0.05814014 -0.006168943 0.023532398 -0.009507323
0.020264333 -0.1943261 0.05215081 0.020663992 0.10118532 0.10111903 0.0641767 0.10879969
-0.09419741 0.017637474 -0.04348877 -0.15832873 0.046619594 0.02841929 0.03183733 -0.066321224
-0.09644411 0.021412184 0.114022 0.09063904 0.049882494 0.10179931 -0.01535836 0.011510182
-0.0587458 -0.030333653 0.15632986 -0.10886414 -0.15050733 0.12593897 -0.22181614 0.061425023
0.13635181 -0.015477014 0.057861444 -0.09102817 -0.10468784 -0.012220635 -0.051051803 0.09740013
0.09007886 -0.04031504 -0.0978801 0.07211312 -0.08995685 0.035503138 -0.060157668 0.06949926
-0.0476896 -0.00907987 -0.026859624 0.03636978 -0.06287016 -0.06766135 -0.013915706 -0.17741497
0.12649243 0.055405114 0.0978407 0.24965003 -0.13886417 -0.17651033 -0.12706134 0.07264779
-0.16018069 -0.0688852 -0.18978815 0.08728579 -0.13825975 0.02760759 -0.012336828 0.08068735
-0.080476955 -0.00707652 0.17885818 -0.14577515 0.08812778 -0.139692 0.14741036 0.11968469
0.084650464 0.09751532 0.009416945 -0.08678023 -0.25791702 -0.04558369 -0.046872184 0.035193175
0.063371316 0.23431523 -0.107638076 0.0642518 -0.20523308 -0.050969012 -0.108159065 0.08112641
0.010364991 0.12724492 -0.17926417 -0.024362206 -0.1414808 -0.11747548 0.051301714 -0.09542397
-0.13425788 0.023384932 -0.17196263 -0.082687125 -0.0076757763 0.1014113 0.06548799 -0.043723606
0.14970598 0.005917445 -0.029185636 0.11391182 0.16251369 -0.10437364 0.1326752 0.1203631
-0.05370014 -0.1842504 0.14240386 0.009535361 -0.09841116 -0.11727775 -0.044541746 0.08428281
-0.07733183 -0.05068726 -0.06033081 -0.047928978 0.15589422 -0.13081443 0.030980574 0.03059249

lstm.weight_hh_l0 f4 [256, 64]
00000000: e7ef bf3d eee2 2b3d 525a 813e ca5b 573d
00000010: 90b6 fcbc bc01 703d a271 1cbe f2ee 9abd
00000020: 891b aa3d f8b6 783d e6f6 8fbd 5e32 abbd
00000030: 820a 9ebd e674 eabd b82a ae3d dc47 b8bc
00000040: 32e8 22bd 4aee 1c3e 4c74 b83c 048a a13c
00000050: 9c94 733b aebb 5cbe 9ec9 20be 756f b13d
00000060: b07c d6bd c80b 303d 68fb c0bd 9875 91bb
00000070: e3f3 92bc 862a 31be c183 36bc 3883 f43d
00000080: 94b3 f0bd 5fef 0d3e 1604 3dbe b856 15bb
00000090: bbfd 2f3e 51d1 2f3d 3b45 5bbe f334 ef3d
000000a0: 683b 4f3e c31e ccbc d20b 473d 16d7 423c
000000b0: 06db 09be f0d2 313b 0b8d 5bbc e0ac 693d
000000c0: 4756 83bd 6201 4dbd d255 86bc 6b27 a83d
000000d0: 32e8 f63d c5b1 2fbe 76a6 1abe 384e 50bd
000000e0: c2c2 1a3d 15c7 e23c 4a6e cd3d a625 9bbd
000000f0: 3cab 3dbd b867 f7bd 1cde ed3c 4ec4 e7bd
00000100: d15d c1bd 8a13 f13c 1206 3dbd 61ee 183e
00000110: e9c0 b7bd 8d96 c33d 2770 8c3d 8073 a0bc
00000120: 2cfb 123d da11 b23d 20aa d9bd db78 01be
00000130: 8ec8 313e 9127 46bd af31 8a3d ff69 51bd
00000140: 9004 d4ba d848 7f3b f2ae aebd edcd 96bd
00000150: 4b9d e53d 8b1b 8ebd 4d5b 0ebc 448d 623d
00000160: 400a 033e 88f1 40be 5c65 1fbe 8cc4 ac3d
00000170: e49d 613d f883 8ebd b855 6cbd ca71 13be
00000180: 080c dc3d cab4 02be 218d 243e edca 10be
00000190: 0b14 43be 7df9 963c 962e ffbd 0aa7 9f3c
000001a0: 9043 c43c 767e 62bc 84b0 4bbe 253a adbd
000001b0: eaae 0f3d 142a 013e fa0d 16bd bc8e 35b9
000001c0: ebd2 6abd e6e6 0fbc 06f6 9fbc 1785 2cbe
000001d0: b5da 11be a626 7e3d 765c c6bd c36e 05bd
000001e0: 8ffa 98bd 9ecc 75bd 695f 72be 9e8d 07be
000001f0: e336 623e b228 47bc 901a e0bd 584d 7e3d
00000200: cee6 793d ecad e23d f83a ecbd 2b44 b1bd
00000210: 2fe8 8bbd 382a 20be b505 1a3e dc53 33be
00000220: 6bb5 293d 619b 223e f4e1 8bbe 6911 103e
00000230: 5029 24bc e77c 87bd 98ba b6bd ea6e b93d
00000240: 249a dc3c 653e 13bd d3e3 17be f09a d53d
00000250: 3ae0 0b3e b68f 4d3d 1c84 05be ae56 3c3e
00000260: 8a02 7bbd 7e4e 18be 746d 1bbd a959 27be
00000270: 997b 07be 7e2a 9cbd f8ec c63d 366f 92bc
00000280: a8dc 313e 22a4 fc3d 4601 693c 7831 883d
00000290: 88e5 f23d 8079 263a 7c72 ac3c 7748 2b3e
000002a0: d4a8 33bc f618 a03d 3f1c 9d3d bfb5 c1bc
000002b0: 3865 e9bc 8e77 263d 4586 ee3d 22a4 dfbd
000002c0: 3181 533d c29b 0dbd 8207 a63d 19f5 853d
000002d0: ce95 88bd 6ae4 f3bd 3e30 673d f2a9 8f3d
000002e0: 20e2 9cbd bee8 6f3d 4509 8e3d 2c2e 58be
000002f0: 8a8b e03d a47e 0abe 1969 81bd 7e34 a73b
00000300: 7d71 f43d 7a12 273e fb38 bb3d aaa7 aabe
00000310: e4c4 d93d 60f5 87bd e86c 21bb 68a3 aabd
00000320: f0dd 733b b178 dbbd 2068 0bbd ff1f fd3d
00000330: 565b 1f3e 1a2c 0fbe 0f7d c9bd 16e5 1e3e
00000340: e64c 9a3c 097b e13d ef86 b7bd ea69 7fbd
00000350: e82d 1c3c ac73 7e3c c8bd 45bd dea3 183e
00000360: ab09 8a3d 8b66 e63d b482 35be f5f6 a13d
00000370: 1c24 6fbd 1b5a 053e 5dde 1b3e d46b 48be
00000380: cf0c 28be 68ee 2fbe c570 643d 5e6f 8e3d
00000390: a660 133d f1bd 083e a18a 86be f01d c4bb
000003a0: 8af7 743d 7d75 053e 48b5 cebd 915f fcbc
000003b0: 223e af3c 4035 6b3d 9461 9ebc 7905 553b
000003c0: f076 223d b48b f23c 0c92 e23d 3411 05be
000003d0: 2a0e 95bd e451 6f3b 1fbb 08be e54c c7bc
000003e0: df19 8e3d 211c b5bd 632c 2abd a2ca 13be
000003f0: a413 fd3c f138 0f3e 33ce 6c3d 3e74 0bbe
0.093719296 0.041964464 0.2526422 0.05257777 -0.030848771 0.058595404 -0.15277722 -0.075651065
0.08306033 0.060721368 -0.07029514 -0.08359216 -0.07716848 -0.11448078 0.08504242 -0.022495203
-0.03977222 0.15325275 0.022516392 0.019719131 0.0037167436 -0.21555969 -0.15701911 0.08663837
-0.10473001 0.042979985 -0.09422952 -0.004439067 -0.01793856 -0.17301378 -0.011139811 0.119390905
-0.11753002 0.13860844 -0.1845859 -0.0022787284 0.17186634 0.04292423 -0.21413128 0.11680021
0.20237505 -0.024917012 0.048595257 0.011892101 -0.13462457 0.0027133785 -0.0134003265 0.057049632
-0.064129405 -0.050050147 -0.016398344 0.082106434 0.120560065 -0.17157657 -0.15102562 -0.050855845
0.03778339 0.02768282 0.100308016 -0.0757554 -0.04630588 -0.1208033 0.029036574 -0.11316739
-0.09441722 0.029428262 -0.046148367 0.14934684 -0.089723416 0.095502 0.06857329 -0.019586325
0.035884067 0.08694811 -0.10628152 -0.12643759 0.17361662 -0.048377577 0.06747758 -0.051126476
-0.0016175676 0.003895333 -0.08529462 -0.07363496 0.11211642 -0.06938847 -0.00868876 0.055310503
0.12796879 -0.18842137 -0.1556601 0.08435926 0.055082217 -0.06958765 -0.057698935 -0.14398876
0.10744482 -0.12764278 0.16069461 -0.1413991 -0.19050615 0.018429512 -0.124600574 0.01948883
0.023957998 -0.013824096 -0.19891554 -0.08458356 0.03507892 0.12613708 -0.036634423 -0.00017314678
-0.057330053 -0.008783078 -0.019526493 -0.16847645 -0.14243586 0.062048577 -0.09685604 -0.032576334
-0.07469665 -0.06000959 -0.23669209 -0.13237616 0.2209125 -0.012155699 -0.109425664 0.06208548
0.061011128 0.11068329 -0.11534685 -0.0865558 -0.06831395 -0.15641105 0.1504124 -0.17512459
0.04143278 0.15879585 -0.27320826 0.14069141 -0.010019615 -0.0661562 -0.08922309 0.09054358
0.026928969 -0.035948176 -0.14833002 0.104299426 0.13659754 0.05018588 -0.13038677 0.1839244
-0.06128172 -0.14873692 -0.03794618 -0.16342796 -0.13230743 -0.07625292 0.09713167 -0.017875295
0.1736933 0.12335993 0.014221495 0.066500604 0.11860186 0.00063505024 0.021050684 0.16726862
-0.010965545 0.07817261 0.07671403 -0.023646234 -0.028490648 0.04064136 0.11646704 -0.10919978
0.05163688 -0.03457237 0.08106901 0.06540889 -0.06669198 -0.11908801 0.05644249 0.07014836
-0.076603174 0.05857157 0.06935362 -0.21111363 0.10964115 -0.13524872 -0.06318874 0.005102693
0.11935709 0.16315642 0.091417275 -0.33331043 0.10633257 -0.066385984 -0.0024631564 -0.083319485
0.0037211142 -0.107163794 -0.03403485 0.123596184 0.15562186 -0.13981667 -0.09838306 0.15517077
0.018835496 0.11009795 -0.089612834 -0.062356867 0.009532429 0.015530508 -0.048276693 0.1490626
0.06740125 0.11250027 -0.1772564 0.079084314 -0.058384046 0.13022654 0.15221544 -0.19572383
-0.16411136 -0.17180789 0.055771608 0.06954835 0.035980843 0.13353707 -0.2627764 -0.005985014
0.059806384 0.130331 -0.100931704 -0.030807288 0.021391932 0.05742383 -0.019333638 0.0032504483
0.03966421 0.029607631 0.110630125 -0.12994844 -0.07278092 0.0036517316 -0.13352631 -0.024328658
0.06938528 -0.08843256 -0.041546237 -0.14432767 0.030893154 0.13986565 0.057813834 -0.13618562

lstm.bias_ih_l0 f4 [256]
00000000: 43d0 d23d a262 e33d df04 053d 33ac de3c
00000010: 74f3 c6bd 0202 1d3c 403a 8cbd e5cf 4f3d
00000020: e5d4 023e 750c 27bd 90b7 a5bd df2c e33d
00000030: f279 223d 77d1 833c 1811 ae39 8ba3 b53d
00000040: 5ea9 aabd 22fc 45bc 3431 8abd 01cd c6bd
00000050: b3d5 dcbd e696 e03d d398 c8bd b6fd ad3d
00000060: 3d00 2f3c 4878 0cbd dbb2 913c 29ce 6e3d
00000070: 545d d3bd b1e6 84bd a9a9 8abd 1267 c2bc
00000080: 5a96 adbd e246 fd3d 732d d93d 630e 4a3d
00000090: 39b7 01bd a99e 303c 5b3b fa3d 4a01 38bd
000000a0: 5a94 ccbd 98bb 153d 4b42 cd3d 07b0 523d
000000b0: c97c 46bc 16c5 043e d362 ee3d 4a37 e1bc
000000c0: f766 e63d 538d 063d b5ba e33d 28fe 893d
000000d0: feb4 e2bd fcbf 57bd 52cd 03be 7ce0 72bd
000000e0: ae66 743d 8a09 893d 4b44 14bd c040 cb3d
000000f0: ba55 2a3d afb8 893d 09fe e93d f680 c73c
00000100: 22cc e2bb fd36 a0bd 02fe e73d 20cd c1bd
00000110: f2bc 84bd 5e59 143c 2a05 5a3d 6fb5 cd3d
00000120: 69bf 963d 68f6 e23c 8ed5 f73d 49d1 f5bd
00000130: a0de 023e f9e0 f83d b153 fd3d b0d9 f93d
00000140: ef98 fe3d 516c 5e3d 3cce 993d bb5d 5dbd
00000150: d41a 213d 6edc ff3d e2c4 b0bd 9772 8dbc
00000160: 6b41 c5bd 773f 91bd 3ba0 02bd dc66 d73d
00000170: c409 d93d a378 003e 07ea 13bd c433 073e
00000180: 483a e7bd 1b8b 22bd 8fb6 00be 375e eb3c
00000190: 35ca ab3d d503 873b cc15 e63d eda3 ad3d
000001a0: 86f3 aa3d f925 933d 8611 133d 8bec 37bc
000001b0: 7290 9bbd ceda f83d dbae b0bd fcea e13b
000001c0: 4100 a43d 051f cbbd 6a37 efbd 4507 f23d
000001d0: e5cc 093e 279a f6bc 3882 ba3d 502e c0bd
000001e0: 748a 583d 2673 e93d 6808 d23d 1396 80bd
000001f0: b7a4 d6bd 62a8 61bd 6a42 873d 9b99 153c
00000200: 67ca edbd fec3 ad3c 8574 823d 67c1 0a3d
00000210: 3e07 383d 2466 68bc d92f e03d e8b9 d0bd
00000220: f40b cb3d f91e f33d bcbd f6bd acce 373d
00000230: 31ec ba3c 97bb bf3d 74b9 9b3d 4d97 b23d
00000240: f846 fa3d df35 5cbd 0507 04be ed3a c3bd
00000250: 6d65 06be 882e c23d fe41 af3d 22e5 b9bd
00000260: 2159 ecbd 442f 01be 1df4 f8bd 7de7 d63d
00000270: 9b24 babd 2fef bebd 0ef7 b2bc 07bc 2abd
00000280: a1cd d93d a81b d9bd 29e5 90bd 65cf d03d
00000290: 469e f8bb 8c5c 0d3c 6d6d 31bd 1334 aebd
000002a0: 3b18 2fbd 63dc a13d 6cfb 70bd 6987 273d
000002b0: 405a 98bc a749 2d3c 28a5 aabd a5cc c43c
000002c0: 253d ae3c 0b72 f3bd df87 a43d 73fb bf3d
000002d0: b2c0 0ebc 834f 61bd dfdd 7b3d d3f6 1dbd
000002e0: b284 9ebb a1b9 a0bd d140 cf3c f0ff 973d
000002f0: ea2b ff3d 7fbc d13c 543c dfbd 7c5d 883d
00000300: 4709 68bd 12a6 87bd 9e1b de3d ae70 eebd
00000310: 5118 d73c e171 a93b b846 413d ccc5 c13d
00000320: 8d74 cebd 9b8d bb3d c75f c8bd 4716 d63d
00000330: 3660 a73d 875e 0bbd a58b ae3b 5861 a6bd
00000340: 368f bfbd 988b 3c3d 7b32 47bd 5da5 59bd
00000350: df87 b43d 3908 e33d c89b 393d 291b 94bb
00000360: c11e c8bc 1206 e63d f482 69bd 9dbb d93d
00000370: 6940 c0bd 4a46 53bd 21cc e2bc 8c4c 6d3d
00000380: d7bd 05be 47b5 2b3d 57ea 5d3d 8353 2fbd
00000390: 06f6 00bd 9e72 5abc a364 383b 95b1 54bc
000003a0: 5248 0cbd f829 9abd 834e 523d 3249 62bd
000003b0: 6474 1abd 6e1f 083e 1fc9 fabd 9907 a3bd
000003c0: 2e98 d3bd a55e 8bbd 894f e4bc 9dbf 32bc
000003d0: 9d31 ad3d 73a8 fb3d 84ad dabd 7959 863d
000003e0: bf4e 96bd 8d1b 2d3b 8c07 363d 5750 2f3c
000003f0: f95a 9dbd 979f 84bc b875 c93b 8882 733c
0.10293629 0.11102797 0.03247535 0.02718172 -0.09714404 0.009582998 -0.06847048 0.050735373
0.12776525 -0.040783364 -0.080916524 0.11092543 0.039667077 0.016091092 0.00033200602 0.08869084
-0.083330855 -0.012084039 -0.06747666 -0.0970707 -0.107829474 0.109662816 -0.09794774 0.08495657
0.010681209 -0.034294397 0.01778548 0.05830208 -0.10320535 -0.064893134 -0.06770641 -0.023730788
-0.08475943 0.123670354 0.10604372 0.049330126 -0.031668875 0.010780015 0.122183524 -0.044923104
-0.09989233 0.036555856 0.1002241 0.051437404 -0.012114712 0.12965807 0.11639943 -0.027492184
0.11250108 0.03284962 0.11119596 0.067379296 -0.11069678 -0.052673325 -0.12871292 -0.059296116
0.059668235 0.066912726 -0.03619794 0.099244595 0.04158566 0.06724679 0.114254065 0.024353486
-0.006921307 -0.07822988 0.11327745 -0.094629526 -0.06481351 0.00905451 0.05322758 0.10044371
0.07360727 0.027705386 0.12101279 -0.120028086 0.12780237 0.12152285 0.123694785 0.12199724
0.124315135 0.054302517 0.07510039 -0.054044466 0.039332226 0.124932155 -0.086313024 -0.017266555
-0.09631618 -0.07092183 -0.03189109 0.10517666 0.10597566 0.1254602 -0.036111858 0.13203341
-0.11290413 -0.039683443 -0.1256964 0.028731449 0.08388177 0.00412033 0.11234626 0.08478532
0.0834723 0.07184977 0.035905384 -0.01122583 -0.0759591 0.12151109 -0.08627101 0.0068944674
0.08007861 -0.09918026 -0.11680491 0.11817793 0.13457067 -0.030102802 0.091068685 -0.093838334
0.052866414 0.11398916 0.102555096 -0.062786244 -0.104806356 -0.055092223 0.06604464 0.009130861
-0.11610871 0.02121162 0.063698806 0.03387585 0.04492878 -0.0141845085 0.10946626 -0.10191709
0.09914389 0.11871142 -0.12047908 0.044874832 0.022817703 0.09361952 0.07603732 0.087202646
0.122205675 -0.053762313 -0.12893303 -0.095327236 -0.13124628 0.094815314 0.08557509 -0.09076907
-0.115404375 -0.12615687 -0.12155936 0.10493372 -0.09089013 -0.093229644 -0.02184632 -0.041683223
0.10634924 -0.10600978 -0.07074959 0.10195807 -0.007587227 0.008628022 -0.043317247 -0.08506026
-0.042747717 0.079033636 -0.058833525 0.04090062 -0.018597722 0.010576642 -0.08332282 0.024023363
0.02126939 -0.11886986 0.08033728 0.09374132 -0.008712934 -0.05500747 0.06149089 -0.038565468
-0.004837596 -0.07847906 0.025299462 0.07421863 0.12459548 0.025602577 -0.109001786 0.06658456
-0.056649473 -0.06623472 0.10845111 -0.11642586 0.026256712 0.005171046 0.047186583 0.09461555
-0.10080824 0.091578685 -0.09783893 0.10453468 0.08172648 -0.034025695 0.0053267055 -0.081240356
-0.09353487 0.046031564 -0.048632126 -0.05313622 0.08814978 0.11085553 0.04531458 -0.0045198393
-0.024428727 0.112316266 -0.057009652 0.106314875 -0.09387285 -0.051580705 -0.027685227 0.05793433
-0.130607 0.041920926 0.054178562 -0.042804252 -0.031484626 -0.013332991 0.0028136156 -0.012981792
-0.034248658 -0.07527536 0.051344406 -0.055245586 -0.037708655 0.1329324 -0.12245392 -0.079604335
-0.1033176 -0.068051614 -0.027869957 -0.010909942 0.084567286 0.122879885 -0.10677627 0.06560034
-0.073392384 0.0026414127 0.04444079 0.010700307 -0.07683367 -0.01618938 0.0061480664 0.014862664

lstm.bias_hh_l0 f4 [256]
00000000: 835d ec3b 783e d0bd 7ba9 443d bc9c c3bd
00000010: d216 3e3c 535c ffbc aa31 c33c ded9 ab3d
00000020: ead2 1dbd 87ca 27bc c68f f83d 468f 2dbc
00000030: 8ec9 2d3d f838 9c3b a89b de3d 651f b53d
00000040: 673e ccbc 4c2b ca3d 99f4 833d 032c f43d
00000050: 54e2 533c 1972 29bd 41e2 c3bd 0ebf d63d
00000060: 2b00 97bd f700 0d3e cb68 e73b 2cb1 f5bd
00000070: 92b3 f93d 4905 a2bd 8bd2 b6bd 3869 58bc
00000080: d7b3 56bd 0c03 f43d e601 41bd 5f8c 4c3d
00000090: b844 773c 3e1e c73d b472 433d 46b0 33bd
000000a0: 188e c4bd d7e9 843c 869c 04be 8314 8dbb
000000b0: a3f4 ed3d b8bd 31bd 5575 fcbd 525f 73bd
000000c0: efcb b0bd cfd9 983d f091 3dbc 1b61 bb3c
000000d0: 7fcf 5fbd d39d 093e 9e6e 37bd 19b3 933d
000000e0: ba55 613d 6874 863c 97cd 06bd 601e bebd
000000f0: b4a2 bdbd 6b47 02bd c7d3 283d a2e3 3bbd
00000100: b9ca ca3d 57fb 44bd 9cea 563d a398 4bbd
00000110: d3ec a8bb 55a1 a1bd 1479 efbc 4f88 d3bd
00000120: 15e6 e93d c041 cd3c 0e4f 7c3d 250d 15bc
00000130: 7df4 4d3d cfb4 ba3d 2469 87bc 497a 59bb
00000140: 2340 9cbd c178 993d ebeb e1bd 1355 f3bc
00000150: a034 fc3b b24a 94bc 74e2 853d 526b 593d
00000160: a712 83bd 6560 85bd 25dc 773d 32a4 973d
00000170: f233 cd3d 317b a8bd e6da 79bd e79a 91bd
00000180: a715 c93c fb3a b9bb c3e5 72ba e65b 5dbd
00000190: 97eb 583d 2a7f 943d 90fc e73d b39b d93c
000001a0: 7517 3a3d 74ae 883d ca26 74bd 316f 8a3d
000001b0: bbaf 803d 6051 0cbd cfe5 a43d 2f85 a03d
000001c0: 1c20 6a3c 66d0 d53c 609c d33d d563 df3d
000001d0: 4daf 083e d616 063e 6a52 d2bd 8e12 67ba
000001e0: 8227 003d 81c1 58bc 5aed 9b3d f7c4 893d
000001f0: 5232 47bc 7642 c1bc 2861 28bd b4b0 55bc
00000200: f1ae c73d 59a7 8dbd 3373 a8bd 9fd3 09bd
00000210: f239 673d 57fe 10bd 1d76 f83d 1ec5 e6bc
00000220: a5b7 1bbd bfcf e13c 6a26 b53d fd72 f9bd
00000230: 615a d93d e565 ea3d d03e fcbc c45e 963d
00000240: 7deb dc3b 1f98 47bd e915 ebbd a1f8 c83d
00000250: 2269 c23d 8ac6 4d3d a37f bfbc 54fa fa3d
00000260: c017 cf3c d130 3a3d eea2 853b ea86 4cbd
00000270: 3d04 003e 1929 ec3d bf22 47bd f7b3 11bd
00000280: 95d1 ccbc 347a c43c a95f a53d be4d 123c
00000290: fc7e 3b3d 3206 563d f9a5 983c fba8 84bd
000002a0: 35c7 483d bf47 f13c 4024 973d 65c6 8bbd
000002b0: 6a63 60bd c5b0 bb3d 4935 353d f850 1abd
000002c0: 6960 a3bd 0797 c13d b505 ff3c 6bcd 73bd
000002d0: b6bd 823d 59da cebd b6e5 82bd c0a3 2b3c
000002e0: e118 2cbd 42fc b7bc 25b2 603c be95 fabc
000002f0: 46aa 2f3d 4437 093e 08f4 ae3d ccd6 613c
00000300: 92ce 083d b357 3e3d 288c e03c fe1a b3bd
00000310: 2fed 97bc de9f 49bd df1e f93d 6800 c83d
00000320: b567 bbbd 10b1 66bd ca9d 393d 732a 3f3c
00000330: 55f9 df3c a5f1 a7bd 43c1 afbd 341c bb3d
00000340: 266e a53d e14d acbd 7cb8 f2ba 98cf 8abd
00000350: 2868 3a3d 6472 733d 71b6 b2bc 71a5 37bd
00000360: 9807 edbd 362c bf3d 5704 ce3d 6390 a0bd
00000370: 7b59 b1bd 6606 93bd c1a9 67bd ecb4 c83c
00000380: 4151 a3bd 3973 ca3c 8521 77bd 2e2c a0bd
00000390: fa2c bb3d 22fd eabb da10 603d 0da8 4e3d
000003a0: d24f 7c3d fe39 f33d f04f 48bb 646d 533b
000003b0: 58c1 51bd 4504 bdbd f5ef bbbd a7a4 7d3d
000003c0: 9409 df3c a827 96bc 47be 913c fd85 fd3d
000003d0: 9c4a 5c3c 862c 173d 687a dd3d 8138 d7bd
000003e0: d363 ac3d b886 5bbb a567 813d 380a 643c
000003f0: b5ae 9bbd 3805 a8bd 07d8 c4bb a83d 43bd
0.007213296 -0.10168165 0.04801319 -0.09551379 0.0116021205 -0.031171953 0.023827393 0.08391164
-0.03853122 -0.010241157 0.121367976 -0.010593241 0.042428546 0.0047675334 0.10869533 0.08843879
-0.0249321 0.098715395 0.06443138 0.11922457 0.012932379 -0.041368578 -0.09564639 0.104856595
-0.07373079 0.137699 0.007062053 -0.119966835 0.121924534 -0.07911164 -0.08926877 -0.01320868
-0.052417602 0.11914644 -0.04712095 0.049938556 0.015092067 0.09722565 0.04771681 -0.04386928
-0.09597415 0.016224785 -0.12950334 -0.0043054237 0.116189264 -0.04339382 -0.12327067 -0.059417076
-0.08632647 0.07463419 -0.011570439 0.022873452 -0.054641243 0.13439111 -0.044783227 0.072118945
0.055013396 0.016412929 -0.03291091 -0.09283137 -0.09259549 -0.03180639 0.04121759 -0.045871384
0.099019475 -0.04809126 0.052469835 -0.049706113 -0.005155185 -0.078921 -0.02923254 -0.10328733
0.11420838 0.025055766 0.06159883 -0.009097372 0.05028199 0.09116518 -0.016529627 -0.003318446
-0.076294206 0.07493735 -0.11031326 -0.029703652 0.007696703 -0.018102024 0.06537333 0.053080864
-0.06400042 -0.065125264 0.06051268 0.07404365 0.100196734 -0.08226622 -0.060999773 -0.071096234
0.024546457 -0.005652783 -0.00092658045 -0.05404272 0.05295905 0.07250817 0.11327469 0.026563501
0.045432527 0.06673899 -0.059607305 0.06759489 0.06283518 -0.034257293 0.08051645 0.07837903
0.014289882 0.026100349 0.103325605 0.10907713 0.13348122 0.13094649 -0.102696255 -0.00088147155
0.031287678 -0.013229729 0.076136306 0.06727021 -0.012157993 -0.023591261 -0.04110828 -0.013042618
0.09750164 -0.06916685 -0.082250975 -0.033649083 0.056451745 -0.035398807 0.12131903 -0.028170165
-0.038016934 0.027564881 0.088452175 -0.121801354 0.106129415 0.11445216 -0.03079167 0.07342294
0.0067419396 -0.04872906 -0.114787884 0.09813047 0.09492709 0.05023817 -0.023376292 0.122547776
0.02527988 0.04545671 0.0040782606 -0.04993335 0.12501617 0.11531276 -0.04861712 -0.03557202
-0.02500228 0.023984052 0.08074886 0.008929668 0.0457754 0.052252002 0.01863383 -0.06477543
0.049018104 0.029453157 0.07379961 -0.0682495 -0.05478231 0.091645755 0.04424027 -0.037674874
-0.07977373 0.09452634 0.031130651 -0.059522074 0.06383841 -0.1010024 -0.0639147 0.010476053
-0.042015914 -0.022459153 0.013714348 -0.03058898 0.042886995 0.13399988 0.08542639 0.013784122
0.033400126 0.046470355 0.027410582 -0.08745383 -0.018545715 -0.049224727 0.12164091 0.097657025
-0.0915064 -0.056321204 0.045316495 0.0116678355 0.02734057 -0.08200387 -0.085817836 0.09136239
0.0807765 -0.08413292 -0.0018518115 -0.067778766 0.045509487 0.059435263 -0.02181551 -0.04483551
-0.11573714 0.093346044 0.100594215 -0.078400396 -0.08659645 -0.07178955 -0.056558374 0.024500333
-0.07974482 0.024713146 -0.0603347 -0.078209266 0.09139438 -0.007171289 0.05470357 0.050453234
0.06159956 0.118762955 -0.0030565225 0.0032261247 -0.051209778 -0.0922933 -0.091766275 0.061924603
0.027226247 -0.018329456 0.017790927 0.12379072 0.013445523 0.036907695 0.10814363 -0.10508824
0.084174775 -0.0033497047 0.06318597 0.013918452 -0.07601682 -0.082041204 -0.006007198 -0.04766622

actor.weight f4 [5, 64]
00000000: 40c2 4cba ef8b bc3d 9cab 87bd 30e9 bd3d
00000010: 5aba dcbd b59e 6bbd ac88 31be cc6a 19bc
00000020: bc55 c53d 1602 d7bc 53cd b13d c84b f53d
00000030: 402f afbd 4497 ea3c 019f ce3c 4fdd 113e
00000040: 5a7e 0abd 649f c63d 9e02 4ebc 9491 643d
00000050: ece1 153e 267f 383d a6a4 e3bd 99d6 9ebd
00000060: 1662 29be 8d0c 403e 91bb 20be 20bc 05be
00000070: 4fca 223d e08f f6bd a84a 4abe 1b6e c63d
00000080: 2602 57be 7e70 863e f980 00be 8994 ae3d
00000090: 7a69 6f3d 4e08 17bc 3a06 5dbd 107c cb3d
000000a0: 1d94 1c3e daba c73d 07d9 973e b6ec 32be
000000b0: a822 953d a3a5 d33d e2ff bcbd d715 4abe
000000c0: 18ec be3d 35aa 21be b005 9dbd 765a 3b3d
000000d0: 3810 8d3d e11a f5bc de5a 41be 13b3 c83d
000000e0: 73f2 ffbd 8048 053b ada7 b83d 5818 9dbc
000000f0: 320c d43d df20 74bd 4ecb 8d3c be59 063e
00000100: 78af 12be a8e9 cf3a ca4d df3d 8496 23be
00000110: bfef 0e3e 1b92 81be b396 24be 900d 83be
00000120: 9292 023e efed 583e 0a0a 24be 3800 e0bc
00000130: d26e 9f3d a956 43bd 1064 2ebc 7303 00be
00000140: ca7a c63d b89b 6d3e 735d 793d 76e5 31be
00000150: 4290 fcbc c867 053e f9b9 be3d a29b 99bd
00000160: b86a 13be ce86 35be 3c8f 9cbd c013 ecbd
00000170: 8932 06be 9551 0bbe 5cba b03d 8a86 863d
00000180: 78b0 d8bc 1ae0 be3c 34dc 1bbd 68ad 7e3d
00000190: 0eb6 273d 37e7 14bd ac15 43be 583c 03bd
000001a0: ea0b 65bd d045 663d 5a18 03be f691 ec3c
000001b0: e290 243e 6afb f0bd beb6 ea3c 000c 1aba
000001c0: 7394 763e ccd8 663c 511b 483e 18b2 2fbe
000001d0: fc36 b0bd 1dc6 b4bc 525b 403c 1310 18bc
000001e0: d4de 89bd 8397 d23d e1cd 42bc 7446 68bd
000001f0: bacf 053d 660d 05bd cdef d0bc cecc d63d
00000200: 6ff8 89bd 748c fa3c 88b1 17bd 4fd1 22be
00000210: a0c8 15bb ec9f 663d 121d 7abc b0ba 5b3d
00000220: 8f6a b33d 6108 04be a78c 6fbe 86f6 8fbd
00000230: 40ad 323d 9e78 02be aa6a fcbc 286d aebb
00000240: e279 303e a903 033d 32eb 4fbd ed36 8c3b
00000250: 995b cbbd 3456 643e 6559 8b3d a06e ba3d
00000260: 690b 313d 684f c0b9 1875 943d 4b9d f13d
00000270: 32cd 97bc da26 69bc 7396 0fbe 93ce 72bd
00000280: 38ea 4cbc 6ee2 30be 53d6 553e 0943 3e3d
00000290: e85d 293e 173f 6abd 1110 873d 27ed 093e
000002a0: 6046 a13a f88b abbd 8ee4 edbc c2f2 f73d
000002b0: 6438 1dbc f95b 51bd 0995 ac3d 1339 9ebd
000002c0: e8e6 69bd 51e0 573d d42d 8dbd 0100 0f3e
000002d0: 6e2b 9d3d d652 d0bd 9fb1 8c3e d67c 14bd
000002e0: 369a 79bd bc82 e03d 8774 77be 8f5e 2c3c
000002f0: 1b24 c63a dfd4 e03d b050 543e 0a38 623e
00000300: 122e a63d 6223 a43c c25f ff3d ecca 8b3e
00000310: 9849 00be 91f2 55bc 6220 5abd 5009 103c
00000320: 2862 6d3c b65c af3d 8443 35bd 9755 26bd
00000330: 9e45 1dbe c108 fa3d 1eb0 673d c9b4 0fbd
00000340: 2f2e 9f3d 6086 2c3b 2227 0e3e 6f59 383e
00000350: c123 173e 2e00 963d 00a9 ef3c d2f2 8d3d
00000360: f0e5 033d 5c2d 2fbe f46e 0e3d 3611 bc3d
00000370: f223 dfbd 86ce ba3d 25d5 c13d c96e a6bd
00000380: 32c9 8fbd 3add 2b3e 973e cdbd c006 163e
00000390: 907f ed3d 5130 3d3e c7ed 3abe ca11 57be
000003a0: 9693 c43d 9de5 e23c 5715 82bd 3823 91bd
000003b0: a083 4e3e 0056 323d 01bb 97bd 46c1 39be
000003c0: 0af5 cebd ec82 25be 0ee0 a73d f1cf 4e3c
000003d0: 1ad9 27bd 1b55 693e 9b09 00be 8851 b33d
000003e0: 2077 f4bc 5202 753e 835b f7bd 24b1 c3bc
000003f0: f6a9 1ebd 5878 083e 105e 9fba 43a4 bd3d
-0.0007810928 0.09206378 -0.06624529 0.092729926 -0.10777731 -0.0575244 -0.17337292 -0.009363841
0.09635493 -0.026246112 0.086817406 0.11977345 -0.08553934 0.028636582 0.025222303 0.14244579
-0.033811904 0.0969837 -0.012573866 0.055802897 0.14636964 0.045043133 -0.111153886 -0.07755775
-0.16541323 0.18754788 -0.15696551 -0.13060045 0.039743718 -0.12039161 -0.19755042 0.0968897
-0.20996913 0.262577 -0.12549199 0.085244246 0.0584502 -0.009218289 -0.053961016 0.099357724
0.15290876 0.09752436 0.29657766 -0.1747311 0.07282001 0.10334327 -0.09228493 -0.19734894
0.09322375 -0.15787585 -0.076671004 0.045740567 0.06887859 -0.029920043 -0.1888232 0.09799781
-0.124974154 0.0020337403 0.090163566 -0.019176647 0.103538886 -0.05960166 0.017308857 0.13120171
-0.14324749 0.0015862482 0.10903509 -0.15975386 0.13958643 -0.25306782 -0.16073112 -0.25596285
0.12751225 0.21184514 -0.16019455 -0.027343854 0.07784809 -0.047690067 -0.010643974 -0.12501316
0.09691389 0.23203933 0.060880136 -0.17372689 -0.030830506 0.1302787 0.09312815 -0.07500388
-0.14396179 -0.17727205 -0.07644507 -0.115272045 -0.13105215 -0.1360534 0.08629295 0.0656863
-0.026451334 0.02330022 -0.0380518 0.06217709 0.040945105 -0.036353316 -0.19051236 -0.03203997
-0.055919565 0.056218922 -0.12802258 0.028878193 0.16070893 -0.117667034 0.028651591 -0.0005876422
0.24080066 0.014089774 0.1954167 -0.17157781 -0.086042374 -0.022067124 0.011740522 -0.009281176
-0.06731954 0.10282805 -0.011889906 -0.056707814 0.032668807 -0.03248348 -0.02550497 0.10488282
-0.06736838 0.030584551 -0.03703454 -0.15900157 -0.0022855178 0.056304857 -0.01526572 0.053644836
0.08760559 -0.12893821 -0.23393498 -0.070294425 0.043622255 -0.12741324 -0.03081258 -0.005323071
0.17233995 0.031985912 -0.05076141 0.0042790086 -0.0992958 0.22298509 0.0680416 0.09103131
0.043223772 -0.00036680256 0.07248896 0.117975794 -0.018530462 -0.014230454 -0.14022236 -0.059279036
-0.012507014 -0.17273876 0.2088254 0.04645065 0.16539729 -0.057189073 0.06594861 0.13469373
0.0012304299 -0.08376306 -0.029039647 0.12106849 -0.009595964 -0.051113103 0.08426864 -0.0772573
-0.057104975 0.05270416 -0.06893507 0.13964845 0.07674299 -0.1017205 0.27479264 -0.036251865
-0.060938083 0.109624356 -0.24165545 0.010520591 0.0015116961 0.10978102 0.20733905 0.2209169
0.08114256 0.020036403 0.12469436 0.27303255 -0.12528074 -0.013058321 -0.05325354 0.008791283
0.014488734 0.08562605 -0.04425384 -0.04060897 -0.15358588 0.12208701 0.056564443 -0.03508452
0.07772481 0.002632521 0.13882115 0.18002866 0.14759733 0.07324253 0.02925539 0.0693108
0.032201707 -0.17107147 0.034773782 0.0918297 -0.10895528 0.091214225 0.09464482 -0.08126599
-0.07020797 0.1678361 -0.10021704 0.14651012 0.11596596 0.18475462 -0.18254767 -0.2100288
0.09598462 0.027697379 -0.063517265 -0.070867956 0.20167398 0.043539047 -0.07408715 -0.18140134
-0.10105331 -0.16163224 0.08197032 0.012622819 -0.04097853 0.22786371 -0.12503664 0.08755785
-0.02984196 0.23926666 -0.12078001 -0.023888178 -0.038736306 0.13327157 -0.001215877 0.09259846

actor.bias f4 [5]
00000000: 5a42 c63d 9f59 ddbd 01a3 e7bd 4285 de3d
00000010: 391a f9bd
0.09680624 -0.108081095 -0.113103874 0.10865261 -0.12163205

critic.weight f4 [1, 64]
00000000: 68de 3fbb d215 883d 5b77 f9bd aea9 313d
00000010: 5a98 62bd bca7 edbc c98e 073e 44f9 7ebc
00000020: 605d 81bc f4be 0e3c 435b bcbd c21f c13c
00000030: a89b d43d e474 2dbd 7206 ef3d 0cde b33d
00000040: 904e 56bd bec9 01bd 46cc aebe 18d1 6bbe
00000050: f455 1cbc d441 2a3e adfe b83d 9d86 b93d
00000060: 5c48 e2bd c71e 82be cef5 adbc be80 ce3d
00000070: 9581 fe3d 7e2a e1bd 5e0e 06bd 2d41 36be
00000080: 982d c5bc 2384 71bd 2a36 8fbd 9a20 2cbe
00000090: 9155 70be 9729 c83d 2652 25bd 33e1 1abe
000000a0: 4ec9 64bd 78c1 553e 61f8 20bd 8607 713e
000000b0: d330 c1bd e205 133e c7f5 e6bd fe70 0c3e
000000c0: 3794 273d c00e 003e 4921 2d3e c370 213d
000000d0: fe13 803d f778 61be e198 193d d7c9 31bd
000000e0: c42c e53d 0e69 073e 4c83 3ebd 5e2b 1b3e
000000f0: 8802 893d 824e 103e 1100 fd3d 61fd ea3d
-0.0029276852 0.06644787 -0.121809684 0.04337471 -0.055321075 -0.029010646 0.13238062 -0.015562359
-0.015791595 0.008712519 -0.09197094 0.023574714 0.103812516 -0.042347804 0.11671151 0.087825865
-0.052321017 -0.031686537 -0.34140223 -0.23028982 -0.009541977 0.16626674 0.090329506 0.090588786
-0.11048958 -0.25414106 -0.021235373 0.100831494 0.124270596 -0.10994433 -0.032728545 -0.177983
-0.024069592 -0.058963906 -0.06992753 -0.16809312 -0.23470141 0.09773558 -0.040361546 -0.15124969
-0.05585604 0.20874584 -0.039299373 0.23538026 -0.094331406 0.14357713 -0.11277347 0.13714978
0.040912833 0.12505627 0.16907229 0.03941418 0.06253813 -0.220188 0.037499312 -0.04340538
0.11190179 0.13223669 -0.046511933 0.15153262 0.06689936 0.14092448 0.12353528 0.114741094
